assignment3/part1/VAE_zdim2_logs/lightning_logs/version_8948886/checkpoints/epoch=71-step=30384.ckpt (torch, 871118 bytes, 24 tensors)

encoder.net.0.weight f4 [32, 1, 3, 3]
000000 35 ae 26 3e 86 d4 2a 3e 6a 37 44 be 9e 03 87 3e
       0.16277392 0.16682634 -0.19161764 0.26369947
000010 c4 10 a3 bd 0a 95 08 3e 3e e7 70 be 33 d9 14 3e
       -0.07962182 0.13338104 -0.23525712 0.1453598
000020 f0 a1 4a 3e 8a 1e 89 be de 95 7a 3e c1 ab 7e 3e
       0.19788337 -0.26781112 0.24471232 0.24870206
000030 f6 4f 43 3e fe e5 9e 3d 4e 73 81 3e 73 08 91 3d
       0.19073471 0.07758711 0.25283283 0.0708169
000040 77 41 9b 3e 78 76 89 3d 0b ef 0d bd 9a 9a d3 3d
       0.30323383 0.06712049 -0.034651797 0.10332222
000050 1e 40 a6 bd 51 0f 05 3d 1d 90 a9 bd ec 06 bd 3d
       -0.08117698 0.03248531 -0.082794406 0.09229836
000060 f4 86 86 bc 2f c8 79 bb 5d 84 2f bd c0 1e 4d be
       -0.016421773 -0.0038113703 -0.04285084 -0.20031261
000070 06 49 c9 3a 67 d8 9e be bf 7f a1 3e b3 3a b0 be
       0.0015356846 -0.31024477 0.31542775 -0.34419784
000080 59 64 9f 3e 12 48 82 3d fa a0 59 bd a1 43 83 3e
       0.31131247 0.063614026 -0.053132035 0.25637534
000090 1e d3 5b 3d f8 13 94 3e c7 75 6c 3e da 05 ce bd
       0.053668134 0.28921485 0.23091803 -0.1005971
0000a0 a7 69 1a 3e e4 b7 70 3d 0b 69 cb 3d 65 23 96 3e
       0.15079366 0.05876912 0.09932145 0.2932388
0000b0 cc 7e 65 3e 2f 08 b3 bd 6a a4 0f 3e 92 ea 84 bd
       0.2241165 -0.08741795 0.14027563 -0.06490053
0000c0 5e 6d a1 3d de 2d 5e be 57 30 e5 be 99 f1 bc bd
       0.07882188 -0.21697184 -0.44763443 -0.092257686
0000d0 40 6d a8 be 82 40 1a 3e 4d 5d cd 3d 15 71 62 3e
       -0.3289585 0.1506367 0.10027561 0.2211345
0000e0 56 09 2d 3e 8b 6b 8a 3d 6c 0f ae 3e cf 97 25 be
       0.16898093 0.067587934 0.3399614 -0.16171192
0000f0 33 8b c4 bd 51 68 a6 be 64 3e 88 bd 58 cc f2 bd
       -0.09596863 -0.32501462 -0.06652525 -0.11855382
000100 cd b2 f9 3d ff 43 94 bd c0 2f 89 3e 5c 23 1e be
       0.12192307 -0.07239532 0.26794243 -0.15443176
000110 24 36 80 be e7 8a b0 be d0 8a 99 3e 9c 54 c4 3d
       -0.25041306 -0.34480974 0.29988718 0.095864505
000120 1b 39 46 3e 4e 38 8d be d6 fc 8c be 44 a8 9e be
       0.19357722 -0.2758202 -0.2753665 -0.3098775
000130 42 de 5f be 40 12 21 3e 0f 7a 06 3e 52 a0 b3 3e
       -0.21862128 0.15729618 0.13132499 0.35083252
000140 51 57 2e be 95 2a 66 be f4 26 88 3e a2 02 09 be
       -0.17025496 -0.22477181 0.2659222 -0.1337991
000150 47 3d 33 3e 62 25 a0 bd 75 c0 3b 3e 8e 74 e3 bd
       0.17503844 -0.0781963 0.18335135 -0.111062154
000160 96 6b 4c be a4 84 8f 3d fd 83 5a 3d 85 28 8b bd
       -0.19962916 0.07007721 0.05334853 -0.06794838
000170 d9 a9 e4 3d 00 ac a1 3e 07 00 a0 be 43 82 39 be
       0.11165208 0.31576538 -0.3125002 -0.18116097
000180 7d 50 9d 3e 50 85 2b be ac e6 00 be 4e 26 63 be
       0.3072547 -0.16750073 -0.12587994 -0.22182581
000190 a0 00 48 be 7e 8f 60 3d 5c 97 9e bd 58 1e 84 be
       -0.19531488 0.054824345 -0.07743713 -0.258044
0001a0 8e 82 9d bd 15 78 cb bd 4e c1 34 be 6a 98 03 be
       -0.07690917 -0.09935013 -0.17651865 -0.1285111
0001b0 5f 9e aa bd 52 c0 de bd d5 64 66 3e 2a 8f 19 3e
       -0.08330988 -0.10876526 0.22499402 0.14996019
0001c0 4a 4f ba 3d 9a 7e 95 be 0f bd c1 bd 53 fd 0d bd
       0.090971544 -0.29198152 -0.09459888 -0.034665417
0001d0 d6 fb e7 3d aa fa 04 be 73 b8 af bd 01 d8 1f be
       0.11327331 -0.12986246 -0.08580103 -0.15609743
0001e0 da ee ac 3d a7 5b 4b bd 56 02 82 ba e1 52 1d bd
       0.08443995 -0.049647953 -0.0009918909 -0.038409118
0001f0 cd 2b cb bd ee 97 24 bd 57 9f e5 bd 03 ac bd be
       -0.09920464 -0.040183954 -0.11212032 -0.37045297
000200 7f 4b c0 3e cd 15 2d be 30 59 6c 3e 8b a6 3e 3e
       0.375576 -0.16902848 0.23080897 0.18618219
000210 37 5e 9a be 32 88 6e 3e a9 7f fe bc 93 7a 08 be
       -0.30150005 0.23294142 -0.031066732 -0.13328008
000220 1b f3 90 be 39 f1 95 be 1d ef 23 3d c0 92 01 be
       -0.28310475 -0.292856 0.040022958 -0.12653637
000230 e7 85 b9 3d ed 1f 61 be 3f b2 64 3e db e4 5f be
       0.09058743 -0.21984835 0.2233362 -0.21864645
000240 85 2b 61 bd 5d ce a8 3e bb 35 56 3e 38 5a 81 3e
       -0.054973144 0.32969943 0.20918934 0.25264144
000250 e2 2e bf 3e 0d d2 94 be d4 c6 c3 3e b7 ff df bc
       0.37340456 -0.29066506 0.3823763 -0.027343614
000260 fa ea 2c be ba 81 7f be 9f e9 8f 3e 02 cb 90 be
       -0.16886511 -0.2495183 0.28107926 -0.28279883
000270 aa 95 c4 3d 31 4a 0b 3e 9b 13 e3 3d 47 50 29 be
       0.09598859 0.1360252 0.11087724 -0.1653453
000280 e5 ff 8d 3e c0 53 ce 3d 68 88 82 3d f4 21 5d be
       0.27734295 0.10074568 0.06373674 -0.21594983
000290 84 7e 0f 3e 33 78 bf 3c eb 31 a9 bd fa f5 5a 3e
       0.14013106 0.023372745 -0.08261474 0.21382895
0002a0 fe 32 1f 3e 8f 49 b0 bd f7 a6 01 be 68 71 94 bb
       0.15546796 -0.0860778 -0.12661348 -0.0045301206
0002b0 b9 df 09 3e 74 3d 81 bd 7c dd f9 bd 6c e1 80 bd
       0.1346425 -0.063105494 -0.12200448 -0.06292996
0002c0 b7 74 d9 bd 1e 6b 8b 3c 76 68 61 3e 9a 34 1d be
       -0.10617965 0.01701885 0.22012505 -0.15352097
0002d0 37 31 fe 3d 72 5a 24 3e 07 d9 8c 3e f5 13 c3 bd
       0.12411731 0.16050127 0.2750933 -0.09525291
0002e0 7d f4 8e 3e 6b da 7d 3e d6 73 86 3e 94 59 1d 3c
       0.27920905 0.24790351 0.2626025 0.009603877
0002f0 14 c9 99 bd 05 a1 1b 3d 51 01 3b be 28 be 9d be
       -0.07509056 0.037995357 -0.18262221 -0.3080914
000300 06 17 2e 3e 28 a6 db 3e 52 fe 52 bd 3a 4d ea bd
       0.1700097 0.42900205 -0.05151207 -0.11440511
000310 e6 2d 15 3e ee 79 85 3d 90 ca 96 3d 54 74 33 3d
       0.1456829 0.06517397 0.073628545 0.04381211
000320 16 40 87 be ee d4 3e be cf 4c 5b 3e 13 77 45 3e
       -0.2641608 -0.18635914 0.21416019 0.19283704
000330 c1 ec 3b 3d 54 68 0e be da d3 8e bd 9d 06 e3 bd
       0.045880083 -0.13906986 -0.06974001 -0.11085246
000340 f7 28 3d bd ee e2 1d 3e c4 be 21 3e 74 c9 82 3d
       -0.046181645 0.15418598 0.15795428 0.063860804
000350 46 39 87 be 60 fc ee bd 12 55 97 bd be 2b 37 3e
       -0.26410884 -0.116692305 -0.07389273 0.1788778
000360 78 da 4d 3d d0 e9 ee bc e6 fd 66 3e 0d e0 5e be
       0.050257176 -0.029164225 0.22557792 -0.21765156
000370 8c da 3b be 62 17 29 3e c8 99 4f be 17 45 f4 bd
       -0.18345088 0.16512826 -0.20273507 -0.1192724
000380 af a0 b8 be 5e e8 1d 3e 53 aa 58 3e 29 d4 f9 3d
       -0.36060092 0.15420672 0.21158724 0.121986695
000390 51 13 39 be 2a 9d cb be d7 13 89 be 34 ab 2f 3e
       -0.18073775 -0.39768344 -0.2677295 0.17155153
0003a0 78 50 09 3e 02 3d a7 3e 16 b2 9d 3d eb 15 1a 3d
       0.13409603 0.32663733 0.07699983 0.03761856
0003b0 72 3d 9a 3b cd a6 2b be 34 2f 87 bd 93 c6 9d bd
       0.004707032 -0.16762848 -0.066008 -0.07703891
0003c0 ad 1f 10 3e bd 85 1d bd e0 34 99 3d 5b 9c 7b bc
       0.14074583 -0.03845762 0.07480788 -0.015357102
0003d0 ca fe 10 3d 80 e3 3c bd 8a 39 30 be 20 4e aa 3d
       0.035399236 -0.0461154 -0.1720945 0.083156824
0003e0 bd 5b 3e 3c bd cb 0c 3e ad e4 cd bd 05 9a 27 bd
       0.011618552 0.13749595 -0.10053382 -0.04091837
0003f0 ab a8 1d 3d d7 8b 35 be ff 80 15 bd cd 72 83 be
       0.038490932 -0.17729126 -0.036499973 -0.25673524

encoder.net.0.bias f4 [32]
000000 85 57 dd 3e 78 d9 8d be 77 6b 87 bc 89 bb 33 be
       0.43230835 -0.27704978 -0.016530735 -0.17552008
000010 c4 7a 14 bf 8f bd 02 bf 88 12 0f 3e 3d 40 1e be
       -0.57999825 -0.51070493 0.13971913 -0.15454192
000020 1c cb c1 be b3 b4 18 be e8 8f c6 bd 6a e8 bd be
       -0.37850273 -0.14912681 -0.09695417 -0.3709138
000030 06 ae 84 bd 54 43 9f be c0 90 0c be 0a 7e ca be
       -0.06478505 -0.31106055 -0.13727093 -0.39549285
000040 2f 81 1c bf 19 22 47 3e b8 ae c0 bd 37 99 b6 bd
       -0.6113462 0.19446601 -0.09408325 -0.08915942
000050 27 f4 00 bf b3 7c c0 bd 66 e3 01 bd ae 91 3e bd
       -0.50372547 -0.093987845 -0.031711005 -0.04652565
000060 c3 9a f4 be b7 41 e7 bd fc e2 a0 3c d3 ac 1f bc
       -0.47774324 -0.11291831 0.019639485 -0.009745794
000070 87 09 a3 3b 73 d3 b9 bd 6e 6f cc bd d9 53 61 bd
       0.004975501 -0.09073534 -0.09982191 -0.055011604

encoder.net.2.weight f4 [32, 32, 3, 3]
000000 ce 76 86 3d f1 0d d8 bc bf 17 c0 bb 92 d9 b8 3b
       0.06565629 -0.026373835 -0.0058622058 0.005641171
000010 2e 72 f2 bd fc d7 76 be 30 19 9a be 63 6c c9 be
       -0.11838184 -0.24105829 -0.30097342 -0.39340505
000020 d7 c1 c5 be d5 7b 40 bd 34 a5 52 be ed 17 fe 3d
       -0.3862445 -0.046993095 -0.20570832 0.12406907
000030 b8 ce 5d be 93 e7 88 bd 46 64 cd be 8c 11 2c be
       -0.21660888 -0.06684794 -0.40115565 -0.16803569
000040 65 68 6b bd 3e 53 3c be 5b ce c8 bd a5 36 1c 3d
       -0.057472605 -0.1839113 -0.09804984 0.03813805
000050 15 c3 8f 3c bb 7b 07 bd 1c a5 66 bd 35 4c 0a be
       0.017549077 -0.033076983 -0.056309804 -0.13505633
000060 2d cc 96 bd f2 57 a2 3c 87 86 62 3e e3 4e 5d bd
       -0.07363162 0.019817326 0.2212163 -0.05403031
000070 7e 3f 1b 3e 85 5b 66 be 1d 3b d3 3d 24 0d 0a 3e
       0.15160939 -0.2249585 0.10314009 0.13481575
000080 eb 1d 08 be 15 ab 1c 3e 0e e7 3d bd 9c 2b d9 3d
       -0.13292663 0.15299638 -0.04636293 0.10604021
000090 86 ab 1a 3d b0 0d 8f be 96 2a 15 3d 47 1d d1 bc
       0.037761234 -0.2794013 0.036417566 -0.025526656
0000a0 d2 95 20 bd 28 2c d5 be 28 83 1f bd ba f0 1a 3e
       -0.03920538 -0.4163525 -0.03894344 0.15130892
0000b0 b2 cf 4c bd e0 74 ac be b4 08 01 be 48 0b 05 be
       -0.05000276 -0.3368292 -0.12600976 -0.12992585
0000c0 f2 bf 5e be 9e c7 be 3d dc 59 5f 3e a5 31 4c 3e
       -0.21752909 0.09315418 0.21811622 0.19940813
0000d0 53 1c c9 3d b9 ba 38 3e 18 60 35 3e 3b f6 0b 3c
       0.098198555 0.18039979 0.17712438 0.008542593
0000e0 03 1b 9f 3d 1c 6b 25 3e 81 5c 95 3d ef 68 43 3e
       0.07768824 0.1615414 0.07293034 0.19082998
0000f0 44 7e 4b 3b 47 2b 1c be fa c9 b5 be fe fb 12 3e
       0.0031050602 -0.15250884 -0.35505658 0.1435394
000100 a5 bd 83 bd 29 73 23 bc a8 32 3e bd 8c cf 6f 3d
       -0.06432656 -0.009976187 -0.04643503 0.05854754
000110 1a 51 ba 3d 57 d0 3a be 05 9f 7f bc b7 7d 69 3d
       0.090975 -0.18243538 -0.015601878 0.057004657
000120 d5 e9 33 3d 82 86 f0 3d d9 4a 84 be 30 64 42 be
       0.04392417 0.11744405 -0.25838354 -0.18983531
000130 27 c9 b3 bd c9 2f 09 3e 03 ab 50 3d 1f 66 af 3d
       -0.08778601 0.13397135 0.05094434 0.085644
000140 2c f4 89 3e 0c a8 f5 bc f8 2b ce 3d 40 36 bf 3d
       0.269441 -0.029987358 0.1006698 0.09336519
000150 57 0c c6 3d 77 d2 80 bc 43 4a b5 bd 7b ca 47 be
       0.096703224 -0.015725357 -0.08852055 -0.19510834
000160 ef e0 a7 bd 7a a1 04 3e 49 5e d5 3d 6a ce 96 3c
       -0.081971996 0.12952223 0.10418374 0.018408973
000170 45 28 09 bd e9 c2 85 3d 57 d9 87 bd c7 5d 13 bd
       -0.03348567 0.06531317 -0.06633251 -0.035978105
000180 4b b5 d9 3c 93 bb 71 be 49 f2 6d bd c6 42 df be
       0.026575705 -0.2360671 -0.05809239 -0.43605632
000190 4b 95 c1 bd f2 c9 89 bd 88 13 20 be 6a fa 6d 3d
       -0.094523035 -0.06727971 -0.1563245 0.05810014
0001a0 fa 5a c0 3d a9 17 85 3d 32 0c e5 3d 74 b2 a5 3d
       0.093923524 0.064986534 0.11183967 0.08090678
0001b0 23 ec fb bd ed e2 04 3e 90 61 c2 3d 86 d5 ab bc
       -0.12300899 0.1297719 0.09491265 -0.02097584
0001c0 17 14 10 3e 9e 48 24 3e c0 09 8f bc be 66 34 3d
       0.14070164 0.16043326 -0.017460704 0.044043295
0001d0 f0 a3 ef bd 4a 4b 8c be 4a 2a 8f bd c9 5e 12 bd
       -0.117011905 -0.2740119 -0.06990488 -0.035734925
0001e0 50 c1 95 bd bd 60 70 3d c4 bf 26 3d d1 65 0e 3e
       -0.07312262 0.058686007 0.040710226 0.13906027
0001f0 5e 5d 46 3e a4 e9 0a 3e 23 0a 61 be 3d 15 c5 bd
       0.19371554 0.1356569 -0.21976523 -0.096231915
000200 94 ad 11 3e 91 8c fc bd 1b e8 3d be 37 61 99 be
       0.14226371 -0.123314984 -0.18545572 -0.29956982
000210 cb d0 f7 be c7 8e 85 be d1 ff 6a be b8 51 ae be
       -0.48401484 -0.26085493 -0.22949149 -0.3404672
000220 ba 70 7d bd 7a 14 0a bd c5 74 c2 bd db 73 33 bd
       -0.061875083 -0.033710934 -0.09494928 -0.04381166
000230 f9 b8 b6 3b 7e 37 d8 3d c8 55 5f 3e 89 1c 27 3e
       0.0055762497 0.10557459 0.21810067 0.16319479
000240 d8 f0 67 3d 60 5c 22 be 99 a0 1b 3c 3d f9 19 be
       0.05662617 -0.15855551 0.009498739 -0.15036483
000250 81 21 06 be f5 c4 44 3d 1c 2d dc bd 73 c4 26 be
       -0.13098718 0.048039395 -0.107507914 -0.16285877
000260 08 44 39 bd 32 d6 12 3d 7d 3b 18 be fd 9f 3f 3d
       -0.045230895 0.035848804 -0.14866443 0.046783436
000270 77 28 b2 3d 29 8d ad bd a9 93 8f be 95 c8 72 be
       0.08699124 -0.0847419 -0.28042343 -0.23709328
000280 81 af 3d be 92 1b d3 be 99 c8 20 bd cb b0 65 3e
       -0.1852398 -0.41231972 -0.039253805 0.22430722
000290 4c c9 36 3d bf ae 8b bd 12 71 27 3d 7f 12 37 be
       0.044625565 -0.068204395 0.040879317 -0.1787815
0002a0 16 2a e9 3d 99 36 89 3c e2 76 0d 3e 34 ed 8d 3d
       0.113849804 0.016749667 0.13814881 0.069300085
0002b0 f1 25 0a be cf ab b4 3c ea fc a3 3b ea 21 85 bd
       -0.13491036 0.022054581 0.005004515 -0.06500609
0002c0 50 1a 26 3e c0 2d d2 3d e6 d8 96 bc ea 4e 79 bd
       0.16220975 0.10262632 -0.018413972 -0.060866274
0002d0 a1 10 a0 bc 93 5e 18 be 0b 52 01 3e 69 b6 3a bc
       -0.01953918 -0.14879827 0.12628953 -0.011396029
0002e0 62 7e 05 bd 47 01 7f be 84 0e 14 be c5 c0 8c 3d
       -0.03259123 -0.24902831 -0.14458662 0.06872705
0002f0 9c 64 35 bd be d9 46 3e d6 50 fe 3d 63 71 f3 bd
       -0.0442854 0.19419 0.12417762 -0.11886861
000300 3c c7 8d 3e fb 1f 56 3d f7 e3 09 be 63 b8 29 be
       0.27691066 0.052276593 -0.13465868 -0.16574244
000310 4a 75 db bd df cb 5e be 2a b1 88 3d 30 ed 04 bb
       -0.107157305 -0.21757458 0.06674416 -0.0020282976
000320 01 7c d4 bd e7 41 12 3e d1 ed a3 bd fb 5f b2 3d
       -0.10375214 0.14282952 -0.08004344 0.08709713
000330 1a 04 08 3b 06 74 a8 bd 08 f8 13 bd 40 b6 aa bd
       0.0020754398 -0.08225255 -0.036125213 -0.08335543
000340 46 f0 ed 3c a1 a7 8d 3c 4b 5b c5 bc 06 fb 12 3e
       0.029045235 0.017291846 -0.024091383 0.1435357
000350 96 4c ae 3d f8 92 7e bd 08 04 87 3d 49 b8 b1 bc
       0.08510701 -0.06215188 0.06592566 -0.02169432
000360 dc 21 c7 be 73 61 84 bd 99 e7 a0 bc bf c1 01 3e
       -0.3889302 -0.064638995 -0.019641684 0.12671565
000370 15 37 08 3e e8 96 25 3e 27 4d ee 3d de a0 33 3e
       0.13302262 0.16170847 0.116358094 0.17541835
000380 ac 79 1f 3e f0 39 e4 3d 1a 0c ac 3d b4 2b 0a 3c
       0.15573758 0.11143863 0.08400746 0.008433271
000390 7d d6 b4 3d 1a c9 1d 3e 3e 8b 04 bd e3 ac 98 3d
       0.08829973 0.15408745 -0.032359354 0.074548505
0003a0 46 bd b9 bd 58 20 7e be 8f ab 48 bd 5f ea 80 bd
       -0.09069304 -0.24817026 -0.048991736 -0.06294703
0003b0 e2 fc 75 bd e1 fb a4 bd 9c a2 bd 3b 17 7e 28 3e
       -0.06005562 -0.080558546 0.005787207 0.1645435
0003c0 49 76 13 3e cb 46 28 bc 18 03 57 bc 93 ae 09 be
       0.14400591 -0.010270785 -0.013123296 -0.13445501
0003d0 b1 ff ba bd 89 3c 18 bd 45 6e ee bb d4 59 e7 bd
       -0.091308005 -0.037167106 -0.0072763287 -0.1129643
0003e0 28 1f 98 3d b9 29 b1 3d e9 a4 76 3d a5 cf 28 3d
       0.074278176 0.08650536 0.060215864 0.04121365
0003f0 2f f9 ec bc e4 87 e3 bc db 70 47 be 5e d2 29 3c
       -0.028927414 -0.027774759 -0.19476645 0.010365097

encoder.net.2.bias f4 [32]
000000 ec f4 20 bc b4 cc a7 bd bd 68 ce bd c1 1b e2 bc
       -0.009824019 -0.08193341 -0.10078571 -0.027601125
000010 4d cc 3e bc 2e 6b 70 be de ef e0 bd ae b5 04 be
       -0.011645389 -0.23478386 -0.10983251 -0.1295993
000020 5e 83 56 be c8 c7 13 be 6d 6a 94 bd 4c 17 e2 bd
       -0.2094855 -0.14431679 -0.072468616 -0.110396
000030 17 9b 4e be 56 25 12 bc 0a 43 ba bd 9a d6 da bd
       -0.2017635 -0.008920034 -0.09094818 -0.10685463
000040 82 56 3f be 3f dd 18 bd 70 b5 04 be ac fd bd bd
       -0.18685344 -0.03732037 -0.12959838 -0.092769
000050 95 d9 a1 bd 6e 13 06 be 67 15 9d bd 0a 55 14 be
       -0.079028286 -0.1309335 -0.07670098 -0.14485565
000060 d5 1c b5 bd 54 de d6 bd 5a 19 64 3d 00 0d b7 bd
       -0.0884339 -0.104916245 0.05568824 -0.089380264
000070 98 87 d9 bd 62 6c c6 bd cc d5 a9 bd 40 11 d0 bd
       -0.106215656 -0.09688641 -0.08292732 -0.1015954

encoder.net.4.weight f4 [64, 32, 3, 3]
000000 d8 b1 de bc 2b a8 58 3e ae 1c ae 3d fd e2 35 be
       -0.027184412 0.21157901 0.08501564 -0.1776237
000010 3e 7a 99 bc c1 32 f6 bd ac 21 2d bd c8 68 8d bd
       -0.018735047 -0.12021399 -0.04226844 -0.06904751
000020 cc 1b d4 be be 63 3c 3d 22 22 20 bc f6 59 8e bb
       -0.41427457 0.04599356 -0.009773763 -0.0043442203
000030 f8 95 d0 3d 17 a9 cb bd c7 3d b9 be 20 a3 04 3c
       0.10184854 -0.09944361 -0.36179945 0.008095533
000040 30 97 37 be 1d 01 69 be c6 ac 33 3d c3 6a 6a 3c
       -0.17928767 -0.22754331 0.04386594 0.014307681
000050 ab 74 0d 3c 34 32 23 bc 79 1b bf bd 67 c7 a8 3d
       0.008633773 -0.0099607 -0.09331412 0.08241158
000060 0a f3 68 bc 87 8e 5e be 60 40 b8 3d fe 80 a5 bd
       -0.014218101 -0.21734057 0.089966536 -0.08081244
000070 d9 99 fd 3c 80 12 26 3d 3f 88 29 3d 2e e0 25 bd
       0.03095715 0.040544987 0.0413897 -0.040496998
000080 c1 35 d9 bb e7 af 1f bd 48 41 10 3e 75 73 ca 3d
       -0.0066287224 -0.038986113 0.14087403 0.09885303
000090 03 a9 a6 3d a3 f9 39 3d a9 ce cd bc 76 5b db 3d
       0.08137705 0.045404088 -0.025122957 0.10710804
0000a0 43 17 91 be a5 10 2b bd 9e b7 d4 3c e8 d0 08 bd
       -0.2833806 -0.04176392 0.025966462 -0.033402354
0000b0 da 6d 18 3e f5 99 47 bc 47 2d 70 3d fa ef 82 bd
       0.14885655 -0.012182702 0.05863693 -0.06393428
0000c0 e6 0e 58 bd 5e 56 8a 3c 2f d9 52 be eb b9 11 3d
       -0.052748583 0.016886886 -0.20590661 0.035577696
0000d0 45 94 bf bc a3 1f dc bd 0b 10 30 3d 9a 52 bf 3d
       -0.02338613 -0.10748222 0.04298405 0.09341927
0000e0 92 d0 7b be 85 77 2b 3d 6e cb 08 bb ff 04 64 be
       -0.24591282 0.04186203 -0.0020873207 -0.22267531
0000f0 bf 15 07 bd 53 50 e4 be 62 fe 9b 3d 28 42 3b be
       -0.032979723 -0.44592533 0.07616879 -0.18286955
000100 ef 18 47 bd e4 bf 84 bd 73 b3 40 be 3a df 33 be
       -0.048607763 -0.06481913 -0.18818454 -0.17565623
000110 de 9e 8e bd 25 a1 37 be a6 a9 1d be a4 d0 7a bd
       -0.06963895 -0.17932566 -0.15396747 -0.06123413
000120 f8 7a 6f 3d 55 8c 02 3d 45 d0 14 3e 10 80 d0 3c
       0.05846688 0.031872112 0.14532574 0.02545169
000130 ef 5b 75 3d df 9a b3 bd 01 a7 20 3d b5 8a 5f bc
       0.059902128 -0.08769774 0.039221767 -0.01364391
000140 eb 13 01 be 64 d9 c9 bd f4 2e ba bb 4f bc 99 bd
       -0.12605254 -0.09855917 -0.005681867 -0.0750662
000150 f4 a5 c7 bd f6 9e ff 3d e1 ce 2e 3e 21 7e 70 3d
       -0.0974845 0.12481491 0.17071106 0.058714036
000160 b8 df 1d bd 42 50 45 bd 82 39 48 3d d9 e4 33 be
       -0.038543433 -0.048172243 0.04888297 -0.17567767
000170 c1 c9 1f 3d 0a 0d 2a be 71 f7 8e be 37 f5 28 bc
       0.039010767 -0.16606537 -0.27923158 -0.01031237
000180 91 c9 50 be 20 eb 11 3d fd 39 71 3d 2b 08 aa 3c
       -0.20389391 0.035624623 0.058893193 0.020755848
000190 bd c5 b4 bd 28 7a 0b 3e 5c 41 09 3c 6b 02 b5 bd
       -0.08826778 0.13620818 0.008377399 -0.08838352
0001a0 03 7c 92 bd a3 5e 42 3c a5 11 87 bd 6f 1e 0a bb
       -0.071525596 0.011863383 -0.06595162 -0.0021075269
0001b0 67 e2 cc 3c ba 2a 4b bd 18 f6 15 ba 61 ac 9f bd
       0.0250103 -0.049601294 -0.000572057 -0.077965505
0001c0 fe 86 ab bd ba 0c b1 bc f3 ab 06 3e 8e 8c 20 3d
       -0.08375357 -0.021612514 0.13151531 0.039196543
0001d0 1a cf 5c 3e be 17 56 be 08 b8 8a be 4c da 74 be
       0.21563378 -0.20907494 -0.2709353 -0.23911399
0001e0 8c cb 36 bd 12 b8 9d bd d1 18 11 3c a2 70 ba 3d
       -0.04462771 -0.07701124 0.008856014 0.09103514
0001f0 4f eb 5d 3d 04 61 27 3e ea 99 94 3d 24 b6 f8 3d
       0.054179486 0.16345602 0.07255919 0.121441156
000200 f5 c4 18 3d 82 57 43 3c cc 78 67 3c ce 4f 93 be
       0.037297208 0.011922719 0.014127921 -0.28771824
000210 c3 83 35 be 8b 89 e6 bd 98 18 1a 3d 5f 4d 13 be
       -0.17726044 -0.11256703 0.03762111 -0.14384983
000220 22 a5 03 3e 00 11 17 be 9c 2f 8e bd 0b 0a 17 be
       0.12855962 -0.14752579 -0.069426745 -0.14749925
000230 70 ab 7c be 71 67 d6 bc 98 2c c5 bc 60 57 9b bd
       -0.24674773 -0.026172372 -0.024069116 -0.07585025
000240 fa 9c 96 bb 45 ac 21 be a0 f0 49 3d 81 0a f1 3d
       -0.00459635 -0.15788372 0.049301744 0.117695816
000250 ab 27 50 3c ea a8 93 bc 0c f8 d5 3c dd c6 34 3e
       0.01270477 -0.01802488 0.026119255 0.17653985
000260 80 8b 38 be 7b f5 f6 3b 8d f2 4a 3e 8b 0e 83 bd
       -0.18021965 0.007536588 0.19819088 -0.06399258
000270 e5 20 b9 bc 69 ea ed bc 9f d8 c7 bd ca ed 09 bd
       -0.022598693 -0.02904244 -0.09758114 -0.03367404
000280 ba 11 13 be c8 72 db 3c a7 f0 b9 bc 71 b1 6d bd
       -0.14362231 0.02678813 -0.02269776 -0.05803055
000290 0f 54 4c be 32 fd 68 3c e0 f3 f6 bd 71 cb f6 bc
       -0.19953941 0.014220523 -0.12058234 -0.030126305
0002a0 07 50 24 bd 78 6c 34 bd f6 6f 00 3e b1 1d 0e bd
       -0.040115383 -0.044048756 0.1254271 -0.034696285
0002b0 97 cf 32 3d fc 60 e2 3d ea c2 74 3d 31 43 b4 be
       0.043655004 0.110536546 0.059756197 -0.35207513
0002c0 69 d7 88 bc ff f8 3c bd d4 f5 03 3e 0d 0a 30 3d
       -0.016704278 -0.0461359 0.12886745 0.042978335
0002d0 e1 94 f7 3c 60 63 cc 3d c0 34 b0 bd fd a7 8d bd
       0.030222358 0.09979892 -0.08603811 -0.06916807
0002e0 36 74 16 3d ba 6e c3 3c 4c 2c 4b bd 9c 5f a9 3b
       0.03673192 0.02385651 -0.04960279 0.005168868
0002f0 73 3a 85 3e f9 01 e8 3b fb 8e 3f 3d d8 27 76 3d
       0.26021156 0.0070803133 0.046767216 0.06009659
000300 f9 3e ce 3d 84 de 42 3d 1c 23 06 3e 0e ab e0 bd
       0.10070605 0.04757549 0.1309933 -0.10970126
000310 50 11 30 3d 8d 80 c8 3c f7 0b 0f 3d 9f 46 b6 3d
       0.04298526 0.02447536 0.03492352 0.08900189
000320 a5 89 ac bc 11 2a b9 bd f0 28 0a 3d ab 2f e5 3d
       -0.021061728 -0.09041227 0.033730447 0.111907326
000330 6c c7 62 bd 13 05 7d bd e7 cc 86 3a c3 74 63 bc
       -0.055365965 -0.061772417 0.0010284454 -0.013882819
000340 50 5c f6 bd a8 dd 0b 3c 97 6a f0 3c 30 32 bf bd
       -0.12029326 0.008536734 0.029347701 -0.093357444
000350 b8 e4 38 be 19 27 04 3e c3 1c 05 3d 97 23 1f be
       -0.18056 0.1290554 0.032498132 -0.1554092
000360 ca 11 f7 be a1 70 cb be e2 af 41 bd d5 a3 69 be
       -0.4825576 -0.39734367 -0.047286876 -0.22816403
000370 66 3d 0c be 98 6e d9 3c 40 aa db 3b 5d a4 90 3d
       -0.13695297 0.026541993 0.006703645 0.070626
000380 4a 4b ee 3c c1 bd dd bd 1a 11 bd 3d b9 51 a0 bd
       0.029088635 -0.10827208 0.092317775 -0.07828087
000390 59 1c de 3c 31 93 ff bc 00 32 37 3c b7 a6 93 3d
       0.027113127 -0.031198116 0.0111813545 0.07209533
0003a0 1e 54 5e 3d b5 a1 eb 3d 06 22 24 3e 65 1c 61 bc
       0.05427944 0.115054525 0.16028604 -0.01373968
0003b0 09 ec 54 bd b3 a6 17 3e dd 1d 5a bd 2c c1 93 be
       -0.051982913 0.14809684 -0.053251136 -0.28858316
0003c0 4c 64 7b be 63 3b 48 be e9 20 33 3d 16 e6 f3 bc
       -0.24549979 -0.19553904 0.043732557 -0.0297728
0003d0 d5 24 ae 3d 4f bf 74 3d f0 ce a9 3d 1c 10 e2 bc
       0.08503119 0.05975276 0.08291423 -0.027595572
0003e0 e9 52 0f 3e f5 32 13 3d 79 bd 80 bd e7 18 9f bc
       0.13996471 0.03593727 -0.06286139 -0.019421054
0003f0 7b 44 ad bc 85 08 0b be 91 05 cd bd fe 00 b2 3d
       -0.021150818 -0.13577469 -0.10010827 0.086915955

encoder.net.4.bias f4 [64]
000000 69 4e 2f be e8 17 8d bd d3 40 b8 bc 96 b9 87 bc
       -0.17119755 -0.068893254 -0.022491848 -0.016567986
000010 ae 9c 4a bc 5a 1b 32 be cb 1e 1d be de 2d 8c bd
       -0.012366457 -0.17393246 -0.15343778 -0.06844686
000020 c2 71 2d be 79 aa 3f be 18 cf 4a be dc eb e3 bd
       -0.16937926 -0.18717374 -0.19805562 -0.11128971
000030 92 1e fa bd 0b 8b 08 be 40 4b ca bc db 5e 5c bd
       -0.12212862 -0.1333429 -0.024694085 -0.0538014
000040 2e 48 16 be 96 b8 16 bd 9b be 1d be b3 6c 1f be
       -0.14675972 -0.03679713 -0.15404741 -0.15568809
000050 6f a3 f2 bd 7b b3 e2 bd 57 b8 d8 bd 59 79 17 be
       -0.11847579 -0.110693894 -0.10582035 -0.14792384
000060 a1 22 3e be 7b 1a d6 bd 05 fc 39 bd 3b 6a f2 bd
       -0.18567897 -0.104542695 -0.04540636 -0.11836668
000070 61 86 d8 bd 54 e7 c9 bd 27 1c ed bd 6d 2f e1 3d
       -0.10572506 -0.098585755 -0.11577635 0.10995374
000080 6b 9f da bd ce 90 d8 bd 9c 42 97 bd 29 b6 4c bc
       -0.10674938 -0.10574494 -0.073857516 -0.012494602
000090 19 1c 0d be f0 7a 2f be eb 4f 3b be d6 27 c6 bd
       -0.1378025 -0.1713674 -0.18292205 -0.09675567
0000a0 55 2b 8c bd 8b 3b 22 be 05 42 59 be ba 2f c6 bd
       -0.068442024 -0.15843026 -0.2121659 -0.09677072
0000b0 e9 56 1a 3d 72 f5 30 bd 2b d4 e0 bd ef 9b b0 bd
       0.03768054 -0.043202825 -0.10977968 -0.08623492
0000c0 cb b1 1e 3d a3 5a 80 bd 1a 13 50 bd 0e c3 59 bd
       0.038743775 -0.062672876 -0.050799467 -0.053164534
0000d0 b1 fb 91 bd f4 cd e9 3d ca 31 54 be ae de 46 bd
       -0.071280845 0.114162356 -0.20722118 -0.048552208
0000e0 61 30 33 be 6c 9b 14 be ca db eb bd dd 02 bb bd
       -0.17498924 -0.14512414 -0.11516531 -0.091314055
0000f0 d0 cf df bd 75 28 33 be 6e a8 8f bd bf 31 64 3c
       -0.10928309 -0.17495902 -0.07014547 0.013927876

encoder.net.6.weight f4 [64, 64, 3, 3]
000000 9c ee d4 3d 26 e1 4c 3e 33 cc 1a 3e c7 2c a4 bc
       0.103970736 0.20007762 0.15116958 -0.020040883
000010 ce bc 89 bd b6 05 05 bd 55 96 9c bd 6f 69 41 3e
       -0.06725465 -0.03247615 -0.07645861 0.18887876
000020 c3 ed 0e 3c a0 e0 55 bd eb 1c 06 bd b5 ad 81 bd
       0.008723679 -0.052216172 -0.032742422 -0.0633196
000030 91 70 2d 3e f6 4d 07 bc 16 d0 f3 3d 7a 47 a7 3d
       0.16937472 -0.008258333 0.119049236 0.0816793
000040 d0 4b 63 3d ba 5f 41 3c 31 0c 62 3e 01 a1 de bd
       0.055492222 0.011802608 0.22074963 -0.10870553
000050 3c 7d 49 bd ac 06 ef 3c 7d 9c 70 3b 5f 52 50 3e
       -0.0491917 0.029177986 0.0036714368 0.20343922
000060 b1 61 17 3d e1 f8 9f bd 02 ad 03 bd ad 4b 86 3d
       0.0369584 -0.07811142 -0.032147415 0.06557403
000070 75 a8 7c 3d 4a c6 d9 3d f3 e9 cf 3d 90 fa 1e bd
       0.06168409 0.10633524 0.10152044 -0.038813174
000080 3c fd 97 3d ba f0 dd 3b c5 e4 ab 3d cb bd 20 be
       0.074213475 0.0067730816 0.08393244 -0.156974
000090 6d a1 b3 bd 5b 04 c8 bd d4 a7 21 be 02 b2 13 bd
       -0.08771024 -0.09766456 -0.15786678 -0.036058433
0000a0 a8 4a 87 bd a4 a3 64 bd 0d 3d 76 be 19 c0 38 be
       -0.066060364 -0.055820122 -0.24046727 -0.1804203
0000b0 f9 4e 71 bc f4 1c 9b bd 8f 94 29 3d f2 1f c7 3c
       -0.014728301 -0.07573882 0.041401442 0.024307225
0000c0 b7 72 9e bd 75 35 a9 3b 66 fa 20 3d 68 56 00 3e
       -0.07736724 0.0051638433 0.0393013 0.12532961
0000d0 a0 0c b5 bc 91 47 b5 3d 38 5d 23 be 92 27 75 3e
       -0.022100747 0.08851541 -0.15953529 0.23940876
0000e0 c3 fa 12 3d 36 d9 80 3c bc 78 32 bd ac c4 19 3d
       0.035883676 0.015728574 -0.043572173 0.037541077
0000f0 1c 84 b2 be 72 42 ba 3c 50 21 88 3d 6b 67 7a 3d
       -0.34866416 0.022736762 0.06646979 0.061133783
000100 9c 70 81 bd a2 7a 9c 3d a3 17 c7 3c 4a 12 95 3d
       -0.06320307 0.07640578 0.024303263 0.07278879
000110 73 1b f9 3d 5d 01 33 be c2 92 00 3e a4 8f d3 bd
       0.12163439 -0.17480989 0.12555984 -0.10330132
000120 11 e3 07 bd 77 9e 1f bd f2 66 b9 bd d9 94 0a be
       -0.03317553 -0.038969483 -0.090528384 -0.13533343
000130 55 7a df bc 8a 51 dd 3c 6d 42 c5 3d 0c 47 6c 3d
       -0.027280012 0.02701642 0.0963181 0.057684943
000140 f5 2c da 3d 44 28 ea bd c9 5a 19 bd b6 bf ef bc
       0.10653106 -0.11433461 -0.037440095 -0.02926622
000150 41 5f 6c be dd ce 95 3d f7 64 05 be 0c 55 c3 3c
       -0.23083211 0.07314847 -0.13026796 0.023844264
000160 90 3a ba 3d 19 ff 4b 3e 38 be 3f 3e bb b6 e0 bd
       0.09093201 0.19921531 0.18724906 -0.10972353
000170 3d c2 19 3d 67 40 fd 3c 8e fa 09 be 63 57 5b 3e
       0.037538756 0.030914498 -0.13474485 0.21420054
000180 9e 9a ac be 03 c3 c9 3c 81 79 f4 3a 31 c0 34 bd
       -0.33711714 0.024629122 0.0018651934 -0.0441286
000190 77 ab 4e bd ef f3 02 be ed 42 22 bd 32 eb 84 3d
       -0.05045649 -0.12788366 -0.039614607 0.064901724
0001a0 9b 03 1b be 16 37 6d 3d 8f fc cf bd ac cc 75 be
       -0.15138094 0.057913862 -0.101555936 -0.24003857
0001b0 2b d9 ab 3d 73 09 b5 3d 8a 06 02 be f3 0c f9 3d
       0.08391031 0.08839693 -0.12697807 0.12160673
0001c0 f5 7d 25 3e 01 83 82 bd 4f ef ac be bc d8 97 3e
       0.1616133 -0.06372643 -0.33776328 0.29657543
0001d0 7f b4 05 3e e1 05 a4 bd 88 ad ea ba 7f f7 66 bd
       0.13057135 -0.08008934 -0.00179045 -0.056388374
0001e0 05 33 ee bd a8 6d 0d bd 29 4a 9e bd ce 10 83 be
       -0.11630825 -0.034528404 -0.07728989 -0.25598758
0001f0 13 19 25 3e 3d 76 c6 bd ea 28 86 3c c1 38 90 3d
       0.16122846 -0.09690521 0.016376931 0.07042075
000200 43 be b0 bd 17 ad e9 3d 09 1f 04 3e a3 55 5d 3d
       -0.086300395 0.114099674 0.12902464 0.054036748
000210 d5 5b 5f 3d b3 4e 58 bd 90 d3 23 bc 06 31 af bc
       0.054530937 -0.05280943 -0.009999171 -0.02138568
000220 e2 52 65 3d 60 6a 0f 3d 78 1d 28 bc 71 98 e9 bd
       0.055987246 0.035013556 -0.010260932 -0.11406029
000230 9c 2f 17 bd ae 49 3b be 5d 17 dc 3d 6a 2b 3e 3d
       -0.03691064 -0.18289825 0.10746644 0.04642812
000240 9c 5f 46 3c 2e 03 2e 3e 47 7e e2 3d 62 6b cf bd
       0.012107756 0.169934 0.11059242 -0.101279035
000250 cb fc 8b 3c 52 10 d4 3c 74 ed 92 be 90 8a b2 3c
       0.017088315 0.025886688 -0.28696787 0.021794587
000260 9c 1f db be f7 a8 27 3e 94 59 33 3e b3 1a 60 be
       -0.42797554 0.16373049 0.1751464 -0.21885185
000270 c2 00 29 be 92 77 bb bd 16 77 02 be a7 df 1e 3e
       -0.16504195 -0.091536656 -0.1274074 0.15515004
000280 22 52 9f 3d 88 5e a8 3c 70 8f 8e 3e 8b 21 e3 3d
       0.077793375 0.020552889 0.2784381 0.11090382
000290 d3 4f 1b bd ec a1 09 be cf 4c 07 3e 2c f3 95 3d
       -0.037917923 -0.13440675 0.13212894 0.07321772
0002a0 c3 1f b3 3d 2c dc 02 3e 3d b0 94 3d 66 23 c5 3d
       0.087462924 0.12779301 0.07260177 0.09625892
0002b0 f1 3f 63 be 64 db 42 3d 17 c8 61 3e 7c b5 95 bd
       -0.2219236 0.04757251 0.22048984 -0.07310006
0002c0 6e 45 62 be db 12 4a 3b ac e4 65 3d 94 94 a9 3d
       -0.22096798 0.0030833993 0.05612628 0.08280292
0002d0 91 95 84 be 25 d2 16 be f6 9e 86 3c 3f a3 b5 bd
       -0.2589536 -0.14728601 0.01643322 -0.08869027
0002e0 66 a9 aa 3d 50 10 a7 3d af dc 01 3e 82 a8 97 bc
       0.083330914 0.08157408 0.1268184 -0.018512968
0002f0 2b 90 84 3c 9c 29 f5 bc 11 47 21 bd 6d 62 f9 bc
       0.016182026 -0.029927067 -0.039374415 -0.03044244
000300 a8 64 01 be 3c 7d a0 bd d4 94 96 3d b4 c6 ef 3d
       -0.12636054 -0.078363866 0.073526055 0.117078215
000310 e2 e1 90 3c 97 f6 a2 3e d9 32 eb bd 3d da cb bd
       0.017685834 0.31828758 -0.11484308 -0.09953735
000320 e0 90 47 3d b3 94 e0 3d 5e 87 8e bc a3 89 71 be
       0.048722148 0.10965862 -0.017398532 -0.2358766
000330 a3 06 59 3e f0 7c 99 be 04 db b4 bd 5c 8d 63 be
       0.21193938 -0.29978132 -0.088308364 -0.22221893
000340 3f 42 41 3d 82 ea 2b 3e 9d 7d 27 3b 5e f7 22 3c
       0.047182318 0.16788676 0.002555705 0.009946672
000350 cd 09 89 3e f5 92 de bd bb 0f 2b be 2b 40 4c be
       0.2676529 -0.108678736 -0.1670522 -0.19946353
000360 9c c9 83 3d 4e 87 d0 bd 4e 86 d9 bd 90 cd 25 bc
       0.06434938 -0.10182057 -0.1062132 -0.010119811
000370 d6 73 d5 bd 98 be 10 be fe 13 31 bd ad 61 98 bd
       -0.104224846 -0.14135206 -0.043231957 -0.07440505
000380 42 18 85 be 58 a5 d1 3d 93 e9 b4 3d d0 c0 f5 3d
       -0.2599507 0.10236615 0.08833613 0.11999667
000390 bd df 80 bd bb b6 2f 3d 4d 97 6d 3e 64 d3 97 bc
       -0.06292675 0.042898875 0.23202248 -0.018533416
0003a0 c1 2e 01 be ac 76 e9 3c aa 45 63 3d 8d f0 07 be
       -0.12615491 0.02849897 0.05548636 -0.13275357
0003b0 c5 29 2d 3e 23 1c 0a be 11 4a c8 bd 8a a3 8e bd
       0.16910465 -0.13487296 -0.09779752 -0.06964786
0003c0 8d ea eb 3d bd 4d 0e be 63 dc 5f 3e 21 0b 28 3c
       0.115193464 -0.13896842 0.21861415 0.01025656
0003d0 5d 50 10 3e 3f f1 81 3d 6d a0 25 be e1 35 92 bd
       0.14093156 0.06344842 -0.16174479 -0.07139183
0003e0 a8 9b fb 3b db 60 1b 3e 9e 69 92 be e0 a4 02 3e
       0.007678468 0.15173666 -0.28596205 0.12758207
0003f0 20 4b 4d 3e be 48 51 3e f2 66 ef bc 85 ea d8 3d
       0.20048189 0.20437905 -0.029223893 0.10591606

encoder.net.6.bias f4 [64]
000000 0f 18 2b be 29 ad 9e bd 4e 15 b1 bd 10 e9 b4 bd
       -0.16708396 -0.077478714 -0.08646642 -0.08833516
000010 22 0c d2 bd ec f3 db bd a8 fb 36 be d1 e6 8d be
       -0.102562204 -0.10739884 -0.17869437 -0.2771516
000020 f0 5e 20 bd 8d f9 5b be 73 67 95 be 58 f9 3d be
       -0.03915304 -0.21481915 -0.29180488 -0.18552148
000030 60 1e ac bd c1 d2 8d be 57 5a 8b be b8 c4 69 be
       -0.08404231 -0.27699855 -0.2721736 -0.22828948
000040 56 57 d7 bd 37 3f 02 be c1 92 16 be ab b0 ff bd
       -0.10514705 -0.12719427 -0.1470442 -0.124848686
000050 b8 91 e2 bc ee 03 9a be 4b 17 2b be 0c ae 67 bd
       -0.027657375 -0.30081123 -0.16708104 -0.05656247
000060 fc f6 34 be 13 58 ae bd 89 67 32 be a8 1a 30 bd
       -0.17672342 -0.085128926 -0.17422308 -0.04299417
000070 76 d6 88 be fe 84 0d be 54 11 fc bd b6 3a 70 be
       -0.2672612 -0.13820264 -0.123079926 -0.23459896
000080 64 f5 19 bd f3 8d 47 bd 05 bf 01 be 33 e2 db bd
       -0.03758754 -0.048719358 -0.12670524 -0.107365035
000090 ba 36 9f bd f6 b2 3c bd ab 9e 1c be 8e 44 97 bd
       -0.0777411 -0.046069108 -0.15294902 -0.07386123
0000a0 1c 8b 3a be ba b1 49 bd 97 8d 3a be c7 01 69 bd
       -0.18217129 -0.04924176 -0.18218075 -0.05688646
0000b0 6d ee 17 3c 0f 8a 70 be d2 5a 16 be fb e4 63 bd
       0.009273154 -0.23490165 -0.14683083 -0.055638295
0000c0 d0 45 e1 bd 1f 62 86 be 3d 71 38 be e4 ed 6b bd
       -0.10999644 -0.26246735 -0.18011947 -0.057599917
0000d0 58 bd 1f be b4 86 4f be 3f 61 a8 be 33 4c 30 be
       -0.15599573 -0.20266229 -0.32886693 -0.17216568
0000e0 fb 3e f7 bd a4 cb 8b be e7 6b b8 be e7 ed 43 be
       -0.120725594 -0.27303803 -0.36019823 -0.19133721
0000f0 00 91 7f be 33 14 80 be 45 49 5c be 3c 46 2d bd
       -0.24957657 -0.2501541 -0.21512325 -0.04230331

encoder.net.8.weight f4 [64, 64, 3, 3]
000000 4f fb c2 be 5b 2b cd 3d 7a 6b ea 3d 2c b6 cc 3d
       -0.38082358 0.10018035 0.11446281 0.09995684
000010 98 3b 55 be 92 cb e2 3d a6 41 26 be 52 fb 27 3d
       -0.20823514 0.11073984 -0.1623598 0.041011162
000020 4b 83 86 bd c4 34 b5 be 84 ca 87 3d e7 76 27 be
       -0.06568011 -0.3539182 0.06630424 -0.16353951
000030 3b 68 2f 3e e2 32 3d be 6a 9e e5 3d ab 24 a3 bd
       0.17129605 -0.18476442 0.11211856 -0.07965978
000040 00 45 0c bd 2d 3f 64 bd 1d 8c 16 be 9a 9f 9f bc
       -0.03424549 -0.05572431 -0.14701886 -0.019485284
000050 5d 96 1d be da 0d d3 be 56 a6 7b 3d a0 24 3f 3d
       -0.1538939 -0.41221505 0.061437927 0.046665788
000060 49 dc 86 bd d0 3a b8 3d 5b 2d ee 3d bb 74 5f 3b
       -0.06584985 0.089955926 0.116297446 0.0034096676
000070 d2 d2 42 3d b3 c0 18 3d 70 b6 95 bc d1 27 56 3d
       0.047564335 0.037293147 -0.01827547 0.052284066
000080 4b f6 29 3c 9c cb 01 bd a6 d6 b7 bd 39 8d 0b 3c
       0.010373662 -0.031688318 -0.08976488 0.008517557
000090 67 b8 c0 bd 0b 43 82 3c cb a6 83 3d 83 b4 52 bd
       -0.09410172 0.01590111 0.064282976 -0.05144168
0000a0 f4 c9 b9 bd 0a f5 7e 3d 73 3f d1 3c 8b 9d 72 bc
       -0.090717226 0.062245406 0.02554295 -0.014808069
0000b0 56 41 9f 3c 97 8a 24 3e d3 d2 d0 be df e0 d6 3d
       0.019440334 0.16068493 -0.40785846 0.104921095
0000c0 48 4c 03 3e 5c b6 d3 3d e1 31 b8 bd 79 6d 4f bd
       0.12822068 0.10337517 -0.08993889 -0.05064151
0000d0 e4 ce ca 3d 91 42 06 3d b0 92 84 be 7c 28 f4 bd
       0.099027425 0.032778326 -0.25893164 -0.11921784
0000e0 c4 bc c9 bd 17 14 7c bd c9 fa 29 3d 60 1c bf 3d
       -0.09850457 -0.061542597 0.041498933 0.09331584
0000f0 0c f6 7b bc 27 33 b5 bd 00 5f 47 bd 33 0e 23 be
       -0.015378486 -0.08847647 -0.048674583 -0.15923385
000100 29 09 9c bd ea ad 8d bd 8c c8 c9 bc 8c 53 a5 3d
       -0.07618935 -0.06917937 -0.024631761 0.08072576
000110 b8 30 e9 3b 68 8a bb 3e 76 5c 94 3d 8e d3 37 be
       0.0071164034 0.36629033 0.07244198 -0.17951795
000120 3e 3d e0 bd ee 89 b0 3d 91 72 09 be c3 63 90 bd
       -0.10949181 0.08620058 -0.1342261 -0.07050278
000130 35 e6 99 bd c4 f0 5d 3d d8 48 a8 bb 8f b8 e4 bd
       -0.07514612 0.05418469 -0.005135637 -0.11168014
000140 a3 9e e1 3d 72 fe 7c be b1 26 c0 bd 5b e4 4e be
       0.11016586 -0.24706438 -0.0938238 -0.20204298
000150 b7 db ac bc 74 3e 03 bd 7e b1 eb bd 7c 6b 7c be
       -0.021100862 -0.03204198 -0.11508463 -0.24650377
000160 59 95 3c 3d 01 30 72 3d 7d 54 df 3b 0e 9b 5d be
       0.046040867 0.05912781 0.0068154917 -0.2164118
000170 63 34 80 be 76 a4 2e bc 9c 2e 36 be 0c 88 af be
       -0.25039968 -0.010659328 -0.17791218 -0.34283483
000180 e2 b7 82 bd 95 ec 83 3c 52 25 61 be 0e e0 1e be
       -0.06382729 0.016104022 -0.21986893 -0.15515158
000190 71 dd 4b 3d 36 eb 86 3b e5 6f 0c 3e 80 64 80 bd
       0.04977173 0.004117395 0.1371456 -0.06269169
0001a0 9f 1c 93 3e bf 5b c6 bd 50 2b b8 bc c7 09 79 ba
       0.28732774 -0.09685468 -0.02248159 -0.0009500053
0001b0 05 4f b5 bd 02 2a c4 be 6b 03 cd bd c1 81 b7 bd
       -0.088529624 -0.383133 -0.100104176 -0.089602955
0001c0 ce ef 8c bd 28 42 52 bc 09 c7 9a 3d ea e2 89 3d
       -0.068816766 -0.012833156 0.07557494 0.067327335
0001d0 51 84 3a 3d 18 1a 57 be 5d d4 1f 3d b5 dd b0 3d
       0.045536343 -0.21006048 0.039020885 0.08636037
0001e0 25 4c ea bd 7a 23 72 3e c4 a3 b9 bd 27 bb 11 3e
       -0.11440305 0.23646346 -0.09064439 0.14231549
0001f0 ed 98 15 3d 1a 95 af bc f5 82 9a 3b 6c ce 06 3d
       0.036522795 -0.021433402 0.0047153183 0.032911703
000200 d0 5b 96 bc 8e cc 93 be f9 d1 9d bc aa 3f 83 bd
       -0.018354326 -0.28867 -0.019265162 -0.06408627
000210 10 78 03 bd 2d b0 95 bc eb 75 4b bd 89 0b 30 3d
       -0.032096922 -0.018272484 -0.049673002 0.04297975
000220 4b 22 2d 3e d7 54 79 3c bd 11 75 bc 8f 0a 09 3d
       0.16907613 0.015217981 -0.014957842 0.033457335
000230 7b a2 81 3d b7 c7 d2 bc 0a 40 7f bc e0 41 f7 bd
       0.06329819 -0.025729997 -0.015579233 -0.120731115
000240 bb 80 ac bd 22 7c 27 3e e4 47 d7 bd cc e3 9d 3d
       -0.08422991 0.16355947 -0.10511759 0.077094644
000250 4a 2a d4 bd c6 76 9b bc 82 8c ed 3c 24 2d 39 be
       -0.103596285 -0.018977534 0.028997663 -0.18083626
000260 70 a4 4d be 17 32 a3 3b 76 4f e2 bc a2 9c 29 3c
       -0.20082259 0.0049803364 -0.02762578 0.010352286
000270 8f 0f 9c bd 80 de a5 3c e1 7a 2e 3c 37 f4 4e be
       -0.07620155 0.020247698 0.010649414 -0.20210348
000280 c6 30 65 3d 2b a7 3f be 6d 9b af bd 3d 8f 83 bd
       0.055954717 -0.18716113 -0.08574567 -0.06423805
000290 79 53 8f bd 84 74 d5 3d 3e c0 85 3a ca 6b 55 bd
       -0.06998343 0.10422614 0.0010204387 -0.05210475
0002a0 6e 87 a9 bd ca 08 dc bc fe 09 93 bc 8b f3 f4 3d
       -0.08277784 -0.02685966 -0.0179491 0.11960515
0002b0 cd 65 17 3e b5 7c b1 3d 7f 8a d8 3d c7 f3 36 3d
       0.14784928 0.08666364 0.10573291 0.044666078
0002c0 94 68 3e 3d fd 49 89 bc 1c 7e dc 3d 60 b4 7b 3d
       0.046486452 -0.016758913 0.10766241 0.061451316
0002d0 c5 0b fd bc 97 98 92 bd 73 69 b0 3c e0 75 0a bd
       -0.030889401 -0.071580105 0.021534657 -0.03380382
0002e0 ae 59 97 3b bb 4a cf 3c f7 c0 12 ba bc 53 1d bd
       0.004618845 0.025304189 -0.0005598212 -0.038409933
0002f0 f3 0e 7d bd e6 07 cb 3d dd 3d 26 bd 3d f8 8f bd
       -0.061781835 0.09913616 -0.04058634 -0.070297696
000300 1e c9 89 bb 1f 5d 2f 3e 36 3a ea 3c 8d 18 25 bf
       -0.0042048832 0.17125367 0.02859221 -0.64490587
000310 42 ee e6 3d 85 c2 9e bd a0 4b 41 3e bc 2f 07 bb
       0.11275913 -0.077519454 0.18876505 -0.0020627817
000320 80 2d a7 bd 7d d1 01 be f7 e8 4c bd 6b 01 6c be
       -0.08162975 -0.1267757 -0.05002686 -0.23047416
000330 35 1c b0 3e 0a 7c 01 bc 38 65 ec 3c 47 fa fe bd
       0.3439652 -0.007903108 0.028856859 -0.1245008
000340 33 ea dd bd ae e8 94 bc 01 01 08 3e 5f a5 84 bb
       -0.108356856 -0.018177357 0.13281633 -0.004048034
000350 f6 75 bd bc c2 ae 10 be ab 1a 0d be 99 a6 8f 3d
       -0.023127537 -0.14129165 -0.13779704 0.07014198
000360 d1 40 97 3d 5b d8 88 3e 7f db 81 3e fa 59 fa 3d
       0.073854096 0.26727566 0.25362775 0.12224193
000370 58 cd 53 3e bf 9e bd 3d 6d 98 2f 3e 72 3b b3 3d
       0.20683801 0.09258794 0.1714799 0.08751573
000380 cc a5 88 3c e8 7e 67 bc b0 39 fc 3c 0e 5a 06 be
       0.01668062 -0.014129378 0.030789226 -0.1312029
000390 35 10 04 bd 61 4b ce ba b0 1f 5d bc 85 60 16 bd
       -0.03224202 -0.0015739017 -0.013496324 -0.036713142
0003a0 bb c2 e2 bb a1 05 9f bc 4d 9c b2 bd 15 c9 46 bd
       -0.0069201863 -0.019411864 -0.08721218 -0.04853161
0003b0 ee 20 d0 3c 82 8f 5d 3e e2 89 d3 3b 34 be 5c 3d
       0.025406327 0.21636775 0.006455646 0.05389233
0003c0 29 1c 34 be ef 49 17 3d 4f 10 be 3d 00 65 9a bd
       -0.17588867 0.036935743 0.09280454 -0.075387955
0003d0 f2 9e 90 3c f8 d8 84 bc e8 33 83 3d e6 20 b4 bd
       0.017653916 -0.01621674 0.06406385 -0.087953374
0003e0 0e 0e 6f bc 6b 60 e8 3c e8 54 1f 3d 04 42 5e bd
       -0.014590753 0.028366288 0.038899332 -0.054262176
0003f0 4e 60 f7 bd 0a ee a8 bd 65 21 f0 bc ba 47 d7 bd
       -0.120789155 -0.08248527 -0.029312799 -0.10511728

encoder.net.8.bias f4 [64]
000000 16 56 12 be 9a 45 84 bd e6 55 9f bd c0 ee 9f 3d
       -0.14290652 -0.06458588 -0.07780056 0.0780921
000010 27 e6 89 bc 7e 91 bd 3d 84 b9 83 bc c0 74 90 be
       -0.016833378 0.09256266 -0.016079672 -0.28214073
000020 39 af e6 3d a6 ff c4 bc ad 7d a9 bb 61 58 56 3c
       0.1126389 -0.024047684 -0.0051724524 0.013082595
000030 5f b7 a9 bc f1 fb bd 3c 88 e1 8b 3c dc e6 f5 bb
       -0.020717321 0.023191424 0.017075315 -0.007504327
000040 b4 4f b8 3d 61 f0 66 bd ac c6 45 bd 54 0a dd 38
       0.08999577 -0.056381587 -0.04828517 0.00010540025
000050 d7 f9 fa bd 14 49 84 bd 03 96 df bd 82 9a 94 3d
       -0.122546844 -0.06459251 -0.10917284 0.072560325
000060 4f 18 8b 3c 40 0b d5 be 59 d5 07 3d 8c 30 2b bf
       0.016979365 -0.41610146 0.03316245 -0.6687095
000070 2f 92 93 bc 29 af af bc 65 0e dd 3c 84 cb d6 be
       -0.018014042 -0.021445828 0.026984403 -0.41952145
000080 a7 14 0f 3c cc 8b 50 be 26 75 ea bc 5a d5 99 3c
       0.008732951 -0.20365828 -0.028620314 0.018778492
000090 9b 66 6f 3d 51 9d 13 be 05 5f 72 bc a9 73 b8 bc
       0.05844746 -0.1441548 -0.014793162 -0.022516089
0000a0 c2 d2 bf bc ad 23 81 3c d8 ff 02 be 9d cf 56 bd
       -0.023415927 0.015764082 -0.12792909 -0.05244409
0000b0 73 f3 bf bd aa c6 c7 be 2e d0 a1 be 00 c5 e7 be
       -0.09372606 -0.39018756 -0.3160414 -0.45267487
0000c0 c1 63 64 bd 9b a8 18 3b 4c e4 4c be 06 ab 80 be
       -0.055759195 0.0023293856 -0.20008963 -0.2513048
0000d0 8a e2 22 bb ba 61 18 3d 20 5f 43 bc 87 c4 50 be
       -0.0024854266 0.037202574 -0.011924535 -0.20387469
0000e0 62 b0 21 be 0d 41 b8 3c 06 66 3f 3c 85 20 7c bb
       -0.15789941 0.022491956 0.011682039 -0.0038471532
0000f0 94 fa 7b be 1e 1a e4 bc 0a 9c c4 bd 1d e6 c3 b9
       -0.24607307 -0.027844485 -0.096000746 -0.00037364746

encoder.net.11.weight f4 [4, 1024]
000000 65 7a 16 3c 51 9b 31 bc 84 f0 1c 3c 45 6f 18 bc
       0.009184455 -0.010840253 0.009578828 -0.0093038725
000010 f9 cd 58 3b 51 a5 bc 3c fd 51 bc bb ec 4e 1e 3b
       0.0033081754 0.023028048 -0.0057470785 0.0024155928
000020 54 26 11 bc c3 3f cb bc e7 72 19 3e 54 46 9a 3c
       -0.008859236 -0.024810677 0.14985238 0.018832363
000030 5c b1 1e 3c 82 29 64 bc 29 dc 0b bc 28 6c 0a 3a
       0.00968584 -0.013925912 -0.008536377 0.0005280399
000040 b0 03 0d bc dc 29 dd bb 4d 33 0f bc 58 78 ce 3c
       -0.008606836 -0.006749375 -0.008740258 0.025203869
000050 ee 5f f8 3b fd 88 0a 3c b3 08 5c bc 03 fc ec 3b
       0.007579795 0.008455512 -0.013429808 0.0072321906
000060 bb df 25 3b be 05 58 bc dc e2 15 3d dd cc 34 bc
       0.0025310356 -0.013184963 0.036593303 -0.011035171
000070 3f e9 9a 3a 5e 44 49 bc 29 48 10 3c 86 a3 96 bb
       0.001181878 -0.012284366 0.008806267 -0.00459713
000080 ec 92 00 bd 5e 87 9f 3c 4c c1 0b 3c 41 d9 d7 bb
       -0.031390116 0.019473728 0.008529972 -0.006587178
000090 94 d1 31 b9 6d 2d 6a bc 4a 50 ab 3b 7c ac 62 bb
       -0.0001695811 -0.014293057 0.005228077 -0.0034587672
0000a0 1b fc e4 bb b1 c8 2a bc 00 bc de 3d 75 10 c9 bc
       -0.006988061 -0.010423825 0.10875702 -0.02454398
0000b0 24 10 25 bc 7b 52 b2 bb 28 6b f0 3b cb ff 2a 3b
       -0.010074649 -0.0054419613 0.007336993 0.0026092406
0000c0 a7 e6 66 3b 13 56 06 3c 14 ce 18 bc 6a 18 ab bb
       0.0035232694 0.008199233 -0.009326477 -0.0052214162
0000d0 d2 52 14 bd 5d 30 52 3d dd a3 1f 3c 0e d5 96 bb
       -0.036211796 0.051315654 0.009743658 -0.004603035
0000e0 bf 64 42 3d ce fb 8f 3b 4e 4f c1 bb 03 a4 bd 3c
       0.04745936 0.004394031 -0.0058993464 0.023149496
0000f0 b8 2e 3d 3d 13 33 50 3c f8 41 4e bd 40 6c 85 bd
       0.046187133 0.01270749 -0.05035588 -0.06514788
000100 50 93 8c 3c 0a 14 71 bc 56 83 2b 3b a7 ea b4 3c
       0.017160088 -0.01471425 0.0026170812 0.022084547
000110 0f 96 99 3b 3e f9 63 bb 45 d7 79 3a 63 c6 94 3a
       0.004687078 -0.003478601 0.0009530674 0.0011350628
000120 76 fd 21 bc 15 93 db bb 73 94 89 bd 34 e9 93 bb
       -0.00988709 -0.006700883 -0.067177676 -0.004513884
000130 df 3b 54 3c af 28 01 3d f6 33 da 3b b9 54 2a bd
       0.0129537275 0.03153294 0.0066590263 -0.041584704
000140 fd bc cf 3a 41 1c 55 3c f0 b0 c5 3b bf 07 4b bc
       0.001584917 0.013007225 0.0060330555 -0.0123919835
000150 1a af b4 bd 57 ff 0a bb 3a 14 a1 39 c5 9e 2a 3b
       -0.088224605 -0.0021209323 0.00030723383 0.0026034575
000160 16 eb 0f bc ca af db bb 3e b2 16 bd 77 e2 52 bc
       -0.008784076 -0.0067043053 -0.03679108 -0.012871376
000170 40 0c 3b bc 3d 97 2f 3c 40 f3 bb bd 5c 3d 30 3d
       -0.011416495 0.01071721 -0.09177256 0.043027267
000180 67 a0 10 3a c9 05 d9 bb 53 be 39 3a 3d b8 13 b9
       0.0005517066 -0.006623004 0.00070855505 -0.00014087647
000190 4c 55 8d bc e3 90 db 3b 70 1a 80 b9 3d 7b b1 bb
       -0.017252587 0.0067006215 -0.0002443376 -0.0054163025
0001a0 52 d6 c6 bb a1 20 8c 3a 2a 25 a7 3d 53 11 a6 3c
       -0.0060680294 0.0010690877 0.08161385 0.020271933
0001b0 23 05 4f 3c 05 7f a9 ba 99 5b f3 bb b1 f7 c6 ba
       0.012635502 -0.0012931532 -0.007426691 -0.0015180019
0001c0 71 ef de 3b c5 5b aa ba 9a cf 00 3b 64 32 06 3d
       0.006803446 -0.001299732 0.001965499 0.0327629
0001d0 28 7f 15 3d 63 9c 07 3d e2 c0 65 3d 6d 74 28 bd
       0.03649822 0.033108126 0.05609215 -0.041126657
0001e0 2b 97 02 3d a9 9a df 3d 6d d3 91 3d 42 e1 c2 bb
       0.031882446 0.10918171 0.071204044 -0.005947263
0001f0 45 4a e9 3c 2f 91 7c 3d 74 e7 33 bd 54 d1 5d 3d
       0.028477797 0.061661895 -0.043921903 0.05415471
000200 c3 f2 03 3c 81 7e be bb 71 a7 6b bc fa b3 d5 3b
       0.008053484 -0.0058134203 -0.014383183 0.006521699
000210 cb 8b 7c 3b 3d 28 81 ba 14 53 f8 ba d3 8d bb 3a
       0.0038535472 -0.0009853911 -0.0018945658 0.0014309235
000220 71 2f 5e 3c 6a 81 4a bd 7f 9f b4 be a2 de 7f 3a
       0.013561116 -0.049439825 -0.35277936 0.0009760653
000230 d8 85 1e 3c 86 cf 56 bb 66 71 c7 bb 80 24 d9 ba
       0.0096754655 -0.0032777502 -0.006086516 -0.0016566664
000240 16 80 52 bc 27 47 0c ba 5c 33 8e bc 01 f0 49 3c
       -0.012847921 -0.00053511787 -0.017358474 0.012325288
000250 43 02 aa 3b aa 56 de b9 88 e3 41 3c e9 39 3c bc
       0.005188258 -0.0004240771 0.011834033 -0.011488416
000260 c0 2d 2a 3a e7 23 f0 3b f2 01 36 3d 07 76 8c 3b
       0.00064918026 0.0073284986 0.04443545 0.004286531
000270 d6 01 24 bb 61 c6 3c 39 c1 fe f8 ba 40 23 49 3b
       -0.0025025508 0.00018002979 -0.0018996821 0.0030691177
000280 4d 34 33 38 b7 af 63 b8 fa 50 07 bc 64 44 20 3b
       4.2725635e-05 -5.4284665e-05 -0.008259052 0.0024454826
000290 6f 0c d2 3a 75 ea 3b 3b e8 a0 ac 3c a5 79 02 3c
       0.0016025434 0.0028673683 0.02107282 0.007963573
0002a0 4f 4d 6c ba 6a b3 38 3a e0 82 88 bd 62 35 64 39
       -0.00090142054 0.0007045778 -0.066655874 0.00021763661
0002b0 c6 82 2c 3b 79 80 83 3b 47 fd 26 bc 14 25 8b bb
       0.0026323064 0.004013118 -0.010192222 -0.0042463634
0002c0 11 34 ea bb e2 32 3d bb c8 b7 ab bb fd ae 83 39
       -0.00714732 -0.002886944 -0.0052404143 0.00025116644
0002d0 9c 6a 99 bb ee 0c 22 bb b6 2f 71 bb ab 56 5a 3c
       -0.0046818983 -0.0024726945 -0.003680212 0.013326327
0002e0 0b dd 18 bc dd d3 a6 3b 5f 78 5d 3d e4 ac bc ba
       -0.0093300445 0.005091174 0.054069873 -0.0014394787
0002f0 60 50 55 3c e5 fc b6 bb ba 77 3e bb fa 5a 3a bc
       0.013019651 -0.0055843466 -0.0029063062 -0.01137423
000300 3a 52 1d 3c e1 31 15 bc 77 a6 21 bb 76 fe c7 3b
       0.009602124 -0.00910613 -0.0024665871 0.006103332
000310 57 b1 35 3b b5 a6 03 bc 40 ee e9 ba 15 d0 38 3c
       0.002772411 -0.0080353515 -0.0017847493 0.011280079
000320 05 0b 80 bc 65 7a d0 bb ac 4b 9c 3d 2c 7c 36 ba
       -0.015630255 -0.006362247 0.07631621 -0.0006961252
000330 e8 dc cd 3b 93 ab 91 bb cd e9 b3 bb 90 16 d4 ba
       0.0062824376 -0.004445502 -0.0054905177 -0.001618104
000340 04 b8 52 ba 67 fb f8 3b aa ca 12 3c 6e d8 af 3b
       -0.0008038285 0.007598329 0.008959452 0.0053663766
000350 f2 e0 17 3b 6b 20 44 bb 7d 78 e5 36 54 dd b3 bb
       0.002317485 -0.002992655 6.8387585e-06 -0.005489031
000360 8c c1 da ba c9 2a 92 3b a4 d4 6a bb d3 e8 b7 bb
       -0.0016689762 0.004460667 -0.003583231 -0.0056124716
000370 cb 21 d0 3b 5d 2b 56 3b ea 0a 75 ba 0a 71 94 39
       0.0063516847 0.0032679655 -0.00093476346 0.0002831298
000380 9a 31 94 3b a8 8e 36 3c ce e1 81 ba 95 2a 24 3b
       0.0045225145 0.01114241 -0.0009909214 0.0025049795
000390 4a d0 8f 3b 7d c7 59 ba 3b 30 80 bc 0c e7 0f bb
       0.0043888437 -0.0008307619 -0.015647998 -0.0021957783
0003a0 ec bd 90 bb 72 f3 ec 3c 0c 12 8d 39 b8 96 83 bc
       -0.0044171717 0.028924678 0.00026907062 -0.01606308
0003b0 9f d6 f2 3a 60 4f 5a bc d4 ac f1 3c 15 62 5c 3c
       0.0018527097 -0.013324589 0.029501356 0.013451119
0003c0 22 50 be 3a 65 6c c5 3b 70 0f 29 3a f8 41 f0 3a
       0.0014519731 0.0060248845 0.0006449139 0.0018330207
0003d0 43 f1 eb 3a 34 4b 58 3a a4 78 ab 3a 43 4e 86 bb
       0.0018000979 0.0008250952 0.0013082218 -0.004098685
0003e0 67 c1 da 3a bb 8c f1 39 11 92 8a bb 06 eb 27 bb
       0.0016689718 0.00046071954 -0.0042288383 -0.0025622263
0003f0 6d 4e aa 3a ee 1f ca 3a e6 3c 26 3b 8d f8 e1 ba
       0.0012993343 0.0015420893 0.0025365888 -0.0017240212

encoder.net.11.bias f4 [4]
000000 10 64 8a bd 4f f7 83 3d 19 51 5e be de b9 65 be
       -0.06757367 0.06443655 -0.21710624 -0.22434184
