assignment3/part1/VAE_zdim2_logs/lightning_logs/version_8950359/checkpoints/epoch=68-step=29118.ckpt (torch, 871118 bytes, 24 tensors)

encoder.net.0.weight f4 [32, 1, 3, 3]
0	0x3e09f95b	0.13474028
1	0x3e1cb8bf	0.1530485
2	0xbe04d1ca	-0.12970653
3	0x3e64951d	0.22322507
4	0xbda6b039	-0.081390806
5	0x3e01b34c	0.12666053
6	0xbe684353	-0.22681932
7	0x3e0ad6a3	0.1355844
8	0x3e3266e6	0.17422065
9	0xbe5e963e	-0.21737
10	0x3e368de0	0.17827559
11	0x3e73d63d	0.23812194
12	0x3e71d3b4	0.23615915
13	0x3d3eb52e	0.046559505
14	0x3e6bc4bf	0.23024271
15	0x3d91c7c1	0.07118178
16	0x3e6c20c0	0.23059368
17	0x3d4bb8c1	0.049736742
18	0xbd917ee8	-0.071042836
19	0x3dbfa3bc	0.09357402
20	0xbdb18c8c	-0.08669385
21	0x3d7df58f	0.06200176
22	0xbdef2931	-0.116777785
23	0x3de1302e	0.10995518
24	0xbcfe0166	-0.031006526
25	0xbc0487fb	-0.008089061
26	0xbb3ab242	-0.0028487598
27	0xbe5af928	-0.21384108
28	0xbc883895	-0.016628543
29	0xbeb698d9	-0.35663489
30	0x3eb756d0	0.3580842
31	0xbe76797a	-0.24069777
32	0x3e8cbd5c	0.2748822
33	0x3e11cf22	0.14239171
34	0xbca6d5f1	-0.020365687
35	0x3e62547f	0.22102545
36	0x3da1319b	0.078707896
37	0x3e8ac13e	0.27100557
38	0x3e5b948d	0.21443386
39	0xbd9d58ad	-0.07682929
40	0x3e03069e	0.12795493
41	0x3c4fd9a7	0.01268617
42	0x3d3f9f76	0.046782933
43	0x3e8c580f	0.27410933
44	0x3e719fc4	0.23596102
45	0xbdf55099	-0.119782634
46	0x3de5d88f	0.11222946
47	0xbdafa546	-0.08576445
48	0x3d239b1f	0.039942857
49	0xbe890398	-0.26760554
50	0xbee35bfc	-0.44406116
51	0xbd9d79da	-0.07689257
52	0xbe8b9ee2	-0.27269655
53	0x3e31e8bb	0.17373936
54	0x3e14ede2	0.1454387
55	0x3e8bebb6	0.2732827
56	0x3e5514e9	0.20808758
57	0x3dad26ea	0.08454688
58	0x3e9becca	0.30454093
59	0xbe2ffae6	-0.17185554
60	0xbda23224	-0.0791972
61	0xbeabce78	-0.3355596
62	0xbcf76922	-0.030201498
63	0xbe187d8d	-0.14891644
64	0x3e21919e	0.15778205
65	0xbd62f2c2	-0.055407293
66	0x3e689724	0.22713906
67	0xbe13ca4b	-0.14432637
68	0xbe7d78b7	-0.2475308
69	0xbe896436	-0.26834267
70	0x3e9a5284	0.3014108
71	0x3d8b3895	0.067979015
72	0x3e46490c	0.19363803
73	0xbe9c9194	-0.30579817
74	0xbe90ad28	-0.28257108
75	0xbe9deb9e	-0.30843824
76	0xbe86e9d3	-0.2635027
77	0x3d78b25a	0.060716964
78	0x3e4fedf3	0.20305614
79	0x3e8ca9e0	0.27473354
80	0xbe11a224	-0.14222008
81	0xbe6a23e1	-0.22865249
82	0x3e8c60e2	0.27417666
83	0xbde4a96f	-0.111651294
84	0x3e4dd527	0.20100842
85	0xbdc21b12	-0.094778195
86	0x3e289654	0.16463596
87	0xbe0be338	-0.13660896
88	0xbe39434f	-0.18092082
89	0x3d9a713e	0.075411305
90	0x3dbb8729	0.09156639
91	0xbdd3c52c	-0.10340342
92	0x3e03f047	0.12884627
93	0x3e92dbe0	0.28683376
94	0xbea0e419	-0.31424025
95	0xbe4f7482	-0.20259288
96	0x3eac0908	0.3360064
97	0xbdbde522	-0.09272219
98	0xbdbcb8ab	-0.0921491
99	0xbe7f6d86	-0.24944124
100	0xbe42f7a0	-0.19039774
101	0x3d4bd0fb	0.049759846
102	0xbdc7175d	-0.09721253
103	0xbe8df94f	-0.2772927
104	0xbd96bd0b	-0.07360276
105	0xbdc2b48c	-0.09507093
106	0xbe43b9c6	-0.19113836
107	0xbdf8c18a	-0.1214629
108	0xbcf305dd	-0.029665882
109	0xbe17c7e7	-0.1482235
110	0x3e67e2d8	0.22645128
111	0x3de387b2	0.11109866
112	0x3def22ed	0.116765834
113	0xbe9273a1	-0.28603843
114	0xbd302c31	-0.043010894
115	0x3cf54f24	0.029944964
116	0x3d80a7f6	0.06282036
117	0xbe06b1b3	-0.13153724
118	0xbdc508a7	-0.09620791
119	0xbe2c66c3	-0.16836075
120	0x3dd5d98f	0.10441887
121	0xbd4d34ef	-0.05009931
122	0x3c122282	0.00891936
123	0xbcf2debe	-0.029647227
124	0xbdb06af2	-0.08614148
125	0xbd6c9ef2	-0.05776877
126	0xbe174697	-0.14773022
127	0xbe9cb5c0	-0.30607414
128	0x3ea64959	0.32477835
129	0xbe5d2cbc	-0.21599096
130	0x3e45379f	0.19259499
131	0x3e429d1b	0.19005243
132	0xbe79febe	-0.24413583
133	0x3e84910b	0.2589191
134	0xbd665425	-0.05623259
135	0xbe00c7f4	-0.12576276
136	0xbe92fbe5	-0.28707805
137	0xbeae6088	-0.34058022
138	0x3dd0fd7b	0.102045976
139	0xbdfbb30e	-0.12290011
140	0x3d59ce21	0.053175095
141	0xbe2e7ec7	-0.17040549
142	0x3e6ff111	0.23431803
143	0xbe7c7de8	-0.24657404
144	0xbcf776e4	-0.030208059
145	0x3e2f212b	0.17102496
146	0x3e889c94	0.2668196
147	0x3e94b600	0.29045105
148	0x3ea75098	0.32678676
149	0xbe95294d	-0.29133072
150	0x3ed6241e	0.4182443
151	0xbe0a9024	-0.13531548
152	0xbdb5525c	-0.088535994
153	0xbe855e27	-0.26048395
154	0x3e782c09	0.24235548
155	0xbe9fde38	-0.31224227
156	0x3ddc9466	0.10770492
157	0x3e19ece8	0.15031779
158	0x3e12b941	0.14328481
159	0xbe0ba1aa	-0.13635889
160	0x3e8814bd	0.26578322
161	0x3db40a33	0.08791008
162	0x3db80985	0.08986191
163	0xbe65b768	-0.22433245
164	0x3e1b430f	0.151623
165	0x3c962d40	0.018332124
166	0xbe2cc07a	-0.16870299
167	0x3e7a3153	0.24432878
168	0x3e023a5a	0.12717572
169	0xbe39311c	-0.1808514
170	0xbdd80bc6	-0.105491206
171	0xbbc9217a	-0.006138024
172	0x3de7e0ab	0.11322149
173	0xbc110a7f	-0.0088526
174	0xbe3c14fe	-0.18367383
175	0xbdbef2be	-0.09323643
176	0xbda4dce2	-0.080499426
177	0x3c86f75f	0.016475378
178	0x3e7d1082	0.24713328
179	0xbe105cfc	-0.1409797
180	0x3d95f3a3	0.07321861
181	0x3d0c1415	0.03419884
182	0x3ea3d095	0.31995073
183	0xbd79ede0	-0.06101787
184	0x3e70ef62	0.23528817
185	0x3e897ea9	0.26854447
186	0x3e8af300	0.2713852
187	0xbcb2d9a3	-0.021832293
188	0xbd9cd1cc	-0.07657203
189	0xbcb7d771	-0.022441598
190	0xbe535778	-0.20638835
191	0xbe94e74e	-0.2908272
192	0x3e43845a	0.19093457
193	0x3ee77f70	0.45214415
194	0x3d1516b7	0.036398616
195	0xbe09f6da	-0.13473073
196	0x3d6e6660	0.0582031
197	0x3cfb34ea	0.03066488
198	0x3d318711	0.0433417
199	0x3d22ae7b	0.03971718
200	0xbe6d8f55	-0.23199208
201	0xbe2b4705	-0.1672631
202	0x3e6c6b33	0.23087768
203	0x3e5cd299	0.21564712
204	0x3cd18291	0.025574954
205	0xbe0c51bf	-0.13703059
206	0xbd46ac5c	-0.04850422
207	0xbdd81311	-0.10550512
208	0xbd896d56	-0.06710307
209	0x3de80e2b	0.11330827
210	0x3e455179	0.1926936
211	0x3e099a1a	0.13437691
212	0xbe964598	-0.2934997
213	0xbd95d2eb	-0.0731562
214	0xbceec4d9	-0.029146599
215	0x3e33c044	0.17553812
216	0x3ce802df	0.028321682
217	0x3c8ab9ce	0.016934302
218	0x3e4ebfab	0.20190303
219	0xbe39761e	-0.18111464
220	0xbe30be65	-0.1726013
221	0x3e2c329e	0.16816184
222	0xbe4a73fb	-0.19770806
223	0xbe01b2f3	-0.1266592
224	0xbeba3fb7	-0.36376736
225	0x3e5dad9c	0.21648258
226	0x3e8dbf37	0.27684948
227	0x3dd65fc6	0.10467486
228	0xbe7bcd5b	-0.24590056
229	0xbece833c	-0.403345
230	0xbe992dcf	-0.29917762
231	0x3e3c444e	0.18385431
232	0x3db49dc4	0.08819154
233	0x3ebc0e99	0.36729887
234	0x3dd5533b	0.104162656
235	0x3da6ed19	0.081506915
236	0x3cd48099	0.025940226
237	0xbe4e8697	-0.2016853
238	0xbddddf29	-0.1083358
239	0xbdffda5a	-0.12492819
240	0x3e2b35c4	0.16719729
241	0xbd4f2e2e	-0.05058115
242	0x3e00a6ae	0.12563583
243	0xbc821213	-0.01587776
244	0x3c1b4360	0.009476513
245	0xbcddc0d8	-0.027069494
246	0xbe266aed	-0.16251726
247	0x3e077153	0.13226824
248	0x3ba7e3c3	0.005123587
249	0x3dfca182	0.12335493
250	0xbdb044b4	-0.08606854
251	0xbd06feae	-0.032957725
252	0x3cfb9ea0	0.030715287
253	0xbe52a1ce	-0.20569536
254	0xbdac690b	-0.08418473
255	0xbe9efa20	-0.31050205

encoder.net.0.bias f4 [32]
0	0x3ecec1af	0.40382144
1	0xbe887436	-0.26651162
2	0xbc15241e	-0.009102849
3	0xbe2f69ed	-0.17130251
4	0xbf115ffc	-0.56787086
5	0xbefe56f7	-0.49675724
6	0x3e154474	0.14576894
7	0xbe3042ce	-0.17212984
8	0xbeb6b24b	-0.35682902
9	0xbe10013c	-0.14062971
10	0xbda33fbe	-0.07971142
11	0xbeb9f012	-0.36315972
12	0xbc4a1008	-0.012332924
13	0xbe94e6dc	-0.29082382
14	0xbe03ba66	-0.12864074
15	0xbec9ba33	-0.3939987
16	0xbf1bd3f1	-0.6087027
17	0x3e3b32af	0.18281053
18	0xbe10062f	-0.14064859
19	0xbdfb2f09	-0.122648306
20	0xbf000fc0	-0.5002403
21	0xbdb77477	-0.08957761
22	0xbd1d642d	-0.038425613
23	0xbc79b117	-0.015239975
24	0xbeef028c	-0.4668163
25	0xbda1400b	-0.07873543
26	0xbc81a342	-0.015824918
27	0xbcad871f	-0.021182595
28	0x3bfc034f	0.007690824
29	0xbdd1ab36	-0.10237734
30	0xbdc38d48	-0.09548432
31	0xbccfbb13	-0.025357759

encoder.net.2.weight f4 [32, 32, 3, 3]
0	0x3cef4d69	0.029211717
1	0xbd52034f	-0.051272687
2	0x3a49c6b5	0.0007697151
3	0xbce8190e	-0.02833226
4	0xbe39fd90	-0.18163133
5	0xbe5cb6b6	-0.21554074
6	0xbe556bf8	-0.20841968
7	0xbf01ba28	-0.50674677
8	0xbea674fc	-0.32511127
9	0xbd198f66	-0.03749027
10	0xbdcc775b	-0.09983703
11	0x3e222c64	0.15837246
12	0xbe44edd6	-0.19231352
13	0xbc90b549	-0.017664568
14	0xbeada17c	-0.33912265
15	0xbe1439df	-0.14475201
16	0x3d31f9de	0.043451183
17	0xbd6ffdda	-0.0585917
18	0xbda94643	-0.082653545
19	0x3bb3346a	0.0054688947
20	0xbda0056f	-0.078135364
21	0xbda1183d	-0.07865951
22	0xbdb37bc6	-0.08763842
23	0xbd96372e	-0.073347434
24	0xbcebb7cc	-0.028774165
25	0x3d7da26e	0.061922483
26	0x3e8c9114	0.27454436
27	0x3dc65a18	0.09685153
28	0x3ce8ec41	0.028432967
29	0xbe8e352a	-0.27774936
30	0x3e29a53b	0.16566937
31	0x3d93d5b6	0.072184965
32	0xbe387b54	-0.18015796
33	0x3e4e428d	0.20142575
34	0xbbfc4a9c	-0.007699324
35	0x3e2f857d	0.17140765
36	0xbd1dfe8d	-0.038572837
37	0xbe358bf9	-0.17729177
38	0x3db9db65	0.09075049
39	0xbc53ecce	-0.012934877
40	0x3d017476	0.031605206
41	0xbebdbc58	-0.37057757
42	0xbbe17d32	-0.0068813795
43	0x3e6cb24c	0.2311489
44	0x3da4244c	0.080147356
45	0xbea87a84	-0.32905972
46	0xbdb3913f	-0.08767938
47	0xbdf47438	-0.119362295
48	0xbe230c55	-0.15922673
49	0x3de1b742	0.11021282
50	0x3e446da7	0.19182454
51	0x3e3b796c	0.18308038
52	0x3e000516	0.1250194
53	0x3e201970	0.15634704
54	0x3e45b035	0.19305499
55	0x3c97ff58	0.018554375
56	0x3cd6fed8	0.026244566
57	0x3e16b4f6	0.14717469
58	0x3dc8b17d	0.09799478
59	0x3e64569c	0.22298664
60	0xbd188018	-0.037231535
61	0xbe712f61	-0.2355323
62	0xbefefb85	-0.4980127
63	0x3cf1a421	0.029497208
64	0xbd2e0d86	-0.042493366
65	0x3db359fc	0.087573975
66	0xbba605a9	-0.0050665927
67	0x3cfb6e47	0.030692233
68	0x3da97f44	0.08276227
69	0x3d3f54d2	0.04671175
70	0xbd8c1400	-0.06839752
71	0x3d855285	0.0650988
72	0x3b916838	0.0044374727
73	0x3d03b862	0.032158263
74	0xbde810a1	-0.11331297
75	0xbe0f29ca	-0.13980785
76	0xbcb1716e	-0.021660533
77	0x3d9b4f52	0.075834885
78	0x3ac1d9ff	0.0014789699
79	0x3d66b3f3	0.056323957
80	0x3e441626	0.19149074
81	0xbd4076e6	-0.04698839
82	0xbbd0965c	-0.0063655805
83	0xbcc80340	-0.024415612
84	0x3cef1db6	0.029188972
85	0x3d4bb0cb	0.04972915
86	0x3c781f29	0.015144148
87	0xbe6004b0	-0.21876788
88	0x3cdf6fe5	0.027275035
89	0x3e469fbb	0.1939687
90	0x3d80a1f8	0.06280893
91	0x3dc6c149	0.09704835
92	0xbd4651fe	-0.048418038
93	0x3deef1f0	0.1166724
94	0x39a54c6d	0.00031528194
95	0xbdc90651	-0.09815658
96	0xbd14d7a5	-0.036338467
97	0xbe86cac9	-0.26326588
98	0xbe6a393b	-0.22873394
99	0xbeef33ad	-0.46719113
100	0xbe05dbb8	-0.13072097
101	0xbd936192	-0.071963444
102	0xbe1235cc	-0.14278334
103	0x3d638f2b	0.055556457
104	0x3da5a411	0.08087934
105	0x3d77989f	0.060448285
106	0x3dd8235e	0.10553621
107	0x3dab4705	0.08363155
108	0xbd9d1132	-0.07669295
109	0x3da3144c	0.07962856
110	0x3e2e96fc	0.17049783
111	0x3bd0aab8	0.0063680075
112	0x3d1ed022	0.03877271
113	0x3d9d2c9a	0.07674523
114	0xbdeaccc7	-0.114648394
115	0x3d8b9b6c	0.06816754
116	0xbe0f9d15	-0.14024766
117	0xbebfe393	-0.37478313
118	0xbdcd6551	-0.1002909
119	0xbd756d04	-0.05991842
120	0xbdb4d846	-0.088303134
121	0x3d308f01	0.04310513
122	0x3c6dd8e9	0.014517047
123	0x3df4a1ff	0.11944961
124	0x3e3f2722	0.18667272
125	0x3e18fe37	0.14940725
126	0xbe6988f0	-0.22806144
127	0x3b11427a	0.0022164867
128	0x3e8e8fc8	0.2784407
129	0xbe3bc0d0	-0.18335271
130	0xbcda7799	-0.026668357
131	0xbe2925f3	-0.16518383
132	0xbf1ce1b9	-0.61281925
133	0xbe691157	-0.22760521
134	0xbe508a3d	-0.20365234
135	0xbef0524e	-0.46937793
136	0xbe057f81	-0.1303692
137	0xbd5dc1f4	-0.054140046
138	0xbdee5618	-0.11637515
139	0xbd858220	-0.0651896
140	0xbc0c835d	-0.008576241
141	0x3de5bf22	0.11218096
142	0x3e49bf42	0.19701865
143	0x3e417cde	0.1889529
144	0xbc4d9652	-0.012548046
145	0xbe8741ec	-0.26417482
146	0xbd450d72	-0.048108526
147	0xbe0b51ce	-0.13605425
148	0xbe069520	-0.13142824
149	0x3d81912e	0.06326519
150	0xbd797e0e	-0.06091123
151	0xbd7a1588	-0.06105569
152	0x3e029679	0.12752713
153	0x3cf71136	0.030159574
154	0xbdf2f504	-0.11863139
155	0x3c92afac	0.017906033
156	0xbd422a88	-0.047403842
157	0xbe048a5d	-0.12943406
158	0xbeb8f341	-0.36123088
159	0xbea1e039	-0.3161638
160	0xbe924de7	-0.2857506
161	0xbe870500	-0.26371002
162	0xbd321c4d	-0.04348402
163	0x3e8fd5e0	0.2809286
164	0x3ce3f95a	0.027828861
165	0xbd85f9bd	-0.065417744
166	0x3e26f6f8	0.16305149
167	0xbe475616	-0.19466433
168	0xbb25b05f	-0.0025282127
169	0x3e3f9137	0.18707739
170	0xbc311158	-0.010807358
171	0x3d8a300f	0.06747448
172	0xbd20012b	-0.039063614
173	0x3c8b6f70	0.017020911
174	0xbc10fdf1	-0.008849607
175	0xbbc6ff18	-0.00607289
176	0x3e37b95a	0.179418
177	0x3de4932b	0.111608826
178	0xbe2031b9	-0.15643968
179	0xbe34ecd9	-0.17668475
180	0xbde367c3	-0.11103775
181	0xbe23a0ba	-0.15979281
182	0x3e39d261	0.1814666
183	0xbc85be04	-0.016325958
184	0x3d8a2daf	0.06746995
185	0xbe3cc71f	-0.18435334
186	0xbd699e84	-0.057035938
187	0x3e1ae039	0.15124597
188	0x3cd9a091	0.026565822
189	0x3e3f491f	0.18680237
190	0x3de21d57	0.110407524
191	0xbd609c81	-0.054836754
192	0x3e82bfc9	0.25536945
193	0x3d907918	0.07054347
194	0xbde8d43e	-0.11368607
195	0xbe0cdef0	-0.13756919
196	0xbdff5687	-0.12467676
197	0xbe102b76	-0.14079079
198	0x3c257dbd	0.010100779
199	0xbd47a25c	-0.048738822
200	0xbe092948	-0.13394654
201	0x3cf14628	0.029452398
202	0xbc26325d	-0.0101438435
203	0x3dcb14bd	0.09916065
204	0xbdaee1ec	-0.08539185
205	0x3d2d7d70	0.042355955
206	0x3cd35c3d	0.025800819
207	0xbdecad5e	-0.11556505
208	0x3cfb7aa2	0.030698124
209	0x3bca5e2d	0.0061757774
210	0xbb09e020	-0.002103813
211	0x3d27985a	0.04091678
212	0xbce3509a	-0.027748395
213	0xbdd92306	-0.10602383
214	0x3e00f85f	0.12594746
215	0x3cd4baa6	0.025967907
216	0xbe80c845	-0.25152794
217	0xbd0f1faa	-0.034942307
218	0xbcd35e51	-0.02580181
219	0x3e2d8230	0.16944194
220	0x3de65f16	0.11248605
221	0x3e26d123	0.16290717
222	0x3dc37c71	0.0954522
223	0x3df6c714	0.1204969
224	0x3daa8061	0.083252676
225	0x3e028865	0.12747343
226	0x3d14a82c	0.036293194
227	0x3d71e47d	0.059055794
228	0x3e861cd4	0.2619387
229	0x3e3d667e	0.18496129
230	0x3cdc44d9	0.026888298
231	0x3d8f15c8	0.06986576
232	0xbe71a8ef	-0.235996
233	0xbebd6a82	-0.36995322
234	0xbd3ec722	-0.046576627
235	0xbd7f3889	-0.062309776
236	0xbd403b9f	-0.04693186
237	0xbaf0a8db	-0.001836087
238	0x3d556e75	0.052107293
239	0x3dda7306	0.1066647
240	0x3dcc501f	0.099762194
241	0xbd5cac6f	-0.053875383
242	0xbde8957a	-0.113566354
243	0xbe498329	-0.1967894
244	0xbdd222cc	-0.10260543
245	0xbdcff8ff	-0.10154914
246	0xbd4197de	-0.047263972
247	0xbd695c24	-0.056972638
248	0xbb01faa4	-0.0019833231
249	0xbd819e62	-0.06329037
250	0x3ce9e295	0.028550426
251	0x3da9624d	0.082707025
252	0xbd9da7f2	-0.07698049
253	0x3ca0aec9	0.019614594
254	0xbd87405a	-0.06604071
255	0xbcf0aeb1	-0.029380174

encoder.net.2.bias f4 [32]
0	0xbd0b016f	-0.033936914
1	0xbd764d08	-0.060132056
2	0xbdc00193	-0.093753
3	0xbbcf5b38	-0.006328013
4	0xbcea6d4c	-0.02861657
5	0xbe79e36f	-0.24403165
6	0xbda9b1a2	-0.08285834
7	0xbdcf16d0	-0.10111773
8	0xbe4b7a1f	-0.19870804
9	0xbe4a28a1	-0.19742061
10	0xbd3eac67	-0.046551134
11	0xbda78dbc	-0.081813306
12	0xbe01585c	-0.12631363
13	0xbc805a94	-0.015668191
14	0xbdbd4410	-0.092414975
15	0xbdcdeb40	-0.10054636
16	0xbe25955e	-0.1617026
17	0xbc8b6353	-0.017015135
18	0xbe14b567	-0.14522325
19	0xbdbda6b3	-0.09260311
20	0xbdb85b88	-0.09001833
21	0xbdbc260f	-0.091869466
22	0xbd9defe7	-0.07711773
23	0xbe077930	-0.13229823
24	0xbdd3cc70	-0.10341728
25	0xbe02230d	-0.12708683
26	0x3d6bfa49	0.057611737
27	0xbd6e26a3	-0.058142316
28	0xbdb896bd	-0.09013126
29	0xbcf9cedc	-0.030494146
30	0xbd2d37b5	-0.042289454
31	0xbd9591c0	-0.0730319

encoder.net.4.weight f4 [64, 32, 3, 3]
0	0x3e3361e0	0.17517805
1	0x3e567093	0.20941381
2	0x3d098abf	0.033579584
3	0xbe0b24c2	-0.1358824
4	0xbd5096a6	-0.05092492
5	0xbe3fd016	-0.18731722
6	0xbd569005	-0.05238344
7	0xbd041b67	-0.032252695
8	0xbe46d101	-0.19415666
9	0x3e0247f6	0.12722763
10	0x3b432bd1	0.0029780755
11	0xbd326035	-0.04354878
12	0x3cbdea9b	0.023183158
13	0xbe0b8169	-0.13623585
14	0xbe7a1d9f	-0.24425362
15	0x3dcc1308	0.099645674
16	0xbd86e9d7	-0.0658757
17	0xbdb56525	-0.088571824
18	0x3d38980d	0.045066882
19	0x3dd8ba7f	0.10582446
20	0xbdafc886	-0.08583169
21	0x3c993651	0.018702658
22	0x3dcb4950	0.099260926
23	0xbcd38a20	-0.0258227
24	0x3defbc76	0.11705868
25	0xbd6ee47a	-0.05832336
26	0xbd5f4442	-0.054508455
27	0xbd36954f	-0.044575986
28	0x3d8bcdfc	0.06826398
29	0x3e615a61	0.22007133
30	0x3ce18e55	0.02753369
31	0xbd79ed53	-0.061017346
32	0x3dd7626f	0.105168216
33	0xbe4beb07	-0.19913875
34	0xbdd9436f	-0.10608565
35	0x3b7ec349	0.0038873723
36	0x3db8f66e	0.09031378
37	0x3c2cc099	0.010543966
38	0x3d4074fa	0.046986558
39	0x3e33509b	0.17511217
40	0xbce13b9d	-0.027494246
41	0x3cd49c7a	0.02595352
42	0xbc2d01e3	-0.010559532
43	0x3d6df9f7	0.058099713
44	0x3e36b5c1	0.17842771
45	0x3d5e83b7	0.05432483
46	0xbd2a0e3e	-0.04151749
47	0x3e30db07	0.17271052
48	0x3dd94d4f	0.106104486
49	0x3d1b52b7	0.03792068
50	0xbd9af43e	-0.07566117
51	0x3dcaada4	0.098964006
52	0x3d435041	0.047683958
53	0xbe0f65a6	-0.1400362
54	0x3d3b18be	0.045677893
55	0x3cbe3d4a	0.023222584
56	0xbe2a6de4	-0.16643482
57	0x3c439d8c	0.011939418
58	0xbd7b0c89	-0.06129125
59	0xbe74e851	-0.23916747
60	0x3caff9a2	0.021481339
61	0xbde0e653	-0.10981431
62	0xbd1e8596	-0.038701616
63	0xbe2d886b	-0.1694657
64	0xbe5620d5	-0.20910962
65	0xbe201bd0	-0.1563561
66	0xbcfc4aa0	-0.030797303
67	0xbdf5954d	-0.119913675
68	0xbdbd2521	-0.092355974
69	0xbd45869c	-0.048224077
70	0x3c3ddd88	0.011588462
71	0xbdcf2702	-0.10114862
72	0x3da236a1	0.07920576
73	0x3deca0cf	0.11554109
74	0x3e4ff203	0.20307164
75	0x3d5dc168	0.054139525
76	0xbc2e5c4a	-0.010642121
77	0x3d3f1004	0.046646133
78	0xbbbc2ce9	-0.0057426584
79	0xbd3dde40	-0.046354532
80	0xbd359e89	-0.044340644
81	0xbd68ccb6	-0.056835853
82	0x3d5a72ab	0.053332012
83	0xbc5d75b9	-0.013516837
84	0xbd29a1d3	-0.041414093
85	0x3c8a0c35	0.016851524
86	0x3c72ace9	0.014811733
87	0x3e071e39	0.13195123
88	0xbbf5bbfd	-0.0074992166
89	0x3d0847e5	0.03327169
90	0xbd39f12b	-0.04539601
91	0x3dd69be8	0.104789555
92	0x3e14dc33	0.14537124
93	0xbe6cecb1	-0.23137166
94	0xbe0e040d	-0.13868733
95	0x3bf1cc4c	0.0073790904
96	0xbe542378	-0.20716655
97	0x3ce7b76a	0.0282857
98	0x3d6d729b	0.057970624
99	0x3d2176c3	0.0394199
100	0x3dfedaa6	0.12444048
101	0x3d6564ea	0.056004442
102	0xbd60ee96	-0.054915033
103	0xbdcbca5c	-0.09950706
104	0xbdcb713b	-0.099337064
105	0x3e3a2ae3	0.18180422
106	0xbe028e30	-0.12749553
107	0xbe1b0b25	-0.1514097
108	0x3d23d4ad	0.039997745
109	0x3e3ef29a	0.18647233
110	0x3d8d8a3b	0.06911131
111	0x3dc63b0b	0.0967923
112	0x3e053c15	0.130112
113	0xbd86a6d5	-0.065747894
114	0x3e864377	0.26223347
115	0x3e475fb0	0.19470096
116	0x3e79abbe	0.2438192
117	0xbe2990cf	-0.16559146
118	0xbe3c3f1c	-0.1838345
119	0xbe28bd21	-0.16478397
120	0x3d48a197	0.04898223
121	0xbdbbb863	-0.09166028
122	0xbdabcfdd	-0.08389256
123	0x3e2fcdd3	0.1716836
124	0x3da48adb	0.08034297
125	0x3e5ab9d1	0.21359946
126	0x3b104322	0.002201267
127	0x3dfa7d4f	0.12230932
128	0xbd89b98f	-0.067248456
129	0xbc44e45f	-0.012017339
130	0x3ad7e026	0.001647
131	0xbe3337ca	-0.1750175
132	0x3c3e35ec	0.011609536
133	0x3cfd680d	0.030933404
134	0xbd7e22c6	-0.06204488
135	0xbe3ab259	-0.18232097
136	0x3d2bfedd	0.041991103
137	0xbc7d9f8d	-0.015479934
138	0x3bd08dbc	0.0063645523
139	0xbe2bf240	-0.1679163
140	0xbe57ccad	-0.21074171
141	0x3d450a47	0.048105504
142	0xbdfee4f5	-0.12446014
143	0x3d47c117	0.04876813
144	0xbe1c62eb	-0.15272109
145	0xbd1b68bb	-0.037941676
146	0xbd02c285	-0.03192379
147	0x3df74ef5	0.12075607
148	0xbd1abbf9	-0.03777692
149	0x3e02a8c5	0.12759693
150	0xbdbcc562	-0.09217335
151	0x3d2a99ae	0.041650467
152	0xbe83b14d	-0.25721207
153	0xbdd2dcba	-0.102960065
154	0x3e0f029b	0.13965838
155	0xbe3e2717	-0.18569599
156	0xbc9d7f6e	-0.019225802
157	0xbb83ace7	-0.0040184143
158	0xbe5ae0d6	-0.2137483
159	0x3c8e8947	0.017399443
160	0xbd69cc98	-0.05707988
161	0xbe6c684e	-0.23086664
162	0x3dc78f82	0.09744169
163	0xbd9893f4	-0.07450095
164	0xbe8e5f90	-0.27807283
165	0xbc0318de	-0.008001534
166	0xbda98ff8	-0.08279413
167	0xbe2d270a	-0.16909423
168	0xbcf5923b	-0.029976955
169	0xbde1a4a6	-0.11017732
170	0x3ddc491d	0.10756133
171	0xbcf2af3d	-0.029624576
172	0x3defea85	0.11714653
173	0x3e209501	0.1568184
174	0xbc70625f	-0.014671891
175	0xbdf3481e	-0.1187899
176	0x3dcc8673	0.09986582
177	0x3e2de463	0.16981654
178	0x3e60c45e	0.21949908
179	0x3e1c9369	0.15290608
180	0x3d276da7	0.040876057
181	0x3be8912a	0.007097383
182	0xbe4aa00e	-0.19787619
183	0x3d25c468	0.04047051
184	0x3cc8698f	0.024464397
185	0xbd094eed	-0.033522535
186	0x3ce23b11	0.027616056
187	0xbc1266bf	-0.008935629
188	0x3c5f0cfd	0.0136139365
189	0x3d667515	0.056264002
190	0x3d2e0589	0.042485747
191	0x3de58de4	0.11208704
192	0xbe18d9d1	-0.1492684
193	0x3da19dc6	0.07891421
194	0x3def01d1	0.11670268
195	0xbc67e05a	-0.014152611
196	0xbe01b4ff	-0.12666701
197	0x3c84853b	0.01617681
198	0x3db70d1c	0.08938047
199	0x3e234349	0.15943636
200	0xbdab32c7	-0.083592944
201	0xbcfca304	-0.03083945
202	0xbcdc7efa	-0.026916016
203	0x3e0ee723	0.13955359
204	0xbd8a3522	-0.067484155
205	0xbd6f3058	-0.058395714
206	0x3d67a514	0.056553915
207	0x3cdeed2d	0.027212704
208	0x3d8e5c1e	0.06951164
209	0x3d913fde	0.0709226
210	0x3d85dc8e	0.06536208
211	0x3c9caf8e	0.01912668
212	0xbc31f98d	-0.01086272
213	0x3dfb7bbe	0.12279461
214	0xbd551463	-0.052021395
215	0xbe377563	-0.17915873
216	0xbe9d22f6	-0.30690736
217	0xbe88d88b	-0.2672771
218	0xbdde6d35	-0.10860673
219	0xbe1d5ffd	-0.15368648
220	0xbe0884c2	-0.13331893
221	0x3d188b1e	0.037242047
222	0x3b6dada4	0.0036266828
223	0x3d500920	0.050789952
224	0x3c33dabe	0.010977445
225	0xbdf4df78	-0.11956686
226	0xbda511c9	-0.08060033
227	0x3d372abc	0.04471849
228	0x3e1ce827	0.15322934
229	0xbc7258d2	-0.014791684
230	0xbc63532b	-0.013874809
231	0x3e21f8e7	0.15817605
232	0xbb0ba5ce	-0.0021308544
233	0xbc5e6543	-0.013573947
234	0x3e2f0bf2	0.170944
235	0xbdffd73d	-0.12492225
236	0xbe10bfd8	-0.14135683
237	0x3e43ec81	0.19133188
238	0x3d68ac20	0.056804776
239	0xbe480e38	-0.19536674
240	0xbd5745f0	-0.052556932
241	0xbd8698c0	-0.065721035
242	0xbd9a6449	-0.07538659
243	0xbdc84139	-0.09778065
244	0xbda64c0d	-0.08119974
245	0xbda095a4	-0.07841042
246	0xb9bf51e1	-0.00036491363
247	0xba5c4026	-0.0008401893
248	0x3dd6a37f	0.10480403
249	0x3c29175e	0.010320513
250	0x3e03a4c4	0.12855822
251	0xbcf1da19	-0.029522942
252	0xbc85bbfc	-0.01632499
253	0xbe32288a	-0.17398277
254	0x3dc49cf0	0.09600246
255	0x3e0081c5	0.12549503

encoder.net.4.bias f4 [64]
0	0xbdfd6cdf	-0.12374281
1	0xbd36f973	-0.044671487
2	0xbd436a9f	-0.047709104
3	0x3a6fb306	0.0009143803
4	0xbd08516c	-0.033280775
5	0xbe09b292	-0.13447025
6	0xbdc26982	-0.0949278
7	0xbc5f8125	-0.01364163
8	0xbe4ab6af	-0.19796251
9	0xbe390282	-0.18067363
10	0xbe32cb4e	-0.17460367
11	0xbe4730aa	-0.19452158
12	0xbe191c95	-0.1495231
13	0xbd962a69	-0.07332308
14	0xbd8c5239	-0.0685162
15	0xbd6ba5e4	-0.057531253
16	0xbe02bcd0	-0.12767339
17	0xbcf17642	-0.029475335
18	0xbe26521c	-0.1624226
19	0xbe0f04d5	-0.13966687
20	0xbd84f351	-0.064917214
21	0xbdfbdd97	-0.12298124
22	0xbd2edf02	-0.042693146
23	0xbddbc3ea	-0.10730727
24	0xbe362547	-0.17787658
25	0xbcf8de78	-0.030379519
26	0xbd6d8115	-0.05798443
27	0xbdf51411	-0.11966718
28	0xbdaf47c3	-0.08558609
29	0xbdb9b658	-0.090679824
30	0xbde6107b	-0.11233612
31	0x3dd3caa6	0.103413865
32	0xbd57e672	-0.052710004
33	0xbdc2ddf4	-0.095149904
34	0xbdff6bf6	-0.12471764
35	0xbb36d5cc	-0.002789843
36	0xbe2382b6	-0.15967831
37	0xbe11be31	-0.14232709
38	0xbe3483e0	-0.17628431
39	0xbdac27f6	-0.084060594
40	0xbdea5692	-0.11442293
41	0xbe0989b6	-0.13431439
42	0xbe5f184b	-0.21786611
43	0xbe10dec2	-0.14147475
44	0x3d2ca908	0.04215339
45	0xbe1c58e9	-0.15268292
46	0xbdc956bd	-0.09830997
47	0xbd3adbcf	-0.045619782
48	0x3d1a8716	0.037726484
49	0xbd9a6f01	-0.075407036
50	0xbd033c69	-0.032040033
51	0xbd765103	-0.060135853
52	0xbd512834	-0.05106373
53	0x3d2e12c8	0.04249838
54	0xbe2214d5	-0.1582826
55	0xbdd6b1f6	-0.10483162
56	0xbe1d8a0c	-0.15384692
57	0xbe455388	-0.19270146
58	0xbdff5204	-0.12466815
59	0xbdc2c7da	-0.09510775
60	0xbdb58928	-0.08864051
61	0xbe58f5ae	-0.2118747
62	0xbdbec8de	-0.09315656
63	0x3d4ba653	0.049719166

encoder.net.6.weight f4 [64, 64, 3, 3]
0	0x3ce41594	0.02784232
1	0x3d020015	0.03173836
2	0x3c2ad9d0	0.010427907
3	0xbd86b5fd	-0.0657768
4	0xbe396b35	-0.18107302
5	0xbd5f0fd9	-0.054458473
6	0xbdfaeb9f	-0.122519724
7	0x3ddd0643	0.1079221
8	0xbd9c3ac2	-0.07628395
9	0xbe29fefa	-0.16601172
10	0x3d30745f	0.04307973
11	0xbe7e8bbf	-0.24857996
12	0x3dcc4e9a	0.099759296
13	0x3d140c43	0.036144506
14	0x3dfc0418	0.12305468
15	0x3e2ee2e5	0.17078741
16	0xbdcfbbab	-0.10143217
17	0xbd7500e3	-0.0598153
18	0x3c3e441f	0.011612921
19	0xbdcc4b13	-0.09975257
20	0xbdeaa149	-0.11456544
21	0xbd75b19e	-0.059983842
22	0x3e3e8159	0.1860403
23	0x3e4ea42f	0.20179819
24	0xba9c2f9f	-0.0011916048
25	0xbdf13c13	-0.117790364
26	0x3e0d85c0	0.13820553
27	0x3e00e2f2	0.12586573
28	0x3e520e79	0.20513333
29	0x3e7cee39	0.2470025
30	0x3e06951c	0.13142818
31	0xbe290c22	-0.16508535
32	0x3c9b54db	0.01896136
33	0xbd881c6e	-0.066460475
34	0xbbdb6884	-0.006695809
35	0xbc1df875	-0.009641756
36	0xbe1b36c6	-0.15157613
37	0x3cb40477	0.021974785
38	0xbd4a88ad	-0.04944675
39	0x3cb7e62b	0.02244862
40	0xbe0e568d	-0.13900204
41	0xbd39b663	-0.045339953
42	0xbe64fb9a	-0.22361603
43	0xbeade96e	-0.33967155
44	0xb97b66f2	-0.00023975575
45	0x3c04377e	0.008069871
46	0x3dd574b4	0.1042265
47	0xbd45c27d	-0.04828118
48	0xbb960a5a	-0.0045788707
49	0x3d6e15b5	0.05812617
50	0xbd0cd9dd	-0.034387458
51	0x3b9ad6f0	0.0047253296
52	0xbd319b32	-0.043360896
53	0xbc99408e	-0.01870754
54	0xbe18e058	-0.1492933
55	0x3d738066	0.059448622
56	0xbde65902	-0.11247446
57	0xbe677065	-0.22601469
58	0xbcf115c3	-0.029429322
59	0xbde7d453	-0.113197945
60	0xbdeeb020	-0.11654687
61	0x3d09ffb0	0.03369111
62	0x3e0241bd	0.1272039
63	0xbdcd1e49	-0.10015542
64	0xbd185de7	-0.037198927
65	0x3e2efa04	0.17087561
66	0xbd4386fa	-0.047736146
67	0xbc29b5b3	-0.010358262
68	0x3e200d80	0.1563015
69	0xbe4d5b6e	-0.20054409
70	0xbdf03600	-0.1172905
71	0xbdf8500b	-0.12124642
72	0xbd383c07	-0.04497912
73	0xbc86b9f9	-0.0164461
74	0xbdf3425c	-0.118778914
75	0xbe39f3e8	-0.18159449
76	0xbd73adf3	-0.059492063
77	0xbc5d7b3d	-0.013518152
78	0x3e08ed7b	0.13371842
79	0x3d8fa0c7	0.07013088
80	0x3e127420	0.1430211
81	0xbdc1a36b	-0.09454998
82	0x3e52994a	0.20566288
83	0xbda39c47	-0.07988792
84	0xbdc2d196	-0.095126316
85	0xbdc60e0d	-0.09670649
86	0xbd297396	-0.041369997
87	0x3e39b191	0.18134142
88	0x3e10c62f	0.14138101
89	0x3e82b377	0.25527546
90	0x3df26665	0.118359365
91	0x3d1cf535	0.038319785
92	0x3d2690e2	0.040665515
93	0x3d588e77	0.05287024
94	0xbe4a1ff5	-0.19738753
95	0xbca8a977	-0.02058862
96	0xbe923b87	-0.2856104
97	0x3d91af99	0.07113571
98	0xbc30a3c4	-0.010781232
99	0x3da59646	0.08085303
100	0x3d8d557c	0.069010705
101	0x3d893efa	0.06701465
102	0xbe385865	-0.1800247
103	0xbe296947	-0.16544066
104	0xbd4d5e9b	-0.05013905
105	0x3cc3ef1e	0.02391773
106	0x3dd6012e	0.10449444
107	0xbdd6525f	-0.1046493
108	0x3d426491	0.04745919
109	0x3cd5318f	0.026024608
110	0xbe183700	-0.14864731
111	0x3e38e629	0.18056549
112	0x3e0a2815	0.13491853
113	0xbc9404bd	-0.018068666
114	0xbe37fea7	-0.17968236
115	0x3d597bb8	0.053096503
116	0x3e3a6b3f	0.18204974
117	0x3d279e89	0.040922675
118	0xbd8135a9	-0.06309063
119	0x3d268758	0.040656418
120	0xbdf411ce	-0.119174585
121	0x3db5370d	0.08848391
122	0xbe33940f	-0.17536949
123	0xbed2c186	-0.41163272
124	0x3d9f0b65	0.07765845
125	0xbe4fabc0	-0.20280361
126	0xbd19fc62	-0.037594207
127	0xbd92b8c4	-0.071641475
128	0xbe56cc95	-0.2097648
129	0x3cae2186	0.02125622
130	0x3e37158c	0.17879313
131	0xbe1570d4	-0.14593822
132	0x3d944978	0.072405756
133	0x3c7dfc9f	0.015502124
134	0xbe56ffdb	-0.20996039
135	0x3d28fae3	0.04125489
136	0x3dcf2732	0.10114898
137	0x3de292f2	0.11063184
138	0x3d06a978	0.03287646
139	0xbd2a11f8	-0.041521043
140	0x3c995432	0.018716905
141	0xbe4dcbcd	-0.20097275
142	0x3e10911c	0.14117855
143	0xbd65f26e	-0.056139402
144	0x3d2342b4	0.039858535
145	0x3e587fe8	0.21142542
146	0x3dd4e7b4	0.10395756
147	0x3d9cdb3a	0.07659002
148	0xbcd3db0f	-0.025861291
149	0x3d96ec84	0.073693305
150	0xbd6f918f	-0.058488425
151	0x3d7e36d1	0.062063996
152	0xbf04a414	-0.51812863
153	0x3ddbc413	0.107307576
154	0xbb425ecf	-0.002965856
155	0xbdb9ed33	-0.09078445
156	0xbe56d1e6	-0.20978507
157	0x3d389e08	0.045072585
158	0xbddeb8d4	-0.10875097
159	0x3e8f17eb	0.27947935
160	0x3db2f80a	0.08738716
161	0xbdd7e9e8	-0.10542661
162	0xbdc7e54a	-0.0976053
163	0x3dbda122	0.09259249
164	0xbd0df0fb	-0.034653645
165	0x3e2a8a4a	0.16654316
166	0x3ec2573d	0.37957183
167	0xbe278a46	-0.16361341
168	0x3d3ed940	0.046593904
169	0x3e0e0477	0.1386889
170	0xbe526b93	-0.20548849
171	0x3d1361ab	0.035981815
172	0xbd5e9925	-0.05434527
173	0xbe26d5b8	-0.16292465
174	0xbd1d2b30	-0.038371265
175	0xbd2f02a5	-0.04272713
176	0xbe51cb0f	-0.20487617
177	0xbd2697fe	-0.040672295
178	0x3e014796	0.12624964
179	0x3db0d827	0.08634978
180	0xbe2c218a	-0.16809669
181	0xbe0bb165	-0.1364189
182	0x3e01da40	0.12680912
183	0x3db058d3	0.08610692
184	0xbb0a31b6	-0.002108676
185	0xbd5f80bf	-0.05456614
186	0x3b4772c5	0.0030433398
187	0xbd8ccd67	-0.06875115
188	0xbc3422ef	-0.010994657
189	0xbdf12816	-0.11775224
190	0xbe2de50f	-0.1698191
191	0xbdb5667c	-0.08857438
192	0xbdd526a8	-0.10407764
193	0xbda5abea	-0.08089431
194	0x3e61da72	0.22055987
195	0xbd1a025a	-0.0375999
196	0xbbc0ff9e	-0.005889847
197	0x3e8a7795	0.2704436
198	0x3cc9c822	0.024631564
199	0xbe80075a	-0.2500561
200	0x3d63b630	0.05559367
201	0x3e57ea89	0.21085562
202	0x3e23c2d7	0.15992294
203	0xbccf3266	-0.025292587
204	0x3e2166ee	0.15761921
205	0xbea0303e	-0.31286806
206	0xbc91bc24	-0.017789908
207	0xbdfdb7b3	-0.123885535
208	0xbd801fe0	-0.0625608
209	0x3dccadf4	0.099941164
210	0xbd407867	-0.046989825
211	0x3de1fb49	0.11034257
212	0x3d419a0a	0.047266044
213	0xbe93423e	-0.28761476
214	0xbc657380	-0.014004588
215	0xbed2c0f1	-0.41162828
216	0x3bd06ac4	0.0063603837
217	0x3d1b67be	0.037940733
218	0xbe1a6b3e	-0.15079972
219	0x3cd40389	0.025880592
220	0xbdf87542	-0.1213174
221	0xbd9c1ef2	-0.0762309
222	0xbdf5aa7c	-0.11995408
223	0xbd34f29c	-0.044176683
224	0x3b3ef168	0.0029135589
225	0x3e475615	0.19466431
226	0x3dffb664	0.1248596
227	0xbd4f3dcf	-0.050596055
228	0x3e447c13	0.19187956
229	0xbd565933	-0.05233116
230	0x3dea6fa1	0.11447073
231	0xbe627ec1	-0.22118665
232	0xbdbf7a27	-0.093494706
233	0xbe00e973	-0.12589054
234	0xbceea5e6	-0.02913184
235	0xbe831ec2	-0.25609404
236	0xbce1802d	-0.02752694
237	0x3cc28c09	0.023748415
238	0x3cdb7454	0.026788868
239	0xbe2b145c	-0.16706985
240	0x3e290aa8	0.16507971
241	0xbd73bfad	-0.05950897
242	0x3e87eb79	0.2654684
243	0x3cb91908	0.022594944
244	0x3e218d37	0.15776525
245	0x3e232809	0.15933241
246	0x3cb633dc	0.022241525
247	0x3d451e39	0.048124526
248	0x3e3706d7	0.17873703
249	0x3dbeb1fb	0.09311291
250	0xbe163e27	-0.14672147
251	0x3e0a165c	0.13485092
252	0xbe1adfbd	-0.15124412
253	0xbd56db3a	-0.052455164
254	0xbc87bfbc	-0.016570918
255	0x3e1c2ea3	0.15252165

encoder.net.6.bias f4 [64]
0	0xbe544ca8	-0.20732367
1	0xbdc9953d	-0.09842918
2	0xbcf3bbdc	-0.029752664
3	0xbdcf454a	-0.10120638
4	0xbdc427fe	-0.095779404
5	0xbe164a4f	-0.14676784
6	0xbe3f6234	-0.18689805
7	0xbe7e7250	-0.24848294
8	0x3c19e128	0.00939206
9	0xbe43a61f	-0.19106339
10	0xbeaa3316	-0.332421
11	0xbe6394ac	-0.22224683
12	0xbd56fe5e	-0.052488677
13	0xbe7d5521	-0.24739505
14	0xbe84694f	-0.25861594
15	0xbe53f52d	-0.20698996
16	0xbe1ddbb6	-0.15415844
17	0x3b9c115c	0.0047628116
18	0xbe303a82	-0.17209819
19	0xbe051c66	-0.12999114
20	0xbd3b8d39	-0.045788977
21	0xbe8d2316	-0.2756583
22	0xbe1ae79d	-0.15127416
23	0xbbc9779c	-0.0061482918
24	0xbe18e4dc	-0.14931053
25	0xbd9e4eb0	-0.07729852
26	0xbe2cd7dd	-0.1687922
27	0x3c4a8b18	0.012362264
28	0xbe86766a	-0.26262218
29	0xbdc598db	-0.096482955
30	0xbe14e6b1	-0.14541127
31	0xbe6cb83f	-0.2311716
32	0xbd84a718	-0.06477183
33	0xbd772676	-0.060339414
34	0xbe109492	-0.14119175
35	0xbe4107a7	-0.18850575
36	0xbd3f71ec	-0.046739504
37	0xbd62b590	-0.055348933
38	0xbe19c78a	-0.15017524
39	0xbdd1038c	-0.10205755
40	0xbe535785	-0.20638855
41	0xbd29b5ae	-0.04143303
42	0xbe270b22	-0.1631284
43	0xbd3dbbee	-0.0463218
44	0x3c8971fa	0.016777981
45	0xbe75063e	-0.23928162
46	0xbde5cd05	-0.11220745
47	0xbd5f50a4	-0.054520264
48	0xbd8a5bfa	-0.067558244
49	0xbe807108	-0.25086236
50	0xbe67428e	-0.22583982
51	0xbd39208b	-0.04519705
52	0xbe243d67	-0.16039048
53	0xbe2d4c47	-0.16923629
54	0xbea5f594	-0.32413924
55	0xbdf8fad4	-0.12157217
56	0xbdf56038	-0.11981243
57	0xbea40d27	-0.32041284
58	0xbeb41c2e	-0.3517775
59	0xbe46d4d7	-0.1941713
60	0xbe7005c1	-0.23439695
61	0xbe71cb5f	-0.23612736
62	0xbe5e07a4	-0.21682602
63	0xbd269d75	-0.040677506

encoder.net.8.weight f4 [64, 64, 3, 3]
0	0xbe06eace	-0.13175508
1	0xbd3781d7	-0.04480156
2	0x3e3643b8	0.1779927
3	0xbcc121a3	-0.02357561
4	0xbe8d5569	-0.27604225
5	0x3ba1d0a0	0.0049382
6	0x3d89b622	0.06724192
7	0xbd02b5aa	-0.03191153
8	0xbe4cf6dd	-0.20016046
9	0xbd9f99d7	-0.077930145
10	0x3cb88d6d	0.022528375
11	0x3e04799e	0.12937018
12	0xbc5182af	-0.012787505
13	0xbe541abd	-0.20713325
14	0xbd63d2b0	-0.05562085
15	0xbd2332e2	-0.039843448
16	0xbd91c0ca	-0.0711685
17	0xbd9c5308	-0.076330245
18	0xbac5bd9d	-0.0015086416
19	0x3c25b9aa	0.010115067
20	0xbdc73688	-0.09727198
21	0xbe18f55b	-0.14937346
22	0x3c414a68	0.011797525
23	0x3de03038	0.10946697
24	0xbd0ca15e	-0.03433358
25	0x3d80dc41	0.0629201
26	0x3d1c8894	0.03821619
27	0x3d0f58cf	0.034996804
28	0x3dfdfddc	0.124019355
29	0xbd0c8bef	-0.03431314
30	0xbe076d18	-0.1322521
31	0x3cff550a	0.03116848
32	0xbd07a8c8	-0.033119947
33	0x3d8dcd98	0.069239795
34	0xbd133691	-0.03594071
35	0x3d9a2c05	0.07527927
36	0x3badadba	0.005300251
37	0x3b8ce603	0.0042998805
38	0x3dbfa702	0.09358026
39	0xbbf9c982	-0.0076228986
40	0x3c7ba695	0.0153595405
41	0x3c0e9f94	0.008705039
42	0x3db083b5	0.08618871
43	0x3d3e336b	0.046435755
44	0xbbeddb3c	-0.007258801
45	0x3e01a47e	0.12660405
46	0xbf1d73e5	-0.61504966
47	0x3d99188e	0.074753866
48	0xbc9cac9e	-0.019125279
49	0xbc7848be	-0.015154062
50	0x3c3ab693	0.011396068
51	0xbc85f866	-0.016353797
52	0x3cb67851	0.022274168
53	0x3d8b448f	0.06800186
54	0xbde7bd34	-0.113153845
55	0xbda383a2	-0.07984091
56	0xbc9510ec	-0.018196546
57	0xbd54f528	-0.05199161
58	0x3cdaaf48	0.026694909
59	0x3c207d29	0.0097954655
60	0xbe139669	-0.14412846
61	0x3cf4beff	0.02987623
62	0xbcbf0965	-0.02331991
63	0xbeaea07e	-0.3410682
64	0xbe827414	-0.25479186
65	0xbd5bbb03	-0.053645145
66	0x3d02b7cb	0.03191356
67	0x3d7ccb93	0.06171758
68	0xbe8976b4	-0.26848376
69	0x3eb23c1a	0.3481148
70	0x3cbd2905	0.023090849
71	0xbe0b6ae9	-0.13615002
72	0xbe1ab48a	-0.15107933
73	0x3da00ecd	0.07815323
74	0xbd078f4c	-0.033095643
75	0xbdcefbc4	-0.10106614
76	0xbd3043fc	-0.043033585
77	0x3d4609c7	0.04834917
78	0x3d77534a	0.060382165
79	0xbde3a368	-0.11115152
80	0x3d83f557	0.06443279
81	0xbe4b0c98	-0.19829023
82	0xbdfbd133	-0.12295761
83	0xbecace92	-0.39610726
84	0xbdb25219	-0.08707065
85	0xbd8f6419	-0.07001514
86	0xbdd210de	-0.102571234
87	0xbde6c626	-0.112682626
88	0xbbb6852c	-0.0055700745
89	0x3c784db4	0.015155245
90	0xbd909610	-0.07059872
91	0xbd542e9b	-0.05180226
92	0x3dc69d4b	0.0969797
93	0x3d41b7b9	0.047294352
94	0xbe8776aa	-0.2645772
95	0xbdfd745a	-0.12375708
96	0xbe0705f6	-0.13185868
97	0xbddb3fa0	-0.10705495
98	0xbe4f4358	-0.20240533
99	0x3ce495d2	0.027903471
100	0xbe01a861	-0.12661888
101	0x3cc44d9a	0.023962785
102	0x3e1fea74	0.1561678
103	0x3d887bff	0.066642754
104	0x3e8aa17e	0.27076334
105	0xbdcc5c87	-0.09978586
106	0x3d8611de	0.06546377
107	0xbe542a7c	-0.20719332
108	0x3cfb5f5f	0.030685125
109	0xbeb79fea	-0.35864192
110	0xbd0df4d3	-0.03465731
111	0xbd71d3dc	-0.059039935
112	0xbb5e2aa0	-0.0033899918
113	0x3cc0a9fd	0.023518557
114	0xbce9130c	-0.028451465
115	0xb98414ea	-0.00025192584
116	0xbb91e436	-0.0044522537
117	0xbe017ccf	-0.12645267
118	0x3e3ba62b	0.18325107
119	0xbc77894d	-0.015108419
120	0x3e37ca02	0.17948154
121	0x3dfe1219	0.124057956
122	0xbd24be8c	-0.040220782
123	0x3d5ef288	0.054430515
124	0x3c42ea5b	0.011896695
125	0x3d55584b	0.052086156
126	0x3ce68594	0.028139867
127	0xbdad4ccb	-0.08461913
128	0xbb49e063	-0.003080391
129	0xbe814e8f	-0.25255248
130	0xbe1226dd	-0.14272638
131	0xbce3ba41	-0.027798774
132	0x3c51bbee	0.012801154
133	0x3d87def9	0.066343255
134	0xbdb371c8	-0.087619364
135	0xbe0d25c2	-0.13783935
136	0x3e46063f	0.1933832
137	0xbcfc7f91	-0.030822547
138	0xbd05d635	-0.032674987
139	0x3dcac9eb	0.09901794
140	0x3e1ab0f8	0.1510657
141	0x3e9fd8c8	0.31220078
142	0xbbe2ba38	-0.0069191717
143	0xbdf6e567	-0.12055474
144	0xbd50142d	-0.05080049
145	0x3c01da75	0.007925619
146	0x3d86571c	0.065595835
147	0x3e8e577d	0.27801123
148	0xbd5ac571	-0.05341095
149	0xbb42881a	-0.0029683174
150	0x3d8881da	0.06665392
151	0xbe43f058	-0.19134653
152	0x3d364195	0.044496138
153	0xbcaab3e7	-0.020837737
154	0xbe1b950e	-0.15193579
155	0x3dabd2da	0.08389826
156	0x3d10f252	0.035387345
157	0xbc8e601f	-0.017379818
158	0x3e25ba1f	0.16184281
159	0xbc99ef2b	-0.018790802
160	0xbe2f64d2	-0.17128304
161	0xbd9b0023	-0.075683855
162	0x3d42f603	0.047597896
163	0xbb1cfa71	-0.0023952986
164	0xbc4c6dc3	-0.012477341
165	0x3d523178	0.05131671
166	0xbdafb1a8	-0.08578807
167	0x3da419fe	0.0801277
168	0x3d917fa9	0.07104427
169	0xbdda7cba	-0.10668321
170	0xbc9cb28b	-0.019128105
171	0x3da49922	0.0803702
172	0xbe4918fb	-0.19638436
173	0x3c76fd01	0.015074969
174	0xbdcc1d09	-0.099664755
175	0x3d2f3f70	0.042785108
176	0x3db580ca	0.08862455
177	0x3d2be32f	0.041964706
178	0x3e2787b7	0.16360365
179	0x3cf13e0a	0.029448528
180	0xbe1a1bd6	-0.15049681
181	0xbd9efe1b	-0.077633105
182	0xbd65ed46	-0.056134485
183	0xbe2487c1	-0.16067411
184	0x3d626fae	0.055282287
185	0xbdafa683	-0.085766815
186	0xbd922e46	-0.07137732
187	0xbcd41c55	-0.025892416
188	0x3d19171e	0.037375562
189	0xbdea4855	-0.114395775
190	0x3d99a5a3	0.07502296
191	0xbd8b53da	-0.06803103
192	0xbd8713e4	-0.06595591
193	0x3e199a47	0.15000258
194	0xbda1531e	-0.078771815
195	0xbf44eef8	-0.7692714
196	0x3d6cb7b8	0.057792395
197	0xbe0b494f	-0.13602184
198	0x3e93bcec	0.28855073
199	0xbc3e352a	-0.011609355
200	0xbe39aed4	-0.18133098
201	0xbe81045a	-0.25198632
202	0xbe09db53	-0.13462572
203	0xbe5536f1	-0.2082174
204	0x3e9fba60	0.3119688
205	0x3de2782e	0.11058079
206	0x3d2693fc	0.040668473
207	0xbcb020f1	-0.021500083
208	0xbd31c06b	-0.043396395
209	0xbdc33962	-0.09532429
210	0x3da8f879	0.082505174
211	0xb98f584a	-0.00027340866
212	0x3d4bd2a0	0.049761415
213	0xbe056fc9	-0.13030924
214	0xbd93e94d	-0.07222233
215	0x3d884140	0.066530704
216	0x3dbb63ce	0.091498956
217	0x3deedb3d	0.1166291
218	0x3e810d1d	0.25205317
219	0x3e8eafd5	0.27868524
220	0x3dd42cec	0.10360131
221	0x3c8a2166	0.016861629
222	0x3dc8f5c4	0.09812501
223	0x3df2c6fd	0.1185436
224	0x3d03a6b9	0.03214142
225	0xbded4a44	-0.11586431
226	0x3d26db78	0.040736645
227	0xbda3f269	-0.080052204
228	0x3c097104	0.008388761
229	0xbd983989	-0.07432849
230	0x3d590b75	0.052989442
231	0x3c90f51a	0.017694999
232	0x3d953a06	0.07286458
233	0xbbc042ea	-0.005867352
234	0xbd946686	-0.07246117
235	0xbdfeb9fb	-0.12437817
236	0xbd25e4b2	-0.040501304
237	0x3d92dd19	0.07171077
238	0x3dd71cf2	0.10503568
239	0x3b3670a2	0.002783813
240	0xbe2af2c3	-0.16694169
241	0x3d5c2b77	0.05375239
242	0x3e3d64f0	0.18495536
243	0xbde4ee6d	-0.111782886
244	0xbabda6fd	-0.0014469322
245	0x3d6bda1e	0.05758106
246	0x3da94bc0	0.08266401
247	0xbe1fc967	-0.15604173
248	0x3d47c5f6	0.048772775
249	0xbd102f3e	-0.035201304
250	0x3d1b7d6c	0.03796141
251	0x3d926b18	0.07149333
252	0xbdaf4d0f	-0.0855962
253	0xbe16201c	-0.14660686
254	0xbd0120db	-0.031525474
255	0x3d95a2f1	0.07306469

encoder.net.8.bias f4 [64]
0	0xbe39ae01	-0.18132783
1	0xbd8c02f5	-0.068365015
2	0xbdc4c537	-0.09607928
3	0x3dbf44ce	0.09339295
4	0xbcfba7b4	-0.030719616
5	0x3d86ce00	0.0658226
6	0x3ae00309	0.0017090748
7	0xbea7b3a0	-0.3275423
8	0x3dcf2296	0.101140186
9	0xbd62add5	-0.05534156
10	0xbc6d13b9	-0.014470034
11	0x3d33f95f	0.04393899
12	0xbcd533ec	-0.026025735
13	0x3c37dffc	0.011222836
14	0x3c94c427	0.018159939
15	0xba437b2a	-0.00074570125
16	0x3db956e3	0.090497755
17	0xbd6409b6	-0.055673324
18	0xbd808fb2	-0.06277408
19	0xbcd4e8d7	-0.025989933
20	0xbdcba50b	-0.09943589
21	0xbd905f2f	-0.07049405
22	0xbd9d01f7	-0.076663904
23	0x3d991113	0.0747396
24	0xbcf5fe37	-0.030028446
25	0xbebbc172	-0.36671025
26	0x3d137e29	0.036008988
27	0xbf23846a	-0.6387392
28	0xbcc5a233	-0.024125194
29	0xbb093e08	-0.0020941515
30	0x3b95e16c	0.0045739915
31	0xbed7f28c	-0.42177236
32	0xbc5174fa	-0.012784237
33	0xbe85de96	-0.26146382
34	0xbdaf2b1a	-0.08553143
35	0xbb952c88	-0.0045524277
36	0x3d195431	0.037433807
37	0xbe474f94	-0.1946395
38	0xbd893e36	-0.06701319
39	0xbc84c031	-0.016204925
40	0xbd272a52	-0.040811844
41	0x3c3122c2	0.01081151
42	0xbdb9b7cd	-0.0906826
43	0xbd8cda8c	-0.06877622
44	0xbdbf983a	-0.09355207
45	0xbeb65fd6	-0.35619992
46	0xbe972cf0	-0.29526472
47	0xbee14b87	-0.44002935
48	0xbccb30ac	-0.024803482
49	0xbc57ec9b	-0.01317897
50	0xbe4bafe6	-0.19891319
51	0xbe7f0fc3	-0.24908356
52	0xbcde4c57	-0.027136011
53	0x3c9acaa7	0.01889546
54	0xbc1ab470	-0.009442434
55	0xbe32b3ce	-0.17451403
56	0xbe0fb578	-0.14034069
57	0xb890b63f	-6.900401e-05
58	0xbbc1faaf	-0.0059197764
59	0xbc82741c	-0.015924506
60	0xbe5fc03b	-0.21850674
61	0xbd328564	-0.043584242
62	0xbdae5580	-0.085124016
63	0xbc862118	-0.016373202

encoder.net.11.weight f4 [4, 1024]
0	0x3bf77673	0.007551962
1	0x3b47aa40	0.0030466467
2	0x3c1fbfec	0.009750348
3	0xbc06741b	-0.008206393
4	0xbd04e8e0	-0.03244865
5	0x3c8ced15	0.017202893
6	0x393afa2c	0.00017831539
7	0xbb317976	-0.0027080453
8	0x3c114bbd	0.008868155
9	0xbcc213b1	-0.02369103
10	0x3de0de6b	0.10979923
11	0x3c3c73b1	0.011502192
12	0x3ccd9feb	0.025100669
13	0xbbd4c8a8	-0.0064936467
14	0x3b111cf5	0.0022142504
15	0xbc27f170	-0.010250434
16	0xbbc1a575	-0.0059096166
17	0x3b2807f0	0.0025639497
18	0xbb0337b0	-0.0020022206
19	0x3a135d4e	0.00056215085
20	0xbaf8a5e1	-0.0018970334
21	0x3c5d946d	0.013524157
22	0xbca0cec9	-0.019629853
23	0x3b87f56b	0.004149129
24	0x3c37fb01	0.011229278
25	0xbc42794a	-0.011869738
26	0x3d2420af	0.040070232
27	0x3b5f3fa1	0.0034065025
28	0xbb55915d	-0.0032587864
29	0x3a95d642	0.0011431652
30	0x3c75df24	0.015006814
31	0xbcc3a356	-0.023881596
32	0x3b1df203	0.002410055
33	0xbb757c73	-0.003745821
34	0xbb8303a1	-0.0039982353
35	0x3a3288ec	0.0006810564
36	0xbbfb933c	-0.007677464
37	0xbc6e38f0	-0.014539942
38	0x3c076722	0.008264335
39	0x3ab94afa	0.0014136725
40	0xbc6919d3	-0.014227348
41	0xbbb373c0	-0.005476445
42	0x3ddda699	0.108227916
43	0xbcc23f0e	-0.023711707
44	0x3c0e59ac	0.008688372
45	0x3c817e10	0.015807182
46	0x3bc7630f	0.0060848068
47	0xbc17e1d5	-0.009270151
48	0xbcf3ba78	-0.029752001
49	0x3ce2b615	0.027674714
50	0x3c1ccf63	0.009570929
51	0xbc2ab29a	-0.0104185585
52	0xbbc4f8b8	-0.006011095
53	0x3d0e833a	0.034793116
54	0x3cb4ecce	0.022085574
55	0x3ad36afc	0.0016129906
56	0x3c771ef9	0.015083068
57	0x3d976495	0.073922314
58	0x3c459cae	0.012061281
59	0x3c81b293	0.015832221
60	0x3d51b3f5	0.05119701
61	0x3c71ec9e	0.014765887
62	0xbd5944ef	-0.053044256
63	0xbda35743	-0.07975628
64	0x3c64622b	0.013939421
65	0xbbf41392	-0.007448622
66	0x3b0cee35	0.0021504287
67	0xbaeba8a8	-0.0017979341
68	0xbb835d89	-0.004008953
69	0xbc828b4f	-0.015935568
70	0x3a271368	0.0006373436
71	0xba30fb03	-0.0006751271
72	0xba8a2ca6	-0.0010541871
73	0xbc82d4fb	-0.015970698
74	0xbd80ca58	-0.06288594
75	0xbb97280b	-0.004612928
76	0x3c982ba0	0.01857549
77	0x3c6ccc20	0.014452964
78	0x3c2f08b8	0.010683231
79	0xbcef1c82	-0.029188398
80	0x3b5227bb	0.0032067138
81	0xbbc97a37	-0.0061486023
82	0x3b719d85	0.003686757
83	0x3c538f35	0.012912561
84	0xbdaf14f3	-0.085489176
85	0xbbfadfb3	-0.0076560616
86	0xbcc2e804	-0.023792274
87	0x3bc2c48c	0.0059438404
88	0x3a94804c	0.0011329739
89	0xbc0d843b	-0.008637483
90	0xbd10dd96	-0.03536757
91	0x3ab21ea8	0.0013589459
92	0xbcfd5edb	-0.03092902
93	0x3c643823	0.0139294
94	0xbdab5a5a	-0.083668426
95	0x3d3531e9	0.04423705
96	0xbbf1369a	-0.0073612453
97	0x3c2612cc	0.010136317
98	0x3a75c032	0.00093746476
99	0xbb620007	-0.003448488
100	0x3aeb4f64	0.0017952737
101	0xbb525975	-0.0032096778
102	0xbaf49d71	-0.0018662644
103	0x3abfe32d	0.0014639847
104	0xbb9b4cbf	-0.0047393735
105	0x3a94494e	0.001131335
106	0x3d8b8f71	0.06814469
107	0x3aeea7dd	0.0018207986
108	0xba57bcc3	-0.0008229727
109	0xbb838dc5	-0.004014703
110	0xbb54cca9	-0.003247062
111	0x3b0f4757	0.002186259
112	0x3c958341	0.018251063
113	0x3c78ae30	0.015178248
114	0x3a3b7393	0.0007150706
115	0x3ce8ea2c	0.028431974
116	0x3d352c3b	0.044231635
117	0x3bf37094	0.007429192
118	0x3d208dba	0.03919766
119	0xbcc003e1	-0.02343935
120	0x3cfe397a	0.031033266
121	0x3c8e3bcf	0.017362503
122	0xbc8af28d	-0.01696136
123	0xbcf4f465	-0.029901693
124	0x3d14eafc	0.03635691
125	0x3dc387a2	0.09547354
126	0xbd3fb1c7	-0.0468004
127	0x3d36031f	0.04443657
128	0x3c6e06fe	0.014528034
129	0xbbaab872	-0.005209976
130	0xbb89cf16	-0.004205595
131	0x3b917852	0.004439392
132	0x3bb7a16f	0.005603961
133	0xbc2d1ba8	-0.010565676
134	0xbc00ce19	-0.0078616375
135	0xbada3d59	-0.0016650363
136	0x3c8a3cf9	0.016874777
137	0xbd1416a6	-0.03615441
138	0xbec24220	-0.37941074
139	0xbc5edcc3	-0.013602438
140	0x3cc15193	0.023598468
141	0x3a9cabff	0.0011953114
142	0xbb69732e	-0.003562163
143	0xbb9b85ba	-0.004746166
144	0xbc2a2c12	-0.010386484
145	0x3bc0066b	0.00586014
146	0xbc0d4c43	-0.008624139
147	0x3c9f1187	0.019417537
148	0x3a153d9f	0.0005693081
149	0x3a365040	0.0006954707
150	0x3cb88015	0.022522012
151	0xbc3800c5	-0.011230652
152	0x3bf57805	0.007491114
153	0xbb0c3408	-0.0021393318
154	0x3cedd1a8	0.029030636
155	0x3ac94bfa	0.0015357726
156	0x3a4fef7a	0.0007932108
157	0xbab0366c	-0.0013443953
158	0xbafa3066	-0.001908791
159	0x3b98ed2d	0.0046669454
160	0x3adb1142	0.0016713517
161	0x3c416803	0.0118045835
162	0xbc1a0471	-0.009400473
163	0xbb615ae2	-0.0034386446
164	0xbbba96c9	-0.0056942445
165	0xbb86ec78	-0.0041175447
166	0x3cd84fc8	0.02640523
167	0xbc143d93	-0.009047884
168	0x3c1d7e66	0.009612655
169	0x3bcd166e	0.0062587773
170	0xbd10c8ca	-0.035347737
171	0xbac7c29e	-0.0015240496
172	0x3ab91e9d	0.0014123503
173	0xbb0a4e6e	-0.0021103877
174	0xbc4c04d9	-0.012452328
175	0x3b33f0c8	0.002745675
176	0x3c7a5927	0.015280045
177	0xbbf6a0a0	-0.007526472
178	0x3afcf366	0.0019298613
179	0xbaf428b2	-0.0018627851
180	0xbcedd425	-0.029031822
181	0x3a278583	0.0006390439
182	0x3a3aeac8	0.0007130322
183	0x3c802444	0.015642293
184	0x3a856f12	0.0010180196
185	0x3c0d012b	0.0086062355
186	0x3d9922cc	0.0747734
187	0x3b165208	0.0022937078
188	0x3c42e89d	0.01189628
189	0xbc9bf899	-0.019039439
190	0xbb2b8222	-0.0026170094
191	0xbc26c869	-0.010179617
192	0xbb9d00e5	-0.0047913664
193	0xbb9d9b98	-0.004809808
194	0x3c3b5676	0.011434188
195	0xbbbe701f	-0.0058117057
196	0x3c732f9f	0.014842897
197	0xbb788a5b	-0.0037924263
198	0x3a2fc8b3	0.0006705627
199	0x3c0f61e4	0.008751366
200	0xbcc19271	-0.023629399
201	0x3ba29836	0.0049619926
202	0x3dca4bdd	0.09877751
203	0x3bf78be9	0.0075545204
204	0x3c091596	0.008366963
205	0xbb9ff2b6	-0.0048812283
206	0xbac4795d	-0.0014989782
207	0x3b400a75	0.0029303108
208	0xbb433e12	-0.0029791635
209	0xbb1a98ae	-0.002358954
210	0xba8c6bc2	-0.0010713267
211	0x3b12991d	0.0022369095
212	0x3b824123	0.00397505
213	0xbadf6866	-0.0017044663
214	0xbba4e5a9	-0.0050322604
215	0x3ae318a8	0.0017326074
216	0x3b46b1f0	0.0030318461
217	0x3b499ec0	0.0030764788
218	0x380f33df	3.4142166e-05
219	0xbbd892da	-0.006609303
220	0xba314163	-0.00067617575
221	0x3aeb80f4	0.0017967508
222	0x3b2201b2	0.0024720249
223	0xbaa31d55	-0.0012444655
224	0xbb190209	-0.002334716
225	0xbbafb7f4	-0.005362505
226	0x3aa76185	0.0012770152
227	0xbc2f907a	-0.010715598
228	0x3bce02c7	0.006286952
229	0xbc268ecf	-0.010165884
230	0xbbf81eff	-0.0075720544
231	0x3c291b17	0.0103214
232	0xbb424a89	-0.0029646477
233	0x3ba60cea	0.0050674574
234	0x3bbc3ce7	0.005744565
235	0xbb17a8e4	-0.0023141438
236	0x3c01c123	0.007919583
237	0xbc1c100b	-0.009525309
238	0x3d6df64e	0.058096223
239	0x3a9eacd9	0.0012105956
240	0xba3bd9a7	-0.00071659166
241	0xbaf4af94	-0.0018668049
242	0x3aae2ba3	0.0013288151
243	0xba6b25d8	-0.0008970178
244	0xba9d6837	-0.0012009208
245	0x3b2cb4ec	0.0026352955
246	0x3a5d8a15	0.0008451057
247	0xbb48c64d	-0.0030635775
248	0xbb8edabe	-0.004359572
249	0x3a8ac0c3	0.0010586012
250	0xba43c441	-0.0007467904
251	0x39908bd5	0.00027570003
252	0x3b0f5978	0.0021873396
253	0x3b39c782	0.0028347676
254	0xbaf4c2aa	-0.0018673737
255	0xbb31d2a4	-0.0027133608

encoder.net.11.bias f4 [4]
0	0xbd8c6d33	-0.068567656
1	0x3d83280b	0.06404122
2	0xbe4deb6c	-0.20109338
3	0xbe55346d	-0.2082078
