assignment3/part1/VAE_zdim2_logs/lightning_logs/version_8950489/checkpoints/epoch=78-step=33338.ckpt (torch, 871118 bytes, 24 tensors)

encoder.net.0.weight f4 [32, 1, 3, 3]
00000000: b126 053e ec9a c73d 3f05 21be ae98 703e
00000010: 0348 56bd 6fce 013e b9dd 44be 65c4 0a3e
00000020: debf 2c3e 5a59 81be d23a 6b3e d403 523e
00000030: 20f8 3a3e 4b9a 873d 38e5 633e e8be a93d
00000040: 48c6 8f3e b8b7 273d 7d6c f9bb cb8b cd3d
00000050: e7f2 3fbd 431b 0c3d 0b9a c7bd 07d9 b03d
00000060: f9c5 92bc 03be 413d 857e 06bd f7d4 49be
00000070: d68c 76bd 06a1 b2be cda7 b73e b1e2 84be
00000080: 83f9 853e 039d b53d a4b1 65bd a361 7e3e
00000090: 8706 b13d 0280 973e af6b 063e 9f3c a5bd
000000a0: 2dce 0c3e a188 c7bc 6f5d dd3d 3d86 973e
000000b0: 99f3 3c3e b240 7abd 3184 173e f93d c8bd
000000c0: e7ff ee3c fbc7 85be 3289 e7be 374c 21be
000000d0: 134e 9fbe 78dc 9e3d d35b 9e3d 17b1 4a3e
000000e0: 1bf2 3b3e ec6f 9a3d 6288 a43e 895e 16be
000000f0: 1cfb 5cbd 9b91 abbe 9412 29bd 1551 0dbe
00000100: e48b 0d3e 7059 82bd 679c a13e 0654 4abe
00000110: 90ed 94be cbf6 86be c990 9b3e 2eef 453d
00000120: 5927 4a3e 483b 96be 207d 9ebe a2f1 b0be
00000130: e8a3 87be a397 c43d 2a85 1e3e fbc3 983e
00000140: 2b51 edbd 46fb 55be 1d10 7e3e bce7 10be
00000150: 6f58 3e3e 1c98 c8bd 1ae5 0f3e 8879 b5bd
00000160: 0b06 edbd 34ce 593d 772e a03d 7e10 dfbd
00000170: 6822 bf3d 0ecb 9d3e 3446 9fbe 121f 4ebe
00000180: 135c c83e 8e06 06be 971b a6bd 0937 6abe
00000190: 8b8d 3dbe ab42 903d fdc1 c0bd 8ca3 8abe
000001a0: 2d36 96bd 5826 03be 6fc8 41be b257 f8bd
000001b0: f1b8 d9bd 2c54 0fbe aa10 673e f4f1 db3d
000001c0: 81b5 053e a393 96be 1748 29bd 9e33 0bbd
000001d0: d45c 903d 20f6 d5bd f175 81bd 7c2d 3bbe
000001e0: 91a0 c03d ed2d 3bbd e63e d6bc 82a3 cabb
000001f0: eace 74bd f18d abbd 4e23 e1bd ccb5 8ebe
00000200: d9b4 c43e 8c70 7bbe 1087 513e 10b2 5e3e
00000210: 2c1d 92be 7235 723e 439a 67bd b59a 0cbe
00000220: 98b9 95be 1192 b1be 8350 e83d 18dd e7bd
00000230: 644d 0b3d 93d6 34be 41f5 893e 65c5 6cbe
00000240: f243 183d d96e 703e fc3f 673e c0c1 8a3e
00000250: b809 ab3e e5be 9fbe 57c8 b63e 0c5e 47bc
00000260: 8b82 eebd 9694 66be 03c9 803e f747 9ebe
00000270: cc14 bd3d cf99 1f3e c062 9b3d 65ee 16be
00000280: b459 803e 21ae ec3d 9369 e83d 2207 84be
00000290: bd0f 193e 5f95 133b 7cd8 39be d5a2 823e
000002a0: c88e 1f3e 7496 72bd 75d5 01be d79f 02bd
000002b0: 1952 203e aadc 01bd d316 31be 9d20 89bd
000002c0: 49fc ecbd 5b70 fa3c 2b78 713e 8d15 23be
000002d0: 8214 d43d 6c56 e73d dfad 853e 1e9c bbbd
000002e0: fd8e 843e c073 673e 25cc 963e eee6 973c
000002f0: 2201 35be a914 f03c b422 38be a2ce 7bbe
00000300: 1b18 223e 03e6 ca3e 3cc1 c0bc e633 14be
00000310: d682 7e3d 64c1 37ba 3079 333d 9b3a 943c
00000320: 6035 70be 21e0 2fbe d772 533e ca9f 523e
00000330: 3829 b83d cf38 09be 6c57 adbd 82eb 22be
00000340: b36b 68bd 9c9c 073e b0d0 413e 0d0f d83d
00000350: a99d 91be 9fad 71bd 7403 9fbd 06cc 1d3e
00000360: 7fb3 933c 27c7 ff3b cfb2 563e 442f 4ebe
00000370: 7f17 30be 18ec 473e d91c 58be 254c 1dbe
00000380: cb2a b5be e79b 073e cd96 3c3e b6cf f33d
00000390: 3f68 86be ed05 d6be b395 93be 0bbe 483e
000003a0: 13dd a73d 3857 903e 1f7d 0e3d bfbe 103d
000003b0: de90 293b 9bd5 22be 67bf 2ebd e5d3 8dbd
000003c0: fe5c ba3d bd27 64bd 5518 e23c d420 1dbc
000003d0: cfd5 543c 25bc 13bd 3018 0dbe 798a 143e
000003e0: 15f0 1ebb 5cc5 0e3e 45a8 86bd 29df a2bc
000003f0: e4c7 463d 2de6 68be 4e62 e6bd 3046 65be
0.13003041 0.09746346 -0.15724657 0.23495743 -0.05231477 0.12676404 -0.19225205 0.13551481
0.16870067 -0.25263482 0.22971657 0.20509273 0.18258715 0.06621226 0.22255409 0.082883656
0.28080964 0.040946692 -0.0076118098 0.10036429 -0.04686251 0.034205686 -0.09746178 0.08635145
-0.017916666 0.04730035 -0.032835502 -0.19710146 -0.060192905 -0.34888476 0.3587021 -0.25954202
0.26166925 0.08867838 -0.056077614 0.24841933 0.08643823 0.2958985 0.13127016 -0.08068203
0.13750525 -0.024357142 0.10808837 0.29594603 0.184523 -0.061096855 0.14796521 -0.09777445
0.029174758 -0.26129135 -0.4522186 -0.1575173 -0.31114253 0.07756895 0.07732358 0.19794117
0.18354075 0.07540879 0.32135302 -0.146845 -0.053950414 -0.33509526 -0.041277483 -0.13800462
0.13822895 -0.06364715 0.31564638 -0.19758615 -0.29087496 -0.26360163 0.303839 0.048323803
0.19741572 -0.29342103 -0.30954838 -0.3455935 -0.26492238 0.09599235 0.15480486 0.2983702
-0.11587747 -0.20896634 0.24810834 -0.141509 0.18588422 -0.097946376 0.14052239 -0.08861071
-0.11573418 0.053175166 0.078213625 -0.108918175 0.09332734 0.3081898 -0.31108248 -0.2012904
0.39132747 -0.13088438 -0.08110731 -0.22872557 -0.18511026 0.07043966 -0.09412 -0.270779
-0.07334552 -0.12807596 -0.18924116 -0.121261016 -0.10630978 -0.13996953 0.2256495 0.10739508
0.1305752 -0.29409513 -0.041328516 -0.033984773 0.070489556 -0.10447335 -0.06321324 -0.1827907
0.094056256 -0.045698095 -0.02615304 -0.0061840424 -0.05976764 -0.083766825 -0.10993062 -0.27873075
0.38419226 -0.24554652 0.20461679 0.21747613 -0.2853788 0.236532 -0.0565436 -0.13730891
-0.2924316 -0.34681752 0.113434814 -0.11321467 0.034009352 -0.17659979 0.26944926 -0.23122175
0.037174173 0.23479785 0.22583002 0.27100945 0.33405852 -0.31200328 0.35699722 -0.012168419
-0.11645993 -0.22517619 0.2515336 -0.3091428 0.09232482 0.15586017 0.075871944 -0.14739378
0.25068438 0.1155665 0.11348262 -0.25786692 0.1494741 0.0022519452 -0.18148988 0.25514856
0.1558181 -0.059225515 -0.12679084 -0.031890716 0.15656318 -0.031704582 -0.17293863 -0.066956736
-0.11571557 0.030571153 0.23580997 -0.1592619 0.10355474 0.112957805 0.26109216 -0.09160636
0.2589034 0.22602749 0.29452625 0.018542733 -0.17676213 0.029306727 -0.17981988 -0.24590543
0.15829508 0.3962861 -0.023529641 -0.14472923 0.062136494 -0.00070097134 0.043816745 0.018094352
-0.23457861 -0.17175342 0.20649277 0.20568767 0.08992237 -0.13400577 -0.0846394 -0.15910152
-0.056743335 0.13243335 0.18927264 0.10549746 -0.28440598 -0.05900347 -0.077643305 0.1540986
0.018029926 0.007805723 0.20966648 -0.20135218 -0.17196463 0.19523656 -0.21104755 -0.15361078
-0.3538421 0.13243066 0.18416901 0.11904852 -0.26251408 -0.41801396 -0.2882515 0.19603746
0.081964634 0.28191543 0.034787294 0.03533816 0.00258737 -0.15901797 -0.042663004 -0.06925181
0.09099768 -0.05570196 0.027599493 -0.009590346 0.012990429 -0.0360681 -0.13778758 0.14505948
-0.0024251987 0.13942474 -0.065750636 -0.019881802 0.048530474 -0.22744055 -0.11249219 -0.22390056

encoder.net.0.bias f4 [32]
00000000: 69a3 d53e be27 95be 162d a2bc f160 42be
00000010: 80f3 1ebf 5b0a 06bf 1360 c23d ccd5 23be
00000020: d426 cdbe f9a1 f4bd ac84 05bd 958a c9be
00000030: 8049 81bc 9508 a0be 0c95 0abe a0c8 d3be
00000040: 380a 28bf 48f6 153e 6cbf c5bd 6a2a e2bd
00000050: 92c4 0ebf e3c2 d7bd 4a12 7fbd 0ca8 bcbc
00000060: 05e6 fbbe 1837 07be 65d9 ae3a 8fe1 12bb
00000070: c2cd 4ebb c936 3abd 893a e8bd 8df4 f1bc
0.41726235 -0.29131883 -0.01979689 -0.18982293 -0.620903 -0.5235955 0.09490981 -0.15999526
-0.40068686 -0.11944956 -0.03259723 -0.39363542 -0.015782118 -0.31256548 -0.1353342 -0.41364002
-0.6564059 0.1464473 -0.096556515 -0.11043246 -0.5576869 -0.105352186 -0.0622733 -0.02302935
-0.49198928 -0.1320461 0.0013339935 -0.0022412275 -0.0031555747 -0.045462403 -0.1133929 -0.029535556

encoder.net.2.weight f4 [32, 32, 3, 3]
00000000: 3842 9e3d 2cb9 6dbd b5e9 81bc 2ba8 a73d
00000010: b5ef 0bbe 4f4c 52be 9437 6dbe 1476 05bf
00000020: 298e 8cbe 5a78 ac3d 2825 92bd 2102 a33d
00000030: b14b 4ebe 9c24 e7bd 5329 c0be 304e 04be
00000040: b437 c2bc f62e d3bd 5110 693b 6784 863d
00000050: 5f09 cdbd 06c3 413d 7944 e03c b3ff 123d
00000060: 4675 15bc 11a2 813c 59cf 0e3e 63bd 6d3d
00000070: f273 743d 8dba b8be e338 833e 6040 283e
00000080: 7b74 f8bd e77d b13e 4df8 b5bd 3f11 e73d
00000090: 9812 933d 92da 55be b8d3 df3c 37ed 613d
000000a0: 9a5f 88bd b677 80be 3a38 d63c 5a9e 133e
000000b0: 53ed b03d ed7b 92be 75ce 07be 8310 04be
000000c0: 95bc 3ebe bbe6 cd3d c14a 3f3e 7b3a 4c3e
000000d0: 36de 263e 6934 bd3d 2beb 283e 7804 b4bc
000000e0: f2f2 093d 7ac8 233e f939 bf3d 7673 fe3d
000000f0: 0663 503c b752 0abe b5e9 babe 628d cb3d
00000100: 5857 8d3d 0d6a 8e3d 3159 b03d 466a 5b3d
00000110: 6d6e 133d 1209 38bd 775f 3bbd 290a 81bd
00000120: cd6f 92bc a615 463c ed6d 7cbe 6409 1fbe
00000130: 057b 7d3d 2ce9 413d 365d aabd 9830 173c
00000140: f35a 613e 7539 63bc 39a6 ac3c cda2 e3bc
00000150: 9e54 bb3d 3d7d 8e3d 5cb6 9f3b 5b66 0bbe
00000160: 7af5 cfbc 1917 693e c44c 963d ed98 183d
00000170: 363e bfbd 336e b43d 0844 6a3a 2fe2 20be
00000180: fb7b 923b c7fe 31be 8719 ccbe 2f76 ecbe
00000190: 3155 0abe b684 5fbd 55fd 15be d41b de3c
000001a0: d1e4 b93d 728f 2c3d b47a b73d 065c 9d3d
000001b0: 45b4 38be 8deb e6bc 7b12 0d3e 4f25 f8bc
000001c0: ab05 0ebc 2ec5 d53d 1668 89be 06b3 a13d
000001d0: bc91 a5bc 5b64 babe 95f9 d8bd 49e9 94bd
000001e0: 7e5b 6abd b710 823d 3247 593d bdc0 153e
000001f0: 6aa0 3c3e e659 e83d 3a43 9cbe da50 c6bb
00000200: 75fb e13c fc11 98be 6c52 11be d0ce 84be
00000210: 7ee9 04bf a90d 5dbe 1cac 43bd cf81 12bf
00000220: 3683 0cbe b8cd aabd 3988 a6bd 4250 65bd
00000230: 07f2 07bc da35 053e 88fa 463e 7f38 193e
00000240: 2c21 423d 40a4 13be 3017 1b3d f1bf 13be
00000250: 6b0b 3dbe 7d7d 95bd e865 17be 6de7 b8bd
00000260: 25f7 ad3d 82f5 c63d eff8 9bbd 3780 6cbd
00000270: 36cf 033c b9a9 b2bd fdb2 a3be a250 79be
00000280: 203c abbe fb6b 81be d258 f7bc 0740 083e
00000290: a0df bebc c89f debd 912b bbbc 53cf 2abe
000002a0: 835d 883d 56c2 e23d 7699 b73d e7a3 a03c
000002b0: d6af e03b 0068 c53d 8a35 38bd 76d8 ae3d
000002c0: 7937 213e 0990 4f3c 6432 e7bd a93d 13be
000002d0: cb6d 51bd 8532 12be e07d 373e b352 90bd
000002e0: 6d3b 4dbc 8774 83be 0de4 3bbc a977 f43d
000002f0: eba7 bc3c 5352 f83d c915 043d 4ce1 11bc
00000300: 3ce8 a23e ff26 7b3d 7431 78bd 487a 4bbe
00000310: a3d1 6abc 453a ffbd 004e 3bbd 44c8 233c
00000320: 4bac d1bd 66b7 cf3d a2af e73c 6746 e63d
00000330: edf7 ab3c fe5a 09bd a84c bfbc dac8 c8bd
00000340: 5f97 13be 076e d1bd 5d3e dfbc e518 4a3d
00000350: 6544 403d 9c3c 70be ca43 e13d 8dfb 163c
00000360: f72f 90be 069d c4bc 6b60 0a3d 5042 563e
00000370: a9be 853d e9dc f83d ba03 283d a131 ef3d
00000380: 1e18 033e 333d 583c 925b 57bc 5cda 6cbd
00000390: cb2d 843e 59f6 553e 243b cd3d 2db2 803d
000003a0: d341 3cbe c4d1 95be ec36 25bd 0fa3 8fbd
000003b0: ff13 8ebd 75bf bcbc 0ffc c83c a4df ef3d
000003c0: f7d3 5e3d 820c 16bd d9a3 03be ba51 44be
000003d0: e431 00bc e92a 9a3c 9028 f3bd 08e6 d2bc
000003e0: 057e d4bc 683d 93bd b358 843d 955a d7b8
000003f0: 673e e8bd c6b2 b1bd fc2c 1ebe 93b6 91bd
0.07727474 -0.05803792 -0.01585851 0.08186372 -0.1366566 -0.20536922 -0.23165733 -0.521333
-0.2745221 0.08421393 -0.07135993 0.079593904 -0.20146061 -0.112862796 -0.37531528 -0.12920451
-0.023708202 -0.103116915 0.0035562704 0.065682225 -0.10011553 0.04730513 0.0273764 0.035888385
-0.009122198 0.01582435 0.13946284 0.05804194 0.059680887 -0.36079827 0.2562934 0.16430807
-0.12131592 0.34666368 -0.0888525 0.11282586 0.07181281 -0.20884159 0.027322635 0.055157866
-0.066588596 -0.25091332 0.026149858 0.14415875 0.08639016 -0.28610173 -0.13262351 -0.12896924
-0.18626626 0.10053774 0.1868086 0.19944184 0.16295704 0.09238512 0.1649596 -0.021974787
0.033678956 0.15994444 0.09337229 0.12424366 0.0127189215 -0.13508116 -0.3650643 0.09939076
0.06901425 0.06953821 0.08610762 0.053568147 0.035993982 -0.044930525 -0.04574534 -0.06300766
-0.017875576 0.012090122 -0.24651308 -0.15530926 0.0618849 0.04734151 -0.0831856 0.009227894
0.2200735 -0.013868679 0.021075355 -0.02778759 0.09146999 0.06957481 0.004874034 -0.13613264
-0.025385607 0.22762717 0.07338861 0.037255216 -0.09338038 0.08810081 0.0008936529 -0.15711282
0.004470346 -0.17382346 -0.39863226 -0.46183917 -0.1350906 -0.054569922 -0.1464742 0.027112879
0.090768464 0.042128988 0.08958951 0.07683568 -0.18037517 -0.028188491 0.13776581 -0.030291228
-0.008668344 0.10438 -0.26837224 0.07895474 -0.020211093 -0.3640469 -0.10594479 -0.07271058
-0.05721616 0.06350844 0.053046413 0.14624305 0.18420568 0.11345272 -0.3052004 -0.0060521187
0.027585724 -0.2970122 -0.14191598 -0.25939035 -0.5191878 -0.21587242 -0.04777156 -0.5722932
-0.13721928 -0.08340019 -0.08131451 -0.055984743 -0.00829745 0.13008824 0.19431508 0.14962958
0.047394916 -0.14418125 0.03786391 -0.14428689 -0.18461387 -0.072993256 -0.14784968 -0.09028516
0.08494405 0.09714796 -0.0761584 -0.057739463 0.008045008 -0.08723778 -0.31972495 -0.24347165
-0.3344431 -0.25277695 -0.03019372 0.13305674 -0.023299992 -0.108703196 -0.022847923 -0.1668065
0.06658461 0.11072223 0.08964817 0.019609405 0.006856899 0.09638977 -0.044972934 0.085373804
0.15743817 0.012668618 -0.11288908 -0.1437899 -0.051130097 -0.14277084 0.17919111 -0.070470236
-0.012526375 -0.2567484 -0.011467946 0.11936886 0.023029288 0.12125077 0.03224734 -0.008903813
0.31817806 0.061316486 -0.060594037 -0.19870865 -0.014332208 -0.12462286 -0.045728683 0.0099964775
-0.102379404 0.10142402 0.02828199 0.11243897 0.020992244 -0.033534043 -0.023351982 -0.098039344
-0.14413212 -0.10226064 -0.027251417 0.049340148 0.046940226 -0.2346062 0.10999258 0.009215248
-0.28161594 -0.024000656 0.033783358 0.20923734 0.06530506 0.1215151 0.04101918 0.11679388
0.12802169 0.013198185 -0.013144391 -0.05782543 0.25816187 0.20894755 0.10021046 0.06283984
-0.18384485 -0.292616 -0.04033558 -0.07013523 -0.06937408 -0.023040513 0.024534253 0.11712578
0.054401364 -0.036633022 -0.12855472 -0.19171801 -0.007824395 0.01881929 -0.11872971 -0.025744453
-0.025938997 -0.07189447 0.064622305 -0.00010268871 -0.11340027 -0.086766765 -0.15446848 -0.071149014

encoder.net.2.bias f4 [32]
00000000: b494 38bd d38f e3bd fb66 d8bd dfbd 25bd
00000010: aafd 14bd 6d1f 87be 9b7c babd 8f14 c9bd
00000020: a995 32be 91e9 57be 747d 94bd 64b2 d9bd
00000030: e760 1ebe a8e3 d6bc 0c24 c6bd b61a 95bd
00000040: b3ba 73be 7236 f3bc 8478 14be ba5d fcbd
00000050: f2b8 c2bd bab3 04be 42db 73bd 16f0 cebd
00000060: 8bd0 bfbd 558e d7bd 9ed4 f03c c42b f3bd
00000070: 8921 0fbe 62b2 54bd 33ec 9fbd 5b5e eebd
-0.04506369 -0.11111417 -0.10566517 -0.04046428 -0.036374725 -0.26391163 -0.09105798 -0.09818374
-0.17439903 -0.21085192 -0.07250491 -0.106297284 -0.15466653 -0.026231602 -0.09674844 -0.07280485
-0.23801689 -0.029689047 -0.14499098 -0.123225644 -0.09507932 -0.12959185 -0.059535272 -0.101043865
-0.09365948 -0.105251946 0.029398259 -0.11873582 -0.13977636 -0.05192793 -0.07808723 -0.116390906

encoder.net.4.weight f4 [64, 32, 3, 3]
00000000: 2d42 febb b1e3 e93d 0971 103e e77f 39be
00000010: 64bf 30bc 110f 98bd dd2b 31be 297d a5bd
00000020: d56b 4bbe 996f 1d3d a910 1d3d 0e7c 09be
00000030: 3d84 94bc 33b6 07be 1ba1 83be 9402 973c
00000040: d50d a13c b6f8 dabd 86b1 f23d bd8b a03d
00000050: 98c5 013e d9e6 d13d bc2f d63d c5c0 f93d
00000060: 960c b83d 579d 53be ce17 d3bd e53a 42bc
00000070: ebfe 213d 3182 923e c15a 563e 34fa 4fbd
00000080: afa4 06bd 1c75 4fbe a619 d63c b148 723c
00000090: b06a 283c 4252 4bbe a46a a73d a404 2c3e
000000a0: c80d 31bd b930 503d f376 79be e68b 243e
000000b0: d5f1 083e 6c9b 663d 9b42 e63d 898a 7a3e
000000c0: 0957 8f3d 6a33 613e d259 b8bd a696 f8bb
000000d0: b91f 18be 5292 153e cec5 373d d551 943d
000000e0: 63a9 a6be fcd5 b4bd 7c99 35be 3b69 d6be
000000f0: 91e2 8c3c 6b91 b0be 0d9c a8be 7022 3abe
00000100: 039f 9dbd 9fe9 4f3d c00f 09bd e702 11be
00000110: 5601 a1bd cf1c acbc 651e 92bd bd1f 30bd
00000120: ce8d 253d 00f0 8d3d ca7d a53e 1def 0a3e
00000130: 04d0 463d 0c43 663d ebb7 84be cade 85be
00000140: 2f4e 783d 70c6 93bd 6089 663d 3819 fb3d
00000150: 841d f03d 711c 993d c2f5 7fbd 2398 a13d
00000160: 6d53 9e3d 33f7 0fbe 56e1 8d3d c7e6 85be
00000170: 83c6 b63d 5b34 5fbd e2b2 25be ceb7 143e
00000180: 97a2 47be 73af 5fbd 3475 8b3d 15ba 973e
00000190: dc2e d6bd bd67 ba3d 3e37 32bd 2a10 19be
000001a0: a958 d2bc 1146 08be 1ff7 85bd 03ea 50be
000001b0: 4d02 c1bb 0817 11bb fc46 263e 1a61 00be
000001c0: 7489 ab3c cacb 2dbd 72b8 273e a49c 583d
000001d0: 348b 983d f48a fabe 5723 adbe 8a7d 833c
000001e0: a9e3 4bbd 5741 d8bc 2df9 153e f0d1 313e
000001f0: f592 cf3d 4f46 7d3e 54bc cd3d 1885 6f3d
00000200: f5ad 0ebe 4877 7e3d 1041 f53d cc6a 93be
00000210: 9237 343d 320c ad3d 3df1 79bd e9bf 94bd
00000220: 36e3 bd3d 5cc3 fcbd 8c38 103d 07a6 a7ba
00000230: 4d3c 27be cda7 5e3d d663 053e 631d 123e
00000240: 350c 373e 4933 5cbd 3949 7e3d 85fe 463d
00000250: 50b0 403e 4a37 48be dc87 d8bd 5db6 963d
00000260: 7f17 28be f038 c5bd ea0b 103e c73f 3bbe
00000270: e9a6 6f3d 1bb1 bfbc da5e 32be 7cee 503b
00000280: e6c8 50bd 3fe5 1abe acc4 553d b07a b83d
00000290: 31f2 2fbe 2e2b ab3d aa66 64be 3349 14be
000002a0: 11af ac3c 084b 8dbe 3e46 253d cc1d 163c
000002b0: f6f3 dcbd 3e9c a2bd ef08 f63d f2d4 55bd
000002c0: c9c3 96bd 8062 433e eed7 df3d 3472 153e
000002d0: 475c b23b 659d 2f3d 4a0a 06be 2295 da3d
000002e0: 72e6 583e b646 44bc 87eb 3d3d 0581 dd3d
000002f0: b276 84bd 14e7 e23d d79f 523a c224 4f3d
00000300: 9c04 663c 26fb 1cbe b310 8d3d e633 dd3d
00000310: 463e 623e 8ffc c03c 8e36 ad3d 0266 0fbd
00000320: 3956 2fbc 0ce1 953d 2892 01bd cbf3 e53d
00000330: 7990 473c df17 00bc b456 29be 6aee 733d
00000340: c981 a9bd ef63 d73d fd80 9b3d 57d5 c93c
00000350: a35d 04be b70b b9bc 5a48 e0bb 7eab dfbd
00000360: 3813 d9be 9f55 60be e2a7 3e3c d59b 20be
00000370: 113e 70bd ae2a a03d e575 c1bd 6988 253d
00000380: 0e59 8fbc ce1e 28be 3c30 4a3e 8397 e8bc
00000390: 6bae 383e 0b88 e73d 2950 91bd d1d3 87bc
000003a0: c0de 2f3e 1afe 06be 5490 913d e2f0 1bbd
000003b0: 2bfe a63c 774b 043e 0bea eebb e4b2 5abd
000003c0: 74a1 49be 4527 66be cc5d edbc 0524 ec3d
000003d0: d03c 99bd 1a22 acbc a15e 6a3e 7585 fa3c
000003e0: cdf5 c83d 5c54 b6bd c488 803d 2d6c a53d
000003f0: adde 653d 8bea efbd 60a0 79bd 2677 cc3b
-0.0077593536 0.11420382 0.1410562 -0.18115197 -0.010787819 -0.07424749 -0.17301889 -0.08080513
-0.19865353 0.038436506 0.038345966 -0.1342623 -0.018129462 -0.13253097 -0.2570885 0.018433847
0.019659916 -0.10691969 0.11850266 0.07839153 0.12673032 0.10249109 0.10458323 0.12194971
0.089867756 -0.20665489 -0.10307275 -0.011854862 0.03954975 0.28614953 0.20933057 -0.05077572
-0.0328719 -0.20259517 0.026135277 0.014787839 0.0102793425 -0.19855598 0.08174637 0.16798645
-0.043226033 0.050827716 -0.24361782 0.16068992 0.13373502 0.056300566 0.11243173 0.2446691
0.069990225 0.21992269 -0.09001507 -0.007586318 -0.14855851 0.14606598 0.044866376 0.07242171
-0.32551107 -0.08829877 -0.17734331 -0.4187716 0.017197879 -0.34485945 -0.32931557 -0.181772
-0.07696345 0.050759908 -0.033462286 -0.14161263 -0.07861583 -0.02100983 -0.071347035 -0.042999018
0.04041844 0.06930542 0.32322532 0.13567777 0.048538223 0.056216285 -0.25921568 -0.26146537
0.060621437 -0.07215583 0.056283355 0.122606695 0.1172438 0.07476128 -0.062490232 0.07890346
0.07730756 -0.14059143 0.06927745 -0.26152632 0.08924582 -0.05449329 -0.1618152 0.14523241
-0.19495617 -0.05461068 0.06809464 0.29634157 -0.104581565 0.09101818 -0.043509714 -0.14947572
-0.025677042 -0.13307978 -0.06541275 -0.20401768 -0.005890167 -0.0022138972 0.16238016 -0.12537041
0.020939566 -0.042430677 0.16378954 0.05288376 0.07448426 -0.48934138 -0.33816025 0.016051073
-0.04977766 -0.026398344 0.14645834 0.17365241 0.10135452 0.24733852 0.10045686 0.058476537
-0.13933547 0.062125474 0.119753 -0.28792417 0.04399831 0.08449592 -0.06102108 -0.072631665
0.09271853 -0.12341949 0.035210177 -0.0012790569 -0.16331597 0.054359246 0.13026366 0.14269023
0.1787575 -0.053759847 0.06208155 0.048582572 0.18817258 -0.19552341 -0.10572788 0.07359002
-0.16415213 -0.096300006 0.14067045 -0.18286048 0.058508787 -0.02339988 -0.17418995 0.003188043
-0.05097284 -0.15126513 0.052189514 0.09007776 -0.17182232 0.08357845 -0.22304788 -0.14481048
0.021079572 -0.27596307 0.04035019 0.009162378 -0.10788719 -0.07939957 0.12013423 -0.052205034
-0.07361562 0.19080544 0.10929857 0.14594346 0.005443129 0.042874712 -0.13089862 0.10672976
0.21181658 -0.011979749 0.046367195 0.10815624 -0.06467952 0.11079231 0.0008034682 0.050572164
0.014039185 -0.1533018 0.06887951 0.108009145 0.22094068 0.02355793 0.08457671 -0.03500939
-0.010701709 0.07318315 -0.031633526 0.112281404 0.012180441 -0.007818191 -0.16536981 0.05955354
-0.08276708 0.10517108 0.07592962 0.024637861 -0.12926345 -0.022588594 -0.0068445625 -0.109213814
-0.42397475 -0.21907662 0.011636706 -0.15684445 -0.05865294 0.078206405 -0.09446315 0.040413294
-0.01749852 -0.16418001 0.19744962 -0.028392559 0.18035285 0.11305245 -0.070953675 -0.016580494
0.17174816 -0.1318287 0.071076065 -0.03807152 0.020384869 0.12919413 -0.0072910837 -0.05339326
-0.19690496 -0.22475918 -0.02897539 0.11530308 -0.07482302 -0.021012355 0.2288766 0.030581215
0.09812508 -0.08902809 0.06276086 0.080772735 0.056120563 -0.117146574 -0.06094396 0.0062397895

encoder.net.4.bias f4 [64]
00000000: aeec d8bd acdd babd cd67 ccbd c3cc 7cbd
00000010: eaed 303a 9a08 49be c757 01be ac23 04be
00000020: 8e4d 27be 6662 49be 968f 53be 7d88 00be
00000030: 98ac 09be af29 3abe 8a9b 39bd 07f6 c1bd
00000040: 4997 ebbd ecde ebbc c4c7 15be 2968 66be
00000050: c163 cfbd 64bc 51be 60a0 16be 4444 9ebd
00000060: 1826 36be c58f 07be cdd7 06be 71f8 12be
00000070: b31a 73bd 5bed 3ebe ad76 1dbe bc95 fa3d
00000080: 962f d7bd 02a5 debd 1590 92bd 3d96 97bc
00000090: 61c2 3ebe d7b2 04be 4ab0 71be 3965 c9bd
000000a0: ebba 09be d396 3cbe 8e8b 67be 7a87 e4bd
000000b0: f3ee 0d3d 2af9 e3bd dfc9 03be 805b 07bd
000000c0: 7a61 fa3c 5502 99bd 1a2c 19bd 4dd0 d5bb
000000d0: 3726 c8bd 0b7b b23d e450 17be 4591 ddbd
000000e0: 860b 2ebe 1a00 40be 7581 b5bd 5ba4 1cbe
000000f0: 1b5e 09be 30c2 64be ccde 07be 0126 c73c
-0.10592018 -0.09124312 -0.09980736 -0.061718713 0.0006749319 -0.19632187 -0.1263114 -0.12904233
-0.16338179 -0.19666442 -0.20660242 -0.12552066 -0.13444746 -0.18179964 -0.04531435 -0.09470754
-0.11503465 -0.02879282 -0.14626986 -0.22500671 -0.101264484 -0.20482022 -0.14709616 -0.077278644
-0.17787969 -0.13238437 -0.13168259 -0.14352585 -0.059351634 -0.18645231 -0.15377302 0.12235591
-0.10507123 -0.108713165 -0.07156388 -0.018504256 -0.18628837 -0.12958847 -0.23602405 -0.0983376
-0.1345021 -0.1841691 -0.2261183 -0.111586526 0.034651708 -0.11131509 -0.12869976 -0.033046246
0.030564059 -0.07471148 -0.037395574 -0.0065250755 -0.09772914 0.08714875 -0.14776951 -0.108187236
-0.16996583 -0.18750039 -0.088625826 -0.15297072 -0.13414805 -0.22339702 -0.13268584 0.024310114

encoder.net.6.weight f4 [64, 64, 3, 3]
00000000: 8363 1d3c 8ba3 e6bc ea2f e93d 065e e1bd
00000010: 009f 13be 077f da3d 29b3 2a3d ca6e e23d
00000020: 83b3 6d3e 0521 f8bd fa16 a73d 7dac 85bc
00000030: 7d3a 8c3d f358 053d 1646 b23d 55e5 113d
00000040: 7c73 50bd fff1 63bd 6f74 8c3b 9a43 9b3c
00000050: 5825 453c d033 2b3e 8c4b b6bc 9485 41bd
00000060: 555c 5d3e 2a39 01be 1774 813e 15cb c9bc
00000070: cf5a 793d 7a1e 193e 66e8 bfbd 4e5c a63d
00000080: 6ef9 263e 8ea2 01bd a343 1f3e 77ba 56be
00000090: 2868 90be 20be bdbd 4303 1fbe 7abe 293d
000000a0: baf5 a8bd 64e3 bfbd 8e23 a43c b203 d1be
000000b0: d5cf 6ebd 7604 edbc 4557 313d 461d 7ebc
000000c0: 57f6 1dbe b3a5 783d 4540 8c3c 5e4b 773d
000000d0: ef67 81bd 3f74 3cbe c4ac 0cbd 49f2 89bc
000000e0: 202c 09be 109a 02be 8bc7 1dbe 1245 65be
000000f0: 62b5 893d e91b 0dbe c506 bc3c ac0d 0dbe
00000100: 0286 d73d f8a1 543d 4280 9cbd 5316 0e3e
00000110: a45f e53d 2fff 3fbe ae95 9e3b 5f0b 99be
00000120: 677e e8bd 89a6 e33b df7d 99bd d62f 43be
00000130: b8ed d03c 8e98 eabc d6ea 043e 514a 35bb
00000140: 3ae9 8e3d 24c2 adba 82d2 3cbd 948f 4d3d
00000150: 7447 69be 9dce 55bc c62f b3bd bc41 323e
00000160: 6109 5ebd 3dd7 be3e ce49 a73d a5f0 a7bd
00000170: d934 66bc 86f2 a13d fce9 8dbc 6e86 743c
00000180: 0d80 b0be 1a1d 55bd e9c9 1f3e 373f cdbc
00000190: c0a4 d33d 450a d73c 3a9f d23d 481f 28be
000001a0: afda 40bd 29f9 2b3e 1f2a 03bd ac76 0cbc
000001b0: 871a b4bd a0a5 623c afff 22bd a27d 293e
000001c0: 6c5d ff3d 0964 12be 86af 4fbe bec5 643e
000001d0: be89 983c 3a3f 373d 60d9 00be 8b7a e1bd
000001e0: bf4b 653c 0545 4fbd 89d5 073c d611 c2be
000001f0: 154d 0a3e bbf2 fdbd cd0e d7bd 1d6d 173c
00000200: 1899 10bd 334e a63d d859 8a3d 0651 3bbe
00000210: cf66 98bd 8a28 79be b08c 9f3d 311e ecbc
00000220: 6ade dcbd 742d 9b3d bf9a 25be 7723 47bd
00000230: e220 87bd bef9 a7bd ef2a be3d 5607 fb3c
00000240: 0428 5e3d db5a 4f3e 79d1 b43d cbf0 b43d
00000250: 6d2d 823d 8ba1 083d 7626 12be daec 77bd
00000260: aed8 b7be 84da 1c3e d70c e3bc a212 05be
00000270: 592d a0be 70e8 a03c 300d 71bd cef4 753d
00000280: 7913 58bc e55f 23bd 43b2 c83d 9be7 7e3d
00000290: e7ec d4bd 59f7 8bbe 5bfb c43e c706 9a3c
000002a0: e11c f6bb 9a09 f73d e1a0 1cbe 4605 09be
000002b0: 5394 96bd b927 0bbe 818d 913d bf66 8abd
000002c0: 8f76 afbd 9ff1 413b 8738 a53a 925c 0dbe
000002d0: d1ce 0fbe ee74 7abe 8e27 63be e97a 783d
000002e0: 04e5 1139 1bbc 123e af50 e93d 56d4 67bd
000002f0: 2b1f 1e3d 0962 34bd 6c19 cfbd 5001 4fbc
00000300: 434b b83c 17cf 523d 972c 553e 0b95 d1bd
00000310: ad9d a73b 4389 6d3e 3576 2bbc 3934 92bc
00000320: 734a d03d 215f f03d fb81 103e 3eef e23d
00000330: 4bae 35bd fe62 83bd 26b9 8dbe cf5c 1dbd
00000340: 9c1b b3bd 2277 4dbd 8596 633d 13b9 1f3d
00000350: bfb1 cf3d 35b0 bf3c 6a92 05be 16dc aabd
00000360: cb59 92bd dd5f d83d f488 cebd 4d30 2c3d
00000370: 4b88 d6bd c2df aebc 59bf 84be 147b 9abc
00000380: 5fdd 4fbd dddb 123e 1817 36be 7944 1abe
00000390: 74f3 49bc 8aeb 113e aa3a a53d ef90 c8bc
000003a0: 97c9 19be f1cb 76bd efa7 7d3d 9a35 fabd
000003b0: da83 063e d61c 163d 673a bd3d 0278 56be
000003c0: 18af 1a3e d2af 29bd a8c3 cb3d ad82 453e
000003d0: ad1c 433e 051b 843e 9dfa 31be 9d8c 5e3d
000003e0: fa57 8c3e 318e ae3d d5d6 8abe 3272 023e
000003f0: e5e1 02be 0d57 513d 9c91 4bbc 5918 883d
0.009606245 -0.028154155 0.11386092 -0.11004262 -0.14416122 0.1066876 0.041674767 0.110562876
0.2321301 -0.12115673 0.08158679 -0.0163176 0.06847093 0.03255553 0.08704774 0.0356191
-0.050891384 -0.055650707 0.004286341 0.018953133 0.012032829 0.16718984 -0.02225282 -0.04724653
0.21617253 -0.12619463 0.25283882 -0.02463297 0.060877617 0.14953032 -0.09370498 0.081230745
0.16306087 -0.031649165 0.15553145 -0.20969568 -0.28204465 -0.09264779 -0.15528588 0.04144142
-0.082499936 -0.09369543 0.020036485 -0.40823132 -0.058303673 -0.028932791 0.043296117 -0.015509909
-0.15426002 0.060704898 0.01712049 0.06037461 -0.06318652 -0.1840372 -0.03434445 -0.016839163
-0.13395739 -0.12754083 -0.15408151 -0.2238963 0.06724049 -0.13780178 0.022952447 -0.13774747
0.10523607 0.051912278 -0.07641651 0.13875704 0.111998826 -0.18749689 0.0048396206 -0.29891488
-0.11352234 0.006947343 -0.07494711 -0.19061217 0.025503978 -0.028637197 0.12980208 -0.0027662704
0.06978078 -0.0013256711 -0.046099193 0.050185755 -0.22781163 -0.013049749 -0.087493464 0.17407888
-0.054208163 0.3727359 0.08168374 -0.08200196 -0.014050686 0.07907586 -0.017323487 0.014924629
-0.34472695 -0.052029707 0.15604366 -0.025054557 0.10334158 0.026250014 0.10284276 -0.16418183
-0.047083553 0.16794266 -0.03202259 -0.008573215 -0.08794122 0.013833433 -0.03979462 0.16551831
0.12468991 -0.14295973 -0.202818 0.22341058 0.018620368 0.044738032 -0.12582922 -0.11009701
0.01399511 -0.05060293 0.008290657 -0.37904233 0.13505967 -0.12399813 -0.1050087 0.009242323
-0.03530225 0.08120384 0.067554176 -0.18292627 -0.07441484 -0.2433187 0.07790506 -0.02882299
-0.107846096 0.07577029 -0.16172312 -0.048617806 -0.06598069 -0.082019314 0.09285533 0.030643146
0.05423738 0.20249502 0.08829016 0.0883499 0.063563205 0.033357184 -0.14272484 -0.060528614
-0.359075 0.15317732 -0.027716083 -0.12995389 -0.31284598 0.019642085 -0.058850467 0.060047917
-0.013188236 -0.039886374 0.09799626 0.062232595 -0.10396748 -0.2733715 0.3847302 0.01880206
-0.007510767 0.12062378 -0.15295745 -0.13380918 -0.07352509 -0.13589372 0.07107068 -0.067578785
-0.08567535 0.002959348 0.0012605347 -0.13804844 -0.14043738 -0.24458668 -0.22183058 0.06066409
0.00013913593 0.14329569 0.11392342 -0.056598984 0.038603943 -0.044038806 -0.10112271 -0.01263459
0.022496825 0.051467028 0.20817791 -0.10233506 0.005115232 0.23196892 -0.0104651945 -0.017847167
0.1017045 0.117368944 0.14112084 0.11080788 -0.04435567 -0.06415366 -0.2768032 -0.038418587
-0.087455004 -0.050162442 0.05556347 0.03899486 0.10141324 0.023399452 -0.13044134 -0.08342759
-0.07146033 0.105651595 -0.100847155 0.04203825 -0.104752146 -0.02134693 -0.25927237 -0.018857516
-0.050748225 0.14341684 -0.17782247 -0.15065183 -0.01232611 0.14250007 0.0806783 -0.024483172
-0.15018307 -0.060253087 0.061927732 -0.12217255 0.13136235 0.036648594 0.09239655 -0.20944217
0.15105855 -0.04142744 0.09949428 0.1928813 0.19053908 0.25801864 -0.17380758 0.054333318
0.2741087 0.085232146 -0.2711703 0.12738875 -0.12781484 0.05110841 -0.012424853 0.06645269

encoder.net.6.bias f4 [64]
00000000: b9a1 59be d1cd 1ebe bc82 a2bd 3358 dabd
00000010: cdb0 dabd c41a 26be df33 35be 6b5e 8dbe
00000020: 1d1a 01bc c139 48be 6145 a9be f418 76be
00000030: 4702 63bd 96ce 9abe 7abd 9fbe 0a1d 63be
00000040: 0cd1 16be 6eb1 5dbd eb5e 06be b8d7 4cbe
00000050: e64a a3bd 306d 8dbe 573d 0dbe 883a 973c
00000060: da6a 46be 165b 6ebd 2f2d 39be c49a 34bc
00000070: 51ce 84be cd33 01be 819a 19be 1dc3 98be
00000080: 4428 42bd dea0 8dbd d99d 12be 0e1a 90be
00000090: 76a6 15bd a7ba d0bc fe35 20be 0e83 bebd
000000a0: 1b0d 63be d61d 46bd 8fa5 2abe c6c4 81bd
000000b0: 02ac 5a3c d58d 57be 0730 0dbe 4dd3 bebd
000000c0: a112 e7bd 1763 b1be 987e 44be 4ca2 3bbc
000000d0: a9ba 4dbe 5f18 42be 7bf5 97be 38ae fdbd
000000e0: 99b3 e0bd a962 aabe ed22 afbe ad59 47be
000000f0: 779c 8dbe c943 8fbe 337e 78be 8985 e4bc
-0.21253099 -0.155082 -0.07935092 -0.10661354 -0.10678253 -0.16221148 -0.17695569 -0.27611098
-0.007879761 -0.19553281 -0.33060744 -0.24032956 -0.055422094 -0.30235738 -0.31199247 -0.22179046
-0.14728183 -0.05412429 -0.13122146 -0.20004165 -0.0797327 -0.27622366 -0.1379293 0.018460527
-0.19376698 -0.058192335 -0.18083642 -0.011023227 -0.25938657 -0.12617417 -0.15000345 -0.2983636
-0.04740168 -0.069154486 -0.14318027 -0.28144878 -0.036535703 -0.025479628 -0.15645596 -0.093023404
-0.22172968 -0.048368298 -0.16664718 -0.0633636 0.013346674 -0.21050198 -0.13787852 -0.09317646
-0.1128285 -0.34645912 -0.19188917 -0.011452269 -0.20090736 -0.1895461 -0.29679474 -0.12386745
-0.109717555 -0.33278397 -0.34206334 -0.19467802 -0.27658436 -0.27981403 -0.24266891 -0.027895706

encoder.net.8.weight f4 [64, 64, 3, 3]
00000000: b74b 13be c705 a43d b920 133e b512 13bd
00000010: 6c6d 6fbe 325b 52bc 697f 86be 1dad a6bd
00000020: 07c6 71be 3a12 05be ebff d5bd 07f0 eabc
00000030: 8ec7 103e 8819 bbbd 927b 873d 69a4 e1bd
00000040: ff2d 26bd 55c9 073e cb69 223b 8890 d6bd
00000050: 8bfc 30be 270f c8bd dd27 203e 790f 143d
00000060: 24d9 0bbd c8da 9ebd 5430 29bd 76d7 393d
00000070: 616b b43d 13f0 333d 7b8c 4dbd b475 3b3c
00000080: 36c3 943d 21ac adbe 31bb d4bc c3d6 82be
00000090: 45cf ec3d 3a65 1e3c 46d2 013d 6b2c 873d
000000a0: f2af 88bd 617e 933c aec3 ac3c 40b1 623c
000000b0: 0db5 82bd 7ef0 cf3c b4e9 3cbf d655 993e
000000c0: 3495 c0ba d7ea ffbd 4f02 a83d dcf6 043b
000000d0: 7b39 103e 18c8 44bd 4aa9 18be 493d efbd
000000e0: 1ae4 16bd 2b93 073d cbd6 9e3d f6ab adbc
000000f0: 98f3 0fbe bed1 ff3c 0b69 20be ecaa 5fbe
00000100: d04c 44be d4a7 dabd 434a b6bd 82aa 2dbd
00000110: 3dcb 25be bbdc b33e 8c47 103d a854 dbbd
00000120: ab52 c1bd fd17 533e b472 453d e9c8 983d
00000130: c85c ecbd abc6 143d b55c 4b3e fa5f 94be
00000140: 33d6 833d c1aa febe 3e31 7abe 7de5 62be
00000150: 5973 f8bb 3cd1 cebc 9e3a 853c 4935 3abe
00000160: 92e1 843b d81e 883c 7384 e13c bb83 b0bc
00000170: c8b5 82be 622f 3d3c 22ac febd e2b2 abbe
00000180: 8c2f ee3d 91ac 7ebd e12f debe 8648 1d3d
00000190: 6ac0 f0bc d9c1 313d a7c1 d93d eff0 fdbc
000001a0: f531 243e 6fe2 cbbd 4b43 1a3d 0039 46be
000001b0: b190 14bb 42d8 2cbe 3f94 10bc 2846 bebc
000001c0: 3ea9 bcbd 998b 8dbd 5205 edbc cd42 9dbd
000001d0: 21e1 e5bc 9b71 39be 15d7 a73d a233 f33d
000001e0: c08d b6bc e4da 643e 93df 26be 78ce 86bd
000001f0: df1f c63d b911 943d 6f17 33bd 2a7c 85bd
00000200: b3f5 28be 5d76 e4be 19ce 09be 9e06 2abe
00000210: 4d48 1bbd 7a92 133d 6a1e babc 8e85 f2bd
00000220: c5d1 bd3d aac8 abbc 7686 933d 97f6 e73d
00000230: b68b e53c 28ea 073e c15d a73c 4086 ad3d
00000240: 962f 4bbd 84a1 8fbd 32df 483d 72d0 903e
00000250: 723a 19be b38b b5bd 39c7 0bbd 8704 1abe
00000260: 8515 8fbd ae91 69bd 0aa7 0fbd efff 443e
00000270: 7b39 c7bd fcec fbbb 6524 203e 59b7 98bd
00000280: 7556 313c d50e e43d ce6f 96bd d86f f4bc
00000290: 80a1 14be fc49 4a3e 1988 ccbc 4ee5 a33e
000002a0: b9be 0cbe 8c8a 52bd 1701 f6bd ddca 2a3e
000002b0: c600 39bd 9927 46bc 2d5c e63c 45fb a83d
000002c0: a609 7f3a 79aa 863e 5c8c 76bd a1e7 3e3e
000002d0: e01d 31be 91f6 0d3d a493 cc3d 4863 8cbd
000002e0: 1949 c13c b6f1 553c dc29 a83d bd99 cb3c
000002f0: ad02 003d 144f 09be 611b 1b3d a32b eabc
00000300: f782 cabc dbee 333e c2fc 91bd 29ba 2cbf
00000310: fcd1 843d 8394 90bd 9507 7c3e ce45 54be
00000320: 7935 6fbe 1ead 12be 7a16 63be 21a8 adbe
00000330: ac31 8c3e 267b 273d e7cb 52bb cae7 1bbd
00000340: 66ff f7bd cc55 9e3d 93e6 0f3e 1b6d a639
00000350: ecc3 15be a1b0 273b 41f3 c6bc 542e 57bd
00000360: 003c 063e 650b c53d 48ce 193e 31d0 f7bb
00000370: da43 a03d 4a80 433d dde7 87bc e2d6 aa3d
00000380: 2b4e dbbc cc5f 403c 2e5d 89bd 6816 18be
00000390: 1fb0 b9bd 82da 1d3d 126e 89bc 078b 7d3c
000003a0: 4f96 eabc dbaa 40bd b00b edbc 266c 38be
000003b0: 1dec 1c3d 5f6b 0c3e 0bba 603d c3bb 0abd
000003c0: 194f e8bd 3c82 5ebd 5652 dd3d 40e1 7abe
000003d0: 0c1d d6bc 0799 72bd 7ecb 4b3c 49c1 b33d
000003e0: 4485 eb3c 21f8 a53d 26ad b2bc ef32 433b
000003f0: e710 81bd fea4 11be 59c8 abbc 9b41 973d
-0.14384352 0.080089144 0.14367951 -0.035906512 -0.23381585 -0.0128391255 -0.2626908 -0.081384875
-0.23610698 -0.12995234 -0.10449203 -0.028678907 0.14138624 -0.09135729 0.06615366 -0.11017687
-0.04057121 0.13260396 0.0024782296 -0.10476786 -0.17283837 -0.09768515 0.15640207 0.03614757
-0.03414263 -0.07756573 -0.041305855 0.045371495 0.088095434 0.043930124 -0.0501828 0.011441637
0.07263796 -0.33920386 -0.025968166 -0.25554475 0.11562971 0.009667689 0.031694673 0.06600269
-0.06674184 0.018004598 0.021089401 0.013836205 -0.06382189 0.02538323 -0.737941 0.299483
-0.0014692903 -0.12495964 0.08203565 0.0020288741 0.14084427 -0.048042387 -0.14908329 -0.11681611
-0.03683863 0.033099335 0.07755812 -0.021200161 -0.14057767 0.031227943 -0.1566507 -0.21842545
-0.19169927 -0.10676542 -0.08900883 -0.042398937 -0.1619081 0.3512934 0.035224482 -0.10709506
-0.09439596 0.2061462 0.048205093 0.074601956 -0.11541134 0.036322277 0.19859584 -0.28979474
0.0643734 -0.4973965 -0.24432847 -0.22157855 -0.00758211 -0.025246255 0.016263302 -0.18184389
0.0040552104 0.01661627 0.027528977 -0.021547189 -0.25529313 0.0115469415 -0.124351755 -0.33534914
0.116301626 -0.06217629 -0.43395904 0.038399242 -0.029388625 0.04339776 0.106326394 -0.030998675
0.16034682 -0.09955298 0.03766183 -0.19357681 -0.002266925 -0.16879371 -0.008824407 -0.023226812
-0.09211968 -0.06911392 -0.028933201 -0.07678757 -0.028061451 -0.18109743 0.081953205 0.118750826
-0.022284389 0.22349125 -0.16296224 -0.065823495 0.09674048 0.07229943 -0.04372352 -0.06517823
-0.16499977 -0.44621554 -0.13457526 -0.16604087 -0.03791075 0.036028363 -0.02271958 -0.1184188
0.09268526 -0.020969708 0.07203381 0.1132633 0.02802072 0.13272917 0.020430448 0.08472872
-0.04960593 -0.070132285 0.04904098 0.2828403 -0.14963701 -0.08864536 -0.03412554 -0.1504079
-0.069865264 -0.057023697 -0.03507141 0.19238256 -0.097277604 -0.007688163 0.15638883 -0.07456846
0.010823836 0.111356415 -0.07345544 -0.029838488 -0.14514732 0.19754785 -0.02496724 0.32010883
-0.1374463 -0.05140166 -0.120119266 0.16678949 -0.045166753 -0.012094402 0.028120125 0.08251051
0.0009728916 0.26301935 -0.06019245 0.18643047 -0.17296553 0.034658972 0.09989098 -0.06854874
0.023594426 0.013058117 0.08211109 0.024853582 0.03125255 -0.13409072 0.037867907 -0.02858526
-0.024720652 0.17571585 -0.07128288 -0.6747156 0.06485364 -0.07059576 0.24612267 -0.20729753
-0.23360242 -0.14323851 -0.22176543 -0.33917335 0.27381647 0.040888928 -0.0032164992 -0.03806285
-0.1210926 0.07731208 0.14052801 0.00031743277 -0.1462552 0.0025587457 -0.024285914 -0.052534416
0.13108826 0.09621314 0.15020096 -0.00756266 0.07825442 0.047729768 -0.016590053 0.08341767
-0.026770672 0.01174159 -0.06707226 -0.14852297 -0.090667956 0.038538463 -0.016776118 0.015475041
-0.028636126 -0.04703794 -0.028936237 -0.18010005 0.038311113 0.13712834 0.054864924 -0.03387047
-0.11343212 -0.05432342 0.1080672 -0.24499989 -0.026136898 -0.05922797 0.012438653 0.087771006
0.02875007 0.081039675 -0.02181108 0.0029784997 -0.06302052 -0.14223096 -0.020969557 0.0738556

encoder.net.8.bias f4 [64]
00000000: 15d5 28be dd00 2ebd fc31 9bbd 4575 0c3e
00000010: 2c71 34bb 3fae e73d 5fca 523c 8f57 a3be
00000020: 1cb2 393e b57f 32bd 8a60 16bd 9371 663d
00000030: 7cb2 dfbc 0402 ae3c 7d34 833c 86bb 97bb
00000040: 8387 d43d 6fb5 64bd 9c04 51bd 7843 d43c
00000050: 3de9 26be 97ef cbbd 1751 94bd 9af1 b13d
00000060: 9faa 11bc b6a5 d7be ff1c 963d 42b1 40bf
00000070: e07d bfbc 6005 a9bc 7a1b c7bc 7798 fcbe
00000080: 88e0 463d ff55 94be fa05 19be a86a bd3b
00000090: e982 523d 0d1a 66be c38e d3bc ee80 e3bc
000000a0: f399 30bd 35ff 0b3c a8dc 3fbd 538e 89bd
000000b0: 4ec6 babd d29d 8ebe 6537 c9be d758 febe
000000c0: f9a8 36bd 7d20 b63b 6d4d 62be 61e6 7cbe
000000d0: 1c64 35bc aadf 843d 5603 8ebc fa30 00be
000000e0: 59be 32be 3f34 a73b 25f2 7a3c d391 063c
000000f0: 7de2 84be 2190 cfbc 8183 8abd 476d 65bd
-0.16487534 -0.042481292 -0.07577893 0.1371661 -0.0027533276 0.11312532 0.012865632 -0.3190274
0.1813435 -0.043578822 -0.03671316 0.056260657 -0.027306788 0.021241195 0.01601624 -0.004630509
0.10377409 -0.05583709 -0.051029786 0.025911078 -0.16299911 -0.099578075 -0.07242029 0.0868866
-0.008890777 -0.42118615 0.07329749 -0.75270474 -0.023375452 -0.020632446 -0.024305094 -0.4933507
0.048553973 -0.2897186 -0.14943686 0.0057805367 0.051394377 -0.22470875 -0.02582491 -0.02777144
-0.043115567 0.008544733 -0.046841294 -0.06716599 -0.09119855 -0.27854782 -0.39300075 -0.49677154
-0.04459474 0.005558072 -0.22099848 -0.24697258 -0.011071231 0.06487973 -0.017335575 -0.12518683
-0.17455424 0.0051026638 0.015316521 0.008213478 -0.25954047 -0.02533728 -0.06763364 -0.056012418

encoder.net.11.weight f4 [4, 1024]
00000000: 3c0f 9cba 72ef 58bb be13 e83b 4cd8 23bc
00000010: 96ec 1cbc 921a 1e3c 605b 38bc 202d f43b
00000020: 1237 27bb 4e32 30bd de78 073e 0192 113b
00000030: 05f1 693b 0ddb 94bc 7cba c43c 5057 863b
00000040: ce6b a3bc 5fec 2bbb 860e 0c3c 214b 763a
00000050: bd92 963c 97d9 643c e382 8cbc 5797 2a3c
00000060: a81f 8b3b 22c0 5bbc 46ed 043d 1975 043b
00000070: 2213 4c3b a961 acbc 2f17 41bc 5ec9 02bc
00000080: 5f19 7fbc d96f 99b8 6cfd 983a b075 aebb
00000090: 0ab8 cf3b 5b4f 93b8 1954 a53c 9b56 baba
000000a0: 22e3 8bbb 7041 62bc 12b4 d33d e382 c7bc
000000b0: 1020 433b 2e2c b93b 4bcf 853b 1223 e13a
000000c0: b9fc c7bc b819 403c bb20 aebb 6fc2 1cbb
000000d0: 2a0b 62bc 2958 613d e1f1 0b3c 2731 44bc
000000e0: b04e e53c d688 663a ae75 203b f49a ae3c
000000f0: b4c2 a83c 2aae 473c c106 1cbd b473 6abd
00000100: d555 923c 8190 84bc 3a69 2abb 60bc 52ba
00000110: 1d2a 3f3c 1c82 edbc 3b72 44bb 418f 1cbc
00000120: b36f ab3c 0bad 31bc 1514 a8bd a87e dcbb
00000130: 2f1d 163c 134f 503c 5ea7 593c ed6e edbc
00000140: c3c2 1e3c 9d45 833c b91d 893a 8e71 3bba
00000150: 2c93 89bd ec2a 863a 622a f4bb 6fb6 d63c
00000160: d04b 32bc 955f bdbc d691 98bc 5c59 0a3c
00000170: ee21 0a3c 43e8 2e3c dd04 97bd 8c84 e63c
00000180: 74e3 b3bc dcfa 11ba 5262 f73a 3d85 e7bb
00000190: 1643 e33b 2b67 26ba 44ee 6b3b 2419 ccbb
000001a0: 0c24 603c 75ba dcbb 3931 963d bc50 ec3b
000001b0: 13ab 44bc 44c4 83bb 20e5 e9ba 1cf4 cdbb
000001c0: 3d77 b4bc 4498 c63c efef 61bb 4080 c33c
000001d0: 5f7a 453d f48c 35bc 91ed 6d3c f35b 8f3a
000001e0: 8964 e23c 833c 743d 1680 fa3d a362 70bc
000001f0: 47f9 383d cd2f c23d 3184 fcbc b295 183d
00000200: f608 653c 2cf1 223c cce0 e8bb d75b 643c
00000210: 974e 5c3b 828a 9cbc eae1 3abc 3d5c afbb
00000220: 1deb 883c 845e 15bd 4077 bcbe de13 3abb
00000230: 2d7b 663c 41ca 8fbb 7499 2eb8 998f 883b
00000240: 9786 a1bc 6fe7 343b e29d 463b 502e 28ba
00000250: 2528 8f3b f0ce 6a38 1adb bb3c 1075 ff3a
00000260: 4a44 f73b 283e 57ba 3a13 983c ee2a 163c
00000270: 57b7 83bc 9b8c 9b3b d741 483b 6914 aa3b
00000280: f034 08bc 3f44 d23b b61c c0ba 3296 8a3a
00000290: 11b9 2e3c 0948 c3b8 0c55 d93c 38e4 83bb
000002a0: 693a ee39 36f1 80bb f954 41bd 9aef 90bb
000002b0: e947 d8ba 8c19 993b bac8 c9bc a2c1 073c
000002c0: a968 fa3b 8ce7 3b3b b4d8 adbb 4da8 1e3b
000002d0: 9aa7 78bc 8aff 9639 a5da 513b 4c04 74bb
000002e0: eb9b bcbc 8e88 e73b 9d8f 453d ce03 f33b
000002f0: d980 8e3c 5bc7 bdbc 51b4 9139 c208 45bc
00000300: 22ac 393c e169 25bc 00cc 9a3a fb6c 0e3c
00000310: b17c 933c be2c 49bb c660 1d3b 03d5 cb3b
00000320: 4435 a0bc 29fa 313a 3d7d 0f3e ae6a 4b3b
00000330: da65 053c e397 043c a947 633b cd3a 98bb
00000340: 8982 5fb9 6b8a 9d3b 9f9e d83a a9ee 30bb
00000350: 9afb 8dbb ffd7 973b 3974 02bb 6c2d 0dbc
00000360: 720e 93bb 5f71 ce3a 8d06 473b 9252 963b
00000370: 994b 883a 2aa1 3cbb 0c08 5e3b 54a1 0bbb
00000380: 4896 84bb 303e c63b 9658 b638 cdb5 853c
00000390: 536c 77bc 221e 923c 4ef4 72bc 2997 ec3b
000003a0: 394d 653b c065 2a3c f24f 15bb 4113 60bc
000003b0: 0053 313a 60d4 e1ba ab66 253d 564a 493c
000003c0: f143 223b 409d cebb d4e3 953a a809 b23b
000003d0: daae edbb 0767 ddba 3df2 b73b c5aa 4c39
000003e0: fa20 013c 3335 e13a 45f7 193a 1205 0bbc
000003f0: 57dd 7d3a ea97 003b 7df4 003b 3f20 663b
-0.0011906396 -0.0033101705 0.0070824316 -0.0100003 -0.009577891 0.00964989 -0.011252254 0.0074516684
-0.0025515002 -0.043016724 0.13229701 0.002221227 0.0035696637 -0.018170858 0.024014704 0.004099764
-0.019948866 -0.0026233417 0.0085483845 0.00093953504 0.018380517 0.013967893 -0.017152255 0.010412059
0.004245717 -0.013412507 0.032452844 0.0020211397 0.0031139334 -0.021042662 -0.011785313 -0.00798258
-0.015570014 -7.316442e-05 0.0011672205 -0.005324088 0.006339078 -7.024287e-05 0.020181702 -0.0014216484
-0.0042690197 -0.013809547 0.1033708 -0.024354404 0.002977375 0.0056510186 0.004083549 0.001717659
-0.0244125 0.011724882 -0.0053139604 -0.0023919602 -0.013796607 0.055015717 0.008541555 -0.011974609
0.027991623 0.0008794194 0.0024484205 0.021314122 0.020600654 0.01218752 -0.03809238 -0.05723925
0.017863194 -0.016182186 -0.0026002661 -0.00080389343 0.011667755 -0.028992705 -0.0029975313 -0.009555639
0.020927286 -0.010844479 -0.08206955 -0.006728966 0.009162231 0.012714165 0.013284532 -0.028983558
0.0096899895 0.016024405 0.0010461129 -0.0007150405 -0.06717524 0.001023618 -0.0074513415 0.026210038
-0.010882333 -0.023116866 -0.018624227 0.0084441565 0.008430941 0.010675493 -0.073739745 0.028139375
-0.021959044 -0.0005568692 0.0018873906 -0.007065444 0.0069354875 -0.00063477707 0.0036000172 -0.006228583
0.013680469 -0.0067360946 0.07333607 0.0072117727 -0.012003678 -0.0040211994 -0.0017844774 -0.0062852036
-0.022029513 0.024242528 -0.0034475287 0.023864865 0.048212405 -0.011080969 0.014521972 0.0010937437
0.02763583 0.05962802 0.12231462 -0.014671954 0.045159604 0.094817735 -0.030824753 0.037252136
0.013979187 0.009945195 -0.007106876 0.013937912 0.003361618 -0.019109014 -0.011406401 -0.005351572
0.016713673 -0.03646709 -0.3680973 -0.002839319 0.014067453 -0.004388124 -4.1627747e-05 0.004167509
-0.019717498 0.0027603765 0.0030306508 -0.00064155925 0.0043687993 5.5982673e-05 0.022931624 0.0019489843
0.0075459825 -0.0008210861 0.018563855 0.009165509 -0.016078634 0.004746986 0.0030556822 0.0051904214
-0.0083134025 0.006416827 -0.0014656994 0.0010573326 0.01066424 -9.311742e-05 0.026529811 -0.0040250085
0.00045438416 -0.0039350046 -0.047200177 -0.004423094 -0.0016500923 0.004672235 -0.024631847 0.008285912
0.007641871 0.0028671948 -0.005305374 0.0024209202 -0.015176678 0.0002880062 0.0032021191 -0.0037234006
-0.023023566 0.007065839 0.048232663 0.007416225 0.017395424 -0.02316635 0.000277909 -0.012026014
0.011332544 -0.010096044 0.0011810064 0.008692975 0.018003793 -0.0030696834 0.002401398 0.0062204613
-0.019556649 0.0006789291 0.14012618 0.0031038928 0.008141959 0.008092853 0.0034680164 -0.0046456815
-0.00021315565 0.0048077605 0.0016526765 -0.0026997721 -0.0043329718 0.004633903 -0.00199057 -0.008616786
-0.004487806 0.001575034 0.0030368895 0.00458748 0.0010398506 -0.0028782585 0.0033879308 -0.0021305876
-0.0040462352 0.006049894 8.694937e-05 0.01632204 -0.01510151 0.017836634 -0.014828755 0.007220168
0.0034988655 0.010400236 -0.0022783247 -0.0136764655 0.0006764382 -0.001722943 0.040381115 0.0122857895
0.0024759735 -0.0063053668 0.0011435696 0.00543328 -0.00725351 -0.0016891666 0.005613594 0.00019518573
0.007881397 0.0017181992 0.0005873333 -0.008485096 0.0009684166 0.0019621798 0.0019676976 0.0035114435

encoder.net.11.bias f4 [4]
00000000: a530 8cbd 33f3 873d 4372 76be 0b56 82be
-0.06845216 0.066381834 -0.24067025 -0.2545627
