assignment3/part1/VAE_zdim2_logs/lightning_logs/version_8952119/checkpoints/epoch=75-step=32072.ckpt (torch, 871118 bytes, 24 tensors)

encoder.net.0.weight f4 [32, 1, 3, 3]
0.16895099 0.19256142 -0.18352193 0.24217723 -0.02146542 0.07558482 -0.23034154 0.12714331
0.19367945 -0.1923131 0.22409573 0.18132971 0.27066085 0.052370414 0.24586295 0.09431862
0.2586663 0.10440809 -0.028525332 0.11264918 -0.08119298 0.03867243 -0.11324663 0.10823364
-0.017224291 0.031383187 -0.033495493 -0.2050571 -0.029449306 -0.37391344 0.32515404 -0.23962116
0.29372337 0.029655077 -0.05729326 0.28731906 0.12504512 0.2903951 0.12401076 -0.032672726
0.13176696 -0.013607347 0.10055806 0.25481114 0.19473048 -0.09498505 0.16689338 -0.0893392
0.017567186 -0.31343275 -0.45000324 -0.08819509 -0.29936293 0.08222204 0.1816524 0.23342189
0.19677877 0.09531225 0.28946638 -0.19091706 -0.0666627 -0.32998642 -0.053825825 -0.15215592
0.14616022 -0.010370841 0.26932552 -0.14009807 -0.3108319 -0.28069136 0.3146618 0.04766192
0.29709816 -0.2630333 -0.32409263 -0.25451714 -0.27943274 0.07454165 0.1486997 0.25126192
-0.115348816 -0.24618143 0.27475268 -0.13184398 0.19868551 -0.09182133 0.15321128 -0.11051664
-0.15116581 0.06410346 0.036305282 -0.11281038 0.15437843 0.2783275 -0.30830172 -0.16564071
0.3639442 -0.101534784 -0.07137612 -0.2599481 -0.19325165 0.07826923 -0.11141708 -0.28778434
-0.039324977 -0.13919632 -0.1753112 -0.14616272 -0.04193122 -0.10052158 0.17928493 0.12815219
0.083888605 -0.20303755 -0.08255744 0.042367887 0.059248604 -0.12813306 -0.08463563 -0.18244833
0.09799596 -0.056835268 0.025095867 -0.046173327 -0.088743836 -0.0835765 -0.10887208 -0.29303747
0.3120971 -0.17002435 0.19574268 0.1520232 -0.29775488 0.1967961 -0.07974261 -0.13816027
-0.28936708 -0.32521725 0.093935795 -0.09388632 0.11423671 -0.23909777 0.26836932 -0.21495894
-0.025921386 0.16164914 0.32444152 0.22163883 0.31206182 -0.2523692 0.3511501 -0.01840259
-0.121139124 -0.24116889 0.2744207 -0.28903517 0.10348339 0.12113777 0.09667816 -0.20122379
0.1854514 0.13432841 0.0993358 -0.23070472 0.09664987 0.022971326 -0.09653045 0.22432186
0.07619489 -0.07860681 -0.11721232 -0.016893955 0.12863849 -0.02801539 -0.17643273 -0.10118535
-0.07242629 0.022164995 0.26757127 -0.17974892 0.17917083 0.074716195 0.26697356 -0.049054973
0.25553462 0.24895535 0.28162777 0.008640577 -0.08237094 0.04725746 -0.16757117 -0.25160217
0.1695908 0.42510387 -0.07867955 -0.15704346 0.0778193 0.058405634 0.103787616 0.040808354
-0.20061283 -0.13948044 0.17745206 0.17672321 0.081076935 -0.119765565 -0.022693982 -0.1338699
0.00037702033 0.13002403 0.21561988 0.10764014 -0.32033294 -0.09366115 -0.06367918 0.2139457
0.062013347 -0.01574804 0.21768597 -0.18602045 -0.20564285 0.17774256 -0.23732187 -0.15733296
-0.39789832 0.16264533 0.18970887 0.11529515 -0.27457348 -0.3679205 -0.2805153 0.2208175
0.09103079 0.3464901 0.0693837 0.08202501 0.02300552 -0.17660818 -0.12605046 -0.0960753
0.16071613 -0.037631802 0.05983976 0.01518247 -0.03312216 -0.02396228 -0.12320776 0.092421845
0.002835963 0.1295777 -0.079799496 0.0062974794 0.03387166 -0.24528246 -0.10023817 -0.28287375
00000000: 7d01 2d3e d22e 453e 2ced 3bbe 4ffd 773e
00000010: 40d8 afbc 37cc 9a3d a7de 6bbe db31 023e
00000020: e853 463e baed 44be 5a79 653e 7fae 393e
00000030: 0f94 8a3e 5c82 563d 7fc3 7b3e 1f2a c13d
00000040: e96f 843e e9d3 d53d f5ad e9bc 9db4 e63d
00000050: 8148 a6bd fb66 1e3d d9ed e7bd 99a9 dd3d
00000060: f519 8dbc a88b 003d 9232 09bd 7dfa 51be
00000070: ac3f f1bc 9571 bfbe 977a a63e 405f 75be
00000080: e962 963e 34ef f23c 56ac 6abd 7c1b 933e
00000090: d40b 003e abae 943e 5af9 fd3d d6d3 05bd
000000a0: ebed 063e 5af1 5ebc 62f1 cd3d 9b76 823e
000000b0: 6d67 473e 8687 c2bd 19e6 2a3e 78f7 b6bd
000000c0: 0fe9 8f3c 427a a0be d366 e6be a19f b4bd
000000d0: 1946 99be 0764 a83d 1603 3a3e 2606 6f3e
000000e0: 6080 493e 1233 c33d f034 943e c37f 43be
000000f0: 7486 88bd fbf3 a8be 7878 5cbd c3ce 1bbe
00000100: 06ab 153e 76ea 29bc 09e5 893e de75 0fbe
00000110: 5c25 9fbe c7b6 8fbe 5a1b a13e 2539 433d
00000120: 401d 983e 4dac 86be 78ef a5be 1250 82be
00000130: cf11 8fbe 4ba9 983d bc44 183e 67a5 803e
00000140: 003c ecbd fc16 7cbe 62ac 8c3e 1c02 07be
00000150: 3774 4b3e d20c bcbd 6be3 1c3e 8c56 e2bd
00000160: 36cb 1abe ad48 833d d9b4 143d 2109 e7bd
00000170: 6115 1e3e f180 8e3e b9d9 9dbe b89d 29be
00000180: e556 ba3e 78f1 cfbd a52d 92bd eb17 85be
00000190: c3e3 45be 9e4b a03d a32e e4bd 7858 93be
000001a0: 3a13 21bd 7b89 0ebe c784 33be aeab 15be
000001b0: 12c0 2bbd 42de cdbd 7896 373e 543a 033e
000001c0: cacd ab3d 13e9 4fbe e013 a9bd f389 2d3d
000001d0: aaae 723d 5035 03be 7255 adbd bcd3 3abe
000001e0: 1bb2 c83d 19cc 68bd d995 cd3c 3e20 3dbd
000001f0: 54bf b5bd 282a abbd 53f8 debd 0209 96be
00000200: 31cb 9f3e dd1a 2ebe c570 483e f8ab 1b3e
00000210: 5473 98be eb84 493e 1850 a3bd e379 0dbe
00000220: ec27 94be e082 a6be 6961 c03d 7947 c0bd
00000230: f0f4 e93d 0cd6 74be b467 893e 321e 5cbe
00000240: 1659 d4bc 5a87 253e 331d a63e 4af5 623e
00000250: 91c6 9f3e 8936 81be f2c9 b33e 07c1 96bc
00000260: ca17 f8bd faf4 76be df80 8c3e 6bfc 93be
00000270: 19ef d33d 1417 f83d 33ff c53d 9c0d 4ebe
00000280: f9e6 3d3e 638d 093e 9170 cb3d dc3d 6cbe
00000290: 5ef0 c53d 5d2e bc3c c2b1 c5bd a1b4 653e
000002a0: 110c 9c3d 9bfc a0bd 030d f0bd 3165 8abc
000002b0: cfb9 033e 8880 e5bc c8aa 34be 443a cfbd
000002c0: 3c54 94bd 5d93 b53c 1aff 883e 1a10 38be
000002d0: 8f78 373e ce04 993d c2b0 883e deed 48bd
000002e0: 6fd5 823e 27ee 7e3e 8431 903e 3591 0d3c
000002f0: 18b2 a8bd 0a91 413d c797 2bbe 00d2 80be
00000300: 36a9 2d3e 37a7 d93e be22 a1bd 00d0 20be
00000310: ba5f 9f3d bf3a 6f3d 9a8e d43d a926 273d
00000320: 736d 4dbe f6d3 0ebe feb5 353e eef6 343e
00000330: aa0b a63d a647 f5bd bbe8 b9bc 3115 09be
00000340: d0aa c539 0525 053e 75cb 5c3e 6f72 dc3d
00000350: ae02 a4be 6bd1 bfbd 3b6a 82bd 9514 5b3e
00000360: b501 7e3d 0902 81bc 12e9 5e3e 257c 3ebe
00000370: 0a94 52be 2502 363e 8104 73be e41b 21be
00000380: 54b9 cbbe 7f8c 263e 0b43 423e dd1f ec3d
00000390: e594 8cbe 1360 bcbe b49f 8fbe fc1d 623e
000003a0: 5a6e ba3d 2667 b13e 0b19 8e3d bafc a73d
000003b0: 1376 bc3c c6d8 34be 5f13 01be 20c3 c4bd
000003c0: c592 243e ce23 1abd 891a 753d e5bf 783c
000003d0: 1aab 07bd 8b4c c4bc 5a54 fcbd aa47 bd3d
000003e0: 90db 393b 04b0 043e eb6d a3bd 165b ce3b
000003f0: 02bd 0a3d 532b 7bbe ab49 cdbd d4d4 90be

encoder.net.0.bias f4 [32]
0.41842175 -0.27203077 -0.014668562 -0.18298857 -0.5813302 -0.5121372 0.13196158 -0.15751745
-0.3922993 -0.13721476 -0.061649412 -0.42279682 -0.024722544 -0.33146152 -0.13915624 -0.40808067
-0.6832367 0.1433629 -0.111597136 -0.111574344 -0.5263103 -0.103955284 -0.037804402 -0.049129896
-0.4737665 -0.109409146 0.009230723 -0.0013542386 0.016299875 -0.059548635 -0.09636165 -0.006944069
00000000: 603b d63e 9e47 8bbe 6954 70bc 5b61 3bbe
00000010: 0ed2 14bf 6c1b 03bf f020 073e 414c 21be
00000020: 74db c8be 0782 0cbe 1884 7cbd d378 d8be
00000030: ef86 cabc 53b5 a9be f97e 0ebe f3ef d0be
00000040: 9ae8 2ebf b9cd 123e 0a8d e4bd 1781 e4bd
00000050: 46bc 06bf 82e6 d4bd cad8 1abd 6e3c 49bd
00000060: 8691 f2be e711 e0bd 753c 173c b580 b1ba
00000070: 5187 853c 45e9 73bd 4259 c5bd 138b e3bb

encoder.net.2.weight f4 [32, 32, 3, 3]
0.06841993 -0.042783424 0.019547334 0.068321966 -0.09510071 -0.17640945 -0.20340647 -0.5075637
-0.4204544 -0.019288521 -0.041722983 0.032198362 -0.1634413 -0.1293204 -0.36533687 -0.10908274
0.06414397 -0.0714953 -0.09420005 0.044330224 -0.06805062 -0.03398132 -0.00026589274 -0.009370087
0.021274634 0.008393665 0.026355034 -0.0017588327 -0.05823616 -0.29766995 0.11090509 0.13811728
-0.1918926 0.20839177 0.017953375 0.08418321 0.021618586 -0.19076374 -0.028433094 0.026698366
0.00077908486 -0.3531292 -0.035200525 0.15700273 0.10358586 -0.34019727 -0.12002463 -0.1900507
-0.14710084 0.07085982 0.2405273 0.25068593 0.13952874 0.17900997 0.23806863 0.025632665
0.12875636 0.1516844 0.037949163 0.14722069 0.021971956 -0.2914792 -0.4422374 0.038300402
-0.02296237 0.15538134 0.032223664 -0.10802339 0.18233679 -0.0043952586 -0.21171793 -0.021571387
-0.041620716 -0.046325922 -0.22056995 -0.16284376 -0.067836985 0.030746479 0.022748817 -0.0054805633
0.14458607 -0.12822297 0.2010957 0.10106542 0.045865722 0.08605079 0.13646498 -0.11249165
0.0006805769 0.0511489 0.09665273 0.016197262 -0.046418995 0.09607097 -0.07157069 -0.035613034
-0.033460952 -0.25999072 -0.0977767 -0.47685257 -0.120598644 -0.06755673 -0.14564453 0.054303415
0.11244884 0.05800306 0.107510775 0.099800274 -0.038689177 0.017263172 0.13141589 -0.060543105
-0.08347619 0.15857798 -0.10409693 0.08428253 0.0036763167 -0.3635616 -0.13113186 -0.0997424
-0.07291061 0.07116093 0.046130765 0.11866027 0.17385562 0.13753454 -0.34760913 0.018541332
0.2850276 -0.27636442 -0.030506471 -0.2664907 -0.53823733 -0.08058036 -0.15235679 -0.4724365
-0.17568004 -0.054168694 -0.11250091 -0.029889792 0.01831131 0.09048694 0.16724771 0.1696974
0.06254509 -0.22201249 0.059877664 -0.1358184 -0.15682933 0.04475785 -0.11800985 0.07326738
0.09372107 0.051933747 -0.078681394 0.05497172 0.015382718 -0.08887631 -0.25112468 -0.27524558
-0.3505536 -0.28448707 -0.012796208 0.16784553 -0.07603733 -0.07580941 0.13258514 -0.16131452
0.08046954 0.16538411 0.044069227 0.06843733 -0.017238729 0.12796962 -0.056174126 -0.032051425
0.11138543 0.10663719 -0.11598841 -0.12816252 -0.03517668 -0.14889826 0.13436487 -0.020417878
0.011666192 -0.21804139 -0.112320945 0.14738002 0.0021813633 0.19620271 0.15411003 -0.034267917
0.30570087 0.13030216 -0.036866065 -0.20610012 -0.17069982 -0.11994521 0.050836388 0.017412083
-0.06621046 0.08579205 0.055202812 0.1452905 -0.0372975 -0.115499996 0.027163837 -0.0468741
0.014721817 -0.0099041285 -0.12596862 -0.088171996 0.11466034 -0.10796987 0.08626251 0.05255636
-0.2636277 0.047436357 -0.014996436 0.17929538 0.06935186 0.16425924 0.11282284 0.13730656
0.1576458 0.053505994 0.017723104 0.089440875 0.17985465 0.13225825 0.04168865 0.19648902
-0.06306402 -0.35836476 -0.017146166 -0.017506367 -0.06542584 -0.040929046 -0.039186403 0.06985681
0.1529786 -0.008915983 -0.05873166 -0.14881732 -0.055309914 -0.029451478 -0.018534834 -0.030891374
0.03116245 -0.076943725 0.05085753 0.06748316 -0.03697106 -0.06177748 -0.110484436 -0.1068777
00000000: c01f 8c3d ac3d 2fbd bb21 a03c 63ec 8b3d
00000010: 29c4 c2bd aea4 34be c949 50be b2ef 01bf
00000020: cd45 d7be f602 9ebc b8e5 2abd 6ee2 033d
00000030: 285d 27be 916c 04be 6f0d bbbe c666 dfbd
00000040: ea5d 833d 216c 92bd f5eb c0bd 9c93 353d
00000050: 205e 8bbd ff2f 0bbd 8567 8bb9 fe84 19bc
00000060: 2448 ae3c 9585 093c 83e6 d73c a288 e6ba
00000070: 0a89 6ebd 3268 98be 3522 e33d 9e6e 0d3e
00000080: 7e7f 44be a764 553e f512 933c 3f68 ac3d
00000090: 7619 b13c 9257 43be 85ec e8bc 88b6 da3c
000000a0: 803b 4c3a 5acd b4be 6d2e 10bd 53c5 203e
000000b0: d324 d43d 562e aebe 79cf f5bd a79c 42be
000000c0: 9aa1 16be f41e 913d ca4c 763e e859 803e
000000d0: 9fe0 0e3e 644e 373e 43c8 733e 98fb d13c
000000e0: b5d8 033e 2853 1b3e 9570 1b3d 05c1 163e
000000f0: 88fe b33c c33c 95be f16c e2be e2e0 1c3d
00000100: 951b bcbc 491c 1f3e f6fc 033d 5e3b ddbd
00000110: 7fb6 3a3e 1a06 90bb 96cc 58be 7ab6 b0bc
00000120: 7c7a 2abd 40c0 3dbd 17dd 61be 84c0 26be
00000130: 1eee 8abd 0ae0 fb3c ba5b ba3c 4c96 b3bb
00000140: 5f0e 143e e24c 03be 08ec 4d3e 63fb ce3d
00000150: b2dd 3b3d 663b b03d 7abd 0b3e 0662 e6bd
00000160: be68 323a 8281 513d def1 c53d 1fb0 843c
00000170: d821 3ebd dbc0 c43d a793 92bd f9de 11bd
00000180: 5a0e 09bd 811d 85be 273f c8bd 0526 f4be
00000190: 6cfc f6bd 2f5b 8abd d723 15be 426d 5e3d
000001a0: 944b e63d 9e94 6d3d 9c2e dc3d 1664 cc3d
000001b0: 8b78 1ebd 7f6b 8d3c e391 063e 0cfc 77bd
000001c0: 91f5 aabd 4462 223e c530 d5bd 529c ac3d
000001d0: 5cee 703b bf24 babe 6e47 06be be45 ccbd
000001e0: 2852 95bd d2bc 913d 9df3 3c3d 2804 f33d
000001f0: 3507 323e dbd5 0c3e d3f9 b1be fee3 973c
00000200: 23ef 913e a37f 8dbe b5e8 f9bc 7871 88be
00000210: ecc9 09bf 5107 a5bd 6b03 1cbe 32e3 f1be
00000220: 78e5 33be fedf 5dbd e166 e6bd 70db f4bc
00000230: 9a01 963c 3851 b93d fc42 2b3e 28c5 2d3e
00000240: a417 803d 3e57 63be 4842 753d fb13 0bbe
00000250: de97 20be 0254 373d 26af f1bd 350d 963d
00000260: d5f0 bf3d 7bb8 543d b623 a1bd 072a 613d
00000270: cc07 7c3c c804 b6bd 6a93 80be fdec 8cbe
00000280: c37b b3be 4aa8 91be 30a7 51bc b3df 2b3e
00000290: 76b9 9bbd f741 9bbd 66c4 073e a22f 25be
000002a0: 37cd a43d 745a 293e ef81 343d df28 8c3d
000002b0: 3c38 8dbc 780a 033e d716 66bd 5b48 03bd
000002c0: 0b1e e43d 9964 da3d 558b edbd 093d 03be
000002d0: 6c15 10bd c978 18be f296 093e 6543 a7bc
000002e0: 8e23 3f3c 3e46 5fbe 8608 e6bd caea 163e
000002f0: 34f5 0e3b 5de9 483e 05cf 1d3e 845c 0cbd
00000300: d384 9c3e ee6d 053e df00 17bd e90b 53be
00000310: efcb 2ebe d6a5 f5bd d139 503d c9a3 8e3c
00000320: 5a99 87bd beb3 af3d 581c 623d 08c7 143e
00000330: 43c5 18bd 438b ecbd b286 de3c 0eff 3fbd
00000340: c733 713c ed44 22bc ebfd 00be 8593 b4bd
00000350: 0ad3 ea3d 4f1f ddbd 66aa b03d 5645 573d
00000360: 36fa 86be a04c 423d 9db3 75bc 3599 373e
00000370: 5908 8e3d 9333 283e a90f e73d 179a 0c3e
00000380: e76d 213e 1a29 5b3d 0b30 913c c72c b73d
00000390: d12b 383e b56e 073e b8c1 2a3d 6b34 493e
000003a0: b527 81bd 967b b7be 1e76 8cbc 8369 8fbc
000003b0: fcfd 85bd 37a5 27bd ec81 20bd 1611 8f3d
000003c0: 6ca6 1c3e 5814 12bc 9c90 70bd 9163 18be
000003d0: a68c 62bd 3a44 f1bc 5dd6 97bc e80f fdbc
000003e0: 6548 ff3c ac94 9dbd fc4f 503d 9c34 8a3d
000003f0: f76e 17bd 620a 7dbd aa45 e2bd b2e2 dabd

encoder.net.2.bias f4 [32]
-0.0118036885 -0.092175886 -0.08671205 0.00044883 -0.023051932 -0.29549044 -0.111955345 -0.09450669
-0.20177469 -0.17267784 -0.046804722 -0.089596935 -0.15022089 -0.015636243 -0.10824792 -0.105804026
-0.20850752 -0.03249624 -0.13275465 -0.090901636 -0.0928615 -0.08629643 -0.125822 -0.1444594
-0.08721956 -0.13846466 0.04709357 -0.0724383 -0.10930431 -0.090960905 -0.065556034 -0.06301432
00000000: 4264 41bc b6c6 bcbd 1696 b1bd f150 eb39
00000010: 68d7 bcbc 864a 97be d848 e5bd b98c c1bd
00000020: 069e 4ebe 76d2 30be 4fb6 3fbd 997e b7bd
00000030: 81d3 19be 9417 80bc 16b1 ddbd c8af d8bd
00000040: ff82 55be c71a 05bd d6f0 07be a32a babd
00000050: 2c2e bebd 2fbc b0bd 7bd7 00be 2aed 13be
00000060: 2ba0 b2bd aec9 0dbe 30e5 403d 885a 94bd
00000070: f0da dfbd b649 babd 3e42 86bd a70d 81bd

encoder.net.4.weight f4 [64, 32, 3, 3]
0.06948964 0.19575624 0.0403705 -0.18178277 -0.11835842 -0.1465632 -0.022811672 0.03928073
-0.18156476 0.068247356 0.05185708 -0.14040472 -0.030215021 -0.015447296 -0.13530998 -0.08805698
-0.34017122 -0.13469484 -0.11673864 0.017747685 -0.052729238 -0.0455104 -0.3288176 0.15825433
0.028573552 -0.13961029 -0.11628332 -0.0901612 0.13537216 0.06218006 0.11907652 -0.06707624
-0.1140074 0.04774087 -0.06275218 0.019174403 0.1379654 -0.06289298 -0.048548292 -0.0065268716
-0.073845126 -0.12743196 0.067788325 -0.02602343 0.09762341 -0.052321397 0.062260248 0.04180563
0.07968082 0.0663908 -0.08999506 0.22440068 0.13052839 -0.19134685 0.15207142 0.013252353
-0.25107023 0.033341277 -0.037420247 -0.24645121 -0.12147535 -0.26171 -0.121133365 -0.12974137
0.0259117 0.0034796256 -0.17460054 -0.11203877 0.0040535727 -0.31231895 -0.21275587 -0.17551686
0.18469371 -0.0694393 0.10879614 -0.024918124 -0.0780364 0.022449452 -0.08549043 0.08411941
0.16585958 0.059567105 0.05438218 0.02993306 0.11971855 0.12201403 0.016339507 0.0022416906
0.086549126 -0.05151586 0.093054816 -0.120449 0.015072983 -0.3079452 0.036139846 0.09216695
-0.08512058 0.013760186 0.03638693 0.06578876 -0.053469576 0.17264488 -0.121973746 -0.061755974
-0.036742873 0.07895295 0.083543055 0.06579666 -0.07900275 -0.059128035 -0.010038522 -0.18124376
-0.12933266 0.046677295 0.13187209 0.02827992 0.043464728 -0.2093728 -0.38676196 -0.08449806
-0.23788814 -0.14188977 0.11173004 0.016813746 0.07716503 0.05103567 0.05584786 0.065149546
-0.115875386 0.07649738 0.054026596 -0.3259199 0.014995498 0.058753554 -0.028434454 -0.027815573
0.0354083 -0.016914962 0.061249867 -0.0017619035 -0.0339949 0.14909971 -0.052235935 -0.054247066
0.04153653 -0.12980308 0.027701803 0.08978183 0.15087278 0.055517625 -0.1022094 0.11456869
-0.07434896 -0.023879722 0.08839554 -0.078027666 -0.11105807 -0.051923916 -0.16030526 -0.009488297
-0.19233131 -0.049387507 0.13572565 -0.08200956 -0.02442299 0.032933064 -0.07959847 -0.036307015
0.0022377789 -0.03131179 0.157931 -0.019482657 -0.11095801 0.0952146 0.16095556 -0.028612005
0.025285102 0.084063806 0.060947824 0.12035239 0.061412755 0.08400707 -0.1199701 0.14579937
0.20523714 -0.114006065 -0.07341183 0.07640727 0.05984778 -0.05190392 0.10063926 0.014455622
0.046378728 -0.047693077 -0.02344257 0.114555635 0.07436755 -0.0018456402 0.06757093 0.028172001
-0.008577727 -0.037050683 0.0710499 0.24948657 0.0819689 0.1261753 0.08034341 -0.18158586
-0.21249445 0.046799038 0.04026513 -0.059386395 -0.021074645 -0.04375427 0.06371587 -0.0403114
-0.48437095 -0.22736126 -0.012589667 -0.29339805 -0.1033883 -0.025720093 -0.030980509 0.12554443
0.0057950765 -0.12117047 0.12673251 -0.21460612 0.24785525 -0.06356956 0.049039446 0.007490478
0.15660834 0.06690021 0.08805407 -0.02667569 -0.26412228 0.119792335 -0.009444302 -0.025163602
-0.2712159 -0.3784787 -0.07615774 -0.18464696 0.031514753 -0.096434854 0.039284818 -0.011618898
-0.0069137258 0.23665586 0.02040271 -0.08149698 -0.053439602 -0.28328103 -0.16760091 0.017587682
00000000: 9650 8e3d 5374 483e 8a5b 253d 4325 3abe
00000010: e665 f2bd aa14 16be 8bdf babc d5e4 203d
00000020: 1dec 39be 45c5 8b3d 1768 543d 41c6 0fbe
00000030: 7e85 f7bc a816 7dbc b38e 0abe 3857 b4bd
00000040: ec2a aebe 72ed 09be ab14 efbd 9863 913c
00000050: 9dfa 57bd 1d69 3abd c85a a8be 6c0d 223e
00000060: 1513 ea3c 00f6 0ebe f325 eebd 6fa6 b8bd
00000070: 009f 0a3e 85b0 7e3d 64de f33d 455f 89bd
00000080: b67c e9bd ee8b 433d 3784 80bd a313 9d3c
00000090: cd46 0d3e 09ce 80bd 93da 46bd 5edf d5bb
000000a0: 1d3c 97bd 867d 02be 9bd4 8a3d 172f d5bc
000000b0: c8ee c73d f64e 56bd 9a04 7f3d 613c 2b3d
000000c0: b32f a33d e6f7 873d 544f b8bd 4bc9 653e
000000d0: 3ca9 053e 6ef0 43be 9cb8 1b3e 6620 593c
000000e0: 478c 80be dd90 083d f945 19bd b55d 7cbe
000000f0: 11c8 f8bd dafe 85be c514 f8bd ecda 04be
00000100: c644 d43c 6e0a 643b 7cca 32be 9574 e5bd
00000110: d5d3 843b 45e8 9fbe addc 59be b1ba 33be
00000120: 5920 3d3e 3136 8ebd 83d0 de3d 1821 ccbc
00000130: 8cd1 9fbd eae7 b73c 9b15 afbd cc46 ac3d
00000140: 18d7 293e a3fc 733d d9bf 5e3d 2d36 f53c
00000150: 002f f53d 7ee2 f93d 6eda 853c 54e9 123b
00000160: ab40 b13d 4b02 53bd 8693 be3d f7ad f6bd
00000170: acf4 763c feaa 9dbe 6007 143d 07c2 bc3d
00000180: b353 aebd 6772 613c 760a 153d 42bc 863d
00000190: ea02 5bbd d2c9 303e 5fcd f9bd d5f3 7cbd
000001a0: b27f 16bd 16b2 a13d 9f18 ab3d 66c0 863d
000001b0: 32cc a1bd 3d30 72bd 9d78 24bc f797 39be
000001c0: c86f 04be b130 3f3d 7a09 073e 4aab e73c
000001d0: 1208 323d d365 56be aa05 c6be 520d adbd
000001e0: f398 73be 8d4b 11be b8d2 e43d fbbc 893c
000001f0: b308 9e3d c70a 513d bac0 643d 206d 853d
00000200: 1350 edbd a9aa 9c3d fe4a 5d3d f9de a6be
00000210: adaf 753c 91a7 703d 5fef e8bc 7cdd e3bc
00000220: 4b08 113d 3f91 8abc 24e1 7a3d acef e6ba
00000230: 3c3e 0bbd 98ad 183e 59f5 55bd 2c32 5ebd
00000240: 3522 2a3d 19eb 04be e4ee e23c 89df b73d
00000250: 657e 1a3e 7366 633d 2953 d1bd fda2 ea3d
00000260: 4444 98bd 689f c3bc b908 b53d f8cc 9fbd
00000270: 6a72 e3bd 2cae 54bd 1027 24be cd74 1bbc
00000280: 80f2 44be 8e4a 4abd aafb 0a3e a1f4 a7bd
00000290: b912 c8bc d2e4 063d 8604 a3bd aab6 14bd
000002a0: b3a7 123b cb40 00bd aab8 213e 189a 9fbc
000002b0: f43d e3bd dfff c23d 89d1 243e b963 eabc
000002c0: b422 cf3c a529 ac3d 6da4 793d 507b f63d
000002d0: f18b 7b3d e60b ac3d e2b2 f5bd 6e4c 153e
000002e0: af29 523e 037c e9bd f158 96bd 6a7b 9c3d
000002f0: f222 753d 3499 54bd f51b ce3d 46d7 6c3c
00000300: 9ff7 3d3d d159 43bd a20a c0bc 259c ea3d
00000310: 044e 983d 69e9 f1ba a162 8a3d f8c8 e63c
00000320: 9889 0cbc 75c2 17bd 9c82 913d 6879 7f3e
00000330: 50df a73d 1934 013e 168b a43d a5f1 39be
00000340: 2598 59be 59b0 3f3d 0ded 243d 263f 73bd
00000350: bca4 acbc ad37 33bd 777d 823d 911d 25bd
00000360: 78ff f7be 64d1 68be e444 4ebc 4538 96be
00000370: 3fbd d3bd f2b2 d2bc d6ca fdbc b88e 003e
00000380: a0e4 bd3b 3928 f8bd 2bc6 013e b5c1 5bbe
00000390: c4cd 7d3e c230 82bd 96dd 483d af72 f53b
000003a0: f05d 203e fa02 893d b155 b43d fa86 dabc
000003b0: 093b 87be af55 f53d 46bc 1abc e623 cebc
000003c0: cfdc 8abe f6c7 c1be 97f8 9bbd 1814 3dbe
000003d0: 9d15 013d a37f c5bd 1ee9 203d 315d 3ebc
000003e0: 898c e2bb ea55 723e 9623 a73c e3e7 a6bd
000003f0: 7ce3 5abd 360a 91be 939f 2bbe 0b14 903c

encoder.net.4.bias f4 [64]
-0.1386746 -0.125449 -0.07653312 -0.09117283 -0.05493205 -0.12967367 -0.122639984 -0.04492434
-0.20641343 -0.17537178 -0.2277093 -0.19807534 -0.1665786 -0.11522969 -0.050990272 -0.062371846
-0.1333774 -0.038230855 -0.17635748 -0.13641271 -0.13009758 -0.1611106 -0.14023972 -0.16697034
-0.19908562 -0.04664056 -0.0722648 -0.13174553 -0.07577217 -0.13878097 -0.14175478 0.09325102
-0.09698467 -0.056317646 -0.077378325 0.00917303 -0.16391706 -0.11628802 -0.21693867 -0.10389491
-0.04647539 -0.15427546 -0.20137288 -0.13458309 -0.006986399 -0.11191455 -0.11356444 -0.034208734
0.049232706 -0.10915001 -0.068811394 -0.08544084 -0.07772992 0.029796088 -0.20168522 -0.090543516
-0.12236105 -0.16470705 -0.11856975 -0.14441466 -0.145404 -0.20011398 -0.13560191 -0.0117981
00000000: b700 0ebe b475 00be 65bd 9cbd d2b8 babd
00000010: 6e00 61bd 2dc9 04be ac2a fbbd 9602 38bd
00000020: 0b5e 53be a994 33be a02c 69be 43d4 4abe
00000030: 9593 2abe 8bfd ebbd 2ddb 50bd 9f79 7fbd
00000040: 1694 08be f597 1cbd 0e97 34be c6af 0bbe
00000050: 4d38 05be 2dfa 24be 009b 0fbe 46fa 2abe
00000060: 1add 4bbe 2c0a 3fbd 91ff 93bd 4de8 06be
00000070: 712e 9bbd 991c 0ebe 2a28 11be 64fa be3d
00000080: e69f c6bd 55ad 66bd 8778 9ebd 7a4a 163c
00000090: e0d9 27be 6a28 eebd 2c25 5ebe dbc6 d4bd
000000a0: fb5c 3ebd 63fa 1dbe b134 4ebe 26d0 09be
000000b0: 2aee e4bb 7533 e5bd 7994 e8bd 751e 0cbd
000000c0: 3ca8 493d 0a8a dfbd fdec 8cbd 9bfb aebd
000000d0: dd30 9fbd ed16 f43c 9286 4ebe e16e b9bd
000000e0: 6e98 fabd f7a8 28be b2d4 f2bd 70e1 13be
000000f0: c9e4 14be aeea 4cbe 3adb 0abe d14c 41bc

encoder.net.6.weight f4 [64, 64, 3, 3]
0.10379929 0.07067018 -0.11368343 0.06602161 -0.20117538 -0.027355282 0.09655802 0.09652438
-0.06996019 -0.08907706 0.076768726 -0.24500073 0.050475765 -0.0617176 0.11006915 0.13868007
-0.0057607815 -0.12769708 0.051289387 -0.0567051 0.03621471 0.18837136 -0.07087457 -0.0064109704
0.1394886 -0.113966174 0.071405284 -0.14569286 0.020054093 -0.0049339817 0.008738838 -0.017149294
-0.048865393 -0.098673 -0.14683163 0.0784622 -0.097277045 -0.14256443 -0.02126872 0.04243942
-0.040684395 -0.10285381 -0.13645004 -0.64740545 0.112170964 -0.19570354 0.006027582 0.025346369
-0.15540504 -0.06961109 0.05070231 -0.14161825 -0.00873038 0.011517138 -0.17792425 0.007967854
-0.19183095 -0.16016051 0.07462027 -0.35211158 -0.07516583 -0.07799623 0.0049020485 0.011507592
-0.14473936 0.23335706 -0.0068198233 -0.09154456 0.10988927 -0.20698905 0.09179566 -0.16254249
0.025782203 -0.052752182 -0.081466585 -0.2540737 0.020642322 0.09289787 -0.0048127375 -0.10046831
0.13038003 -0.04657315 0.021379989 -0.054799862 -0.10178072 0.048602216 -0.05924497 0.015741708
-0.008538758 0.23453236 0.16811119 -0.0059624193 0.020283587 -0.029884698 0.0070566153 0.09830576
-0.3802462 -0.0029517016 0.27524692 0.07410106 0.16504377 -0.027578196 0.035305854 0.17139573
-0.08202071 0.09884954 -0.0025963266 -0.07822393 0.06749291 -0.0054898947 0.07699244 -0.013996494
0.19248109 0.009290533 -0.3389712 -0.054659065 0.22309206 0.11532369 0.060958207 0.16155371
-0.06785525 -0.09219684 0.063582554 -0.23304445 0.097144864 -0.09226419 0.10902333 -0.042989023
0.042005878 0.20777078 0.06794983 0.022307811 -0.10967725 -0.14274172 0.026980117 -0.12133185
0.04171769 0.06654607 -0.13108876 0.022368398 0.0091445325 0.0063431365 0.10524394 -0.23129462
-0.015289834 0.13437037 0.069551274 0.28463227 -0.052296493 -0.0052146036 -0.15616143 -0.27854815
-0.26855955 0.15061004 -0.08373555 -0.07682204 -0.3627065 0.048842832 -0.13025217 0.21939014
-0.06991144 -0.13100985 0.08754677 0.1766519 -0.20683505 -0.037950266 0.37011784 0.04027774
0.18702391 0.18014526 -0.21928436 -0.054129366 -0.11032055 -0.056772813 0.03662658 -0.018489858
0.06748414 -0.088092655 0.048010167 -0.17916058 -0.14060035 -0.046598025 -0.10323912 -0.06494982
0.039455716 -0.044701718 0.06805033 0.053072337 0.046125643 -0.056081776 -0.06385426 -0.0010795023
-0.08507012 0.028864995 -0.042435445 -0.15418372 -0.102021426 0.35249242 -0.02981477 -0.07860635
0.04654511 0.16408162 0.05892744 0.070027225 0.14388372 -0.17867975 0.11053512 -0.061538402
0.014130877 0.07731946 -0.06697842 0.108014 0.007323947 -0.20962417 -0.07340314 -0.2575653
-0.02638847 0.0899818 -0.015790652 -0.0034558475 -0.056202568 -0.029595025 0.032889698 -0.06137024
-0.047674846 0.20782192 0.010515506 -0.09121048 0.08934569 -0.19927411 0.0986525 -0.098716564
-0.13702935 -0.0077564726 -0.24865918 -0.07504209 0.02284144 -0.17268926 0.0368303 0.12855648
0.040535625 -0.16817552 -0.2304369 0.0721329 0.16758011 0.11805048 -0.108969264 -0.0077639497
0.11318341 0.2198575 -0.11634792 0.032092806 0.3034064 -0.008361595 0.10464364 0.09080057
00000000: b994 d43d 87bb 903d dcd2 e8bd 5636 873d
00000010: eb00 4ebe 2f18 e0bc 36c0 c53d 93ae c53d
00000020: 4a47 8fbd 096e b6bd ec38 9d3d 79e1 7abe
00000030: adbf 4e3d 98cb 7cbd ef6b e13d 2602 0e3e
00000040: f0c4 bcbb 06c3 02be d214 523d 9b43 68bd
00000050: e055 143d 6ce4 403e b026 91bd 1e13 d2bb
00000060: 19d6 0e3e 1967 e9bd ef3c 923d 8230 15be
00000070: 7b48 a43c 3dad a1bb 582d 0f3c ad7c 8cbc
00000080: 1427 48bd 1215 cabd 085b 16be cab0 a03d
00000090: 3039 c7bd 69fc 11be bd3b aebc f5d4 2d3d
000000a0: aea4 26bd 05a5 d2bd 8fb9 0bbe 5dbc 25bf
000000b0: e4b9 e53d 8266 48be 0683 c53b 30a3 cf3c
000000c0: 8022 1fbe 4290 8ebd 3aad 4f3d 6004 11be
000000d0: de09 0fbc 61b2 3c3c c631 36be 9a8b 023c
000000e0: 556f 44be 1e01 24be 83d2 983d f847 b4be
000000f0: 8bf0 99bd 7dbc 9fbd 5da1 a03b 578a 3c3c
00000100: 8e36 14be 27f5 6e3e d378 dfbb b77b bbbd
00000110: a00d e13d f0f4 53be 5dff bb3d 8a71 26be
00000120: 3335 d33c ac12 58bd f4d7 a6bd f315 82be
00000130: 161a a93c 3d41 be3d 2bb4 9dbb 54c2 cdbd
00000140: 5882 053e 7dc3 3ebd 1625 af3c d275 60bd
00000150: 6972 d0bd 1e13 473d dbaa 72bd c1f4 803c
00000160: 26e6 0bbc 4029 703e 5725 2c3e 6660 c3bb
00000170: c429 a63c c1d0 f4bc 2e3b e73b 8854 c93d
00000180: a1af c2be 5671 41bb 2aed 8c3e 4cc2 973d
00000190: 3c01 293e abeb e1bc df9c 103d 5d82 2f3e
000001a0: 79fa a7bd a171 ca3d 2227 2abb de33 a0bd
000001b0: b939 8a3d 93e4 b3bb 36ae 9d3d 8d51 65bc
000001c0: c319 453e 5237 183c a28d adbe 2fe2 5fbd
000001d0: 3f72 643e d42e ec3d 50af 793d 566e 253e
000001e0: b1f7 8abd b2d1 bcbd 9237 823d 34a3 6ebe
000001f0: e3f3 c63d 02f5 bcbd a047 df3d 4215 30bd
00000200: 5b0e 2c3d ddc1 543e 4829 8b3d dfbe b63c
00000210: 779e e0bd e32a 12be 6805 dd3c d57c f8bd
00000220: 2be0 2a3d 4e49 883d 223c 06be ee3d b73c
00000230: f3d2 153c 16da cf3b 238a d73d 7fd8 6cbe
00000240: 3682 7abc 6398 093e e670 8e3d 52bb 913e
00000250: d934 56bd 44df aabb c8e8 1fbe dd9d 8ebe
00000260: a380 89be 8539 1a3e 8b7d abbd e054 9dbd
00000270: abb4 b9be 6c0f 483d d360 05be cfa7 603e
00000280: bb2d 8fbd 7227 06be b94b b33d 3ce4 343e
00000290: 91cc 53be bd71 1bbd 1680 bd3e 46fa 243d
000002a0: 3283 3f3e 0078 383e 148c 60be c1b6 5dbd
000002b0: beef e1bd 9c8a 68bd c105 163d 0b78 97bc
000002c0: 2035 8a3d ec69 b4bd 4fa6 443d df75 37be
000002d0: 8af9 0fbe 92dd 3ebd 086f d3bd 6904 85bd
000002e0: 519c 213d 2619 37bd f95d 8b3d 6162 593d
000002f0: 3eee 3c3d 01b6 65bd 06c6 82bd 167e 8dba
00000300: 3e39 aebd 4876 ec3c cad0 2dbd 56e2 1dbe
00000310: 9cf0 d0bd e379 b43e 1b3e f4bc 5efc a0bd
00000320: 16a6 3e3d 0305 283e e65d 713d 6f6a 8f3d
00000330: 4156 133e d3f7 36be 3d60 e23d b10f 7cbd
00000340: 3285 673c aa59 9e3d fb2b 89bd 7236 dd3d
00000350: b8fd ef3b b8a7 56be 6354 96bd 99df 83be
00000360: a22c d8bc 6148 b83d 665b 81bc 807b 62bb
00000370: aa34 66bd 4471 f2bc 59b7 063d 5c5f 7bbd
00000380: b346 43bd 45cf 543e 3b49 2c3c 8fcc babd
00000390: e0fa b63d 830e 4cbe 520a ca3d e92b cabd
000003a0: 6c51 0cbe 022a febb 83a0 7ebe abaf 99bd
000003b0: f91d bb3c 74d5 30be 5edb 163d 4fa4 033e
000003c0: af08 263d 3436 2cbe a7f7 6bbe 6aba 933d
000003d0: 1f9a 2b3e 73c4 f13d 472b dfbd bb68 febb
000003e0: b4cc e73d 5322 613e d147 eebd bf73 033d
000003f0: 1558 9b3e 12ff 08bc 684f d63d a6f5 b93d

encoder.net.6.bias f4 [64]
-0.21666355 -0.06527779 -0.08055365 -0.1077622 -0.095781155 -0.19217555 -0.18256634 -0.29915172
0.019814273 -0.19560085 -0.29163706 -0.21906145 -0.068350874 -0.29473096 -0.3008245 -0.28678033
-0.15906608 -0.05993921 -0.18750775 -0.15321887 -0.06543611 -0.29826996 -0.14558354 -0.018455336
-0.15989982 -0.091914244 -0.1786643 -0.011195954 -0.31505677 -0.10690619 -0.121422805 -0.28520548
-0.04657435 -0.041388366 -0.10602125 -0.15929262 -0.049591567 -0.030407913 -0.15679199 -0.07101491
-0.19591969 -0.04198443 -0.18735145 -0.05558391 0.013594115 -0.2437221 -0.1342695 -0.028985862
-0.08177594 -0.2921669 -0.17030817 -0.044707254 -0.23587315 -0.14569065 -0.2971637 -0.15419112
-0.10742476 -0.33934218 -0.38313907 -0.21994843 -0.23804303 -0.26608056 -0.1998946 -0.038396448
00000000: 0ddd 5dbe 5db0 85bd 50f9 a4bd 6eb2 dcbd
00000010: e928 c4bd abc9 44be acf2 3abe 6a2a 99be
00000020: 8b51 a23c 974b 48be 7451 95be a551 60be
00000030: 8bfb 8bbd fae6 96be ab05 9abe dfd4 92be
00000040: 38e2 22be d182 75bd 0802 40be 68e5 1cbe
00000050: 5e03 86bd d7b6 98be da13 15be a52f 97bc
00000060: c7bc 23be 893d bcbd c6f3 36be 3c6f 37bc
00000070: 1f4f a1be a2f1 dabd 85ac f8bd 7406 92be
00000080: bfc4 3ebd d986 29bd ab21 d9bd 9b1d 23be
00000090: 8720 4bbd 041a f9bc 148e 20be 4470 91bd
000000a0: 2c9f 48be def7 2bbd 0fd9 3fbe f4ab 63bd
000000b0: dab9 5e3c 4992 79be f27d 09be c273 edbc
000000c0: 257a a7bd e696 95be 4465 2ebe f41e 37bd
000000d0: bb88 71be ee2f 15be d725 98be 47e4 1dbe
000000e0: 8301 dcbd 42be adbe ce2a c4be 293a 61be
000000f0: 8dc1 73be b63b 88be 2cb1 4cbe 9845 1dbd

encoder.net.8.weight f4 [64, 64, 3, 3]
-0.17247164 -0.00044732605 0.23511788 -0.19767737 -0.45709252 -0.21088752 -0.066759974 -0.04822148
-0.453415 -0.15040903 0.04053098 0.002883647 0.053527195 -0.2001573 0.046224914 -0.06508896
-0.04635444 0.007547622 -0.14482865 -0.038024463 -0.29550183 -0.123575434 0.027207501 0.06425127
0.060610704 -0.0353982 -0.10019774 0.16365409 0.05115412 -0.057725877 -0.10643754 0.12333746
0.23975955 0.040890217 -0.045291178 0.023706028 0.1071971 0.0070671677 0.004550875 0.01920328
0.11568601 0.04385977 -0.013256688 0.010332013 0.03629973 0.013325565 -1.1629894 0.06372011
-0.045554914 0.1580391 0.0759324 0.048857857 0.027109394 0.090060994 -0.23760633 -0.1356689
-0.0484098 0.0084765265 0.06339455 0.07151872 -0.029096382 0.01892851 -0.12707825 -0.25823653
-0.23568015 -0.08413421 0.14427444 0.026037283 -0.20988642 0.25965545 0.20547816 0.035753272
-0.14610526 0.2800148 -0.022555145 -0.12432712 0.07418359 -0.023344506 -0.01642954 0.021165572
0.012927857 -0.2191405 -0.2659269 -0.39431384 -0.11162251 0.059840463 0.02188961 -0.3578642
0.008737959 -0.021241086 -0.033733718 -0.16671632 -0.36766514 0.036077846 -0.33320183 -0.21702152
0.12543955 -0.075348936 -0.490064 0.086910166 0.03343583 -0.0031287863 0.21676528 0.03131084
0.17740996 0.044223405 0.09670036 -0.06897772 -0.14395754 -0.22171518 -0.06257155 0.1754434
0.102076955 -0.035924237 -0.016569586 0.032607634 -0.0026681533 -0.222659 0.08125806 -0.050489355
-0.07337822 0.25961116 -0.039385304 -0.0036003008 -0.07535323 0.051172055 -0.015271963 0.021697693
-0.027448315 -0.53385913 -0.048877724 -0.00060473324 0.011838104 0.052566852 0.014158205 -0.047548674
0.031171668 0.04274071 0.08708461 -0.02627512 0.065151885 0.056845546 0.013896991 -0.10374636
-0.106273875 0.028923158 -0.053352125 0.03148877 -0.21557973 0.10864142 -0.007989191 -0.2465768
-0.10190597 0.20086202 0.095932096 0.16202801 -0.034761656 -0.039095707 0.10778159 -0.030765845
-0.065319546 -0.03476132 0.088828094 -0.082477294 -0.031320848 0.35876617 0.045921545 0.055447284
-0.2553342 -0.014663721 -0.10214707 0.2778464 0.054514647 -0.005543144 -0.002382519 -0.031211713
-0.061897885 0.14942165 0.1461751 0.1482942 -0.22013627 0.034980528 0.081469916 0.08083635
0.06901596 -0.19628224 -0.03712238 -0.066134974 0.017473066 -0.05701556 -0.03570584 -0.119101375
0.014958592 0.16116057 0.046958026 -0.72931415 0.0329659 -0.11731428 0.26461977 -0.17908618
-0.01353815 -0.12107076 -0.06636014 -0.21090792 0.20211366 0.10172637 0.0017108369 0.09056319
-0.09401436 -0.02987683 0.096155114 0.08633922 -0.14968334 -0.05670235 -0.0064209923 -0.010030861
-0.012033753 0.18519656 0.27648565 -0.13170774 0.20905977 0.012743124 0.08764185 0.018200781
-0.031985343 -0.15912594 -0.09602603 -0.10476248 0.12237675 -0.12195514 0.060585875 0.022151198
0.0029173908 -0.013326366 -0.07218729 -0.073824786 0.026575644 0.11126251 -0.05114205 -0.14228421
-0.28188998 -0.14598791 0.044719327 0.0059233303 0.03187769 -0.014667842 -0.049874038 0.053809915
0.0873204 0.08558617 0.034681786 -0.020931441 -0.017042417 -0.09230768 0.026443701 0.039596263
00000000: 689c 30be 1687 eab9 bec2 703e f06b 4abe
00000010: 0808 eabe e6f2 57be 74b9 88bd e383 45bd
00000020: 0326 e8be d304 1abe d003 263d 92fb 3c3b
00000030: 553f 5b3d 09f6 4cbe 5656 3d3d 5c4d 85bd
00000040: 27de 3dbd 0b52 f73b f64d 14be 8abf 1bbd
00000050: 044c 97be 1e15 fdbd 44e2 de3c 2b96 833d
00000060: ee42 783d b4fd 10bd 7934 cdbd f094 273e
00000070: fc86 513d f871 6cbd edfb d9bd 5a98 fc3d
00000080: 8783 753e 807c 273d 3e83 39bd 2533 c23c
00000090: 278a db3d b393 e73b 821f 953b 3250 9d3c
000000a0: c9ec ec3d 4da6 333d 9432 59bc 9a47 293c
000000b0: 07af 143d 7853 5a3c d6dc 94bf b07f 823d
000000c0: ca97 3abd 00d5 213e 7282 9b3d 2d1f 483d
000000d0: 8514 de3c e671 b83d 134f 73be caec 0abe
000000e0: 5b49 46bd 21e1 0a3c 00d5 813d 6878 923d
000000f0: 895b eebc f60f 9b3c cd20 02be 9437 84be
00000100: 2356 71be 8f4e acbd aebc 133e 244c d53c
00000110: 77ec 56be 8ff1 843e de68 523e 0672 123d
00000120: 9e9c 15be 1a5e 8f3e 91c5 b8bc 389f febd
00000130: 91ed 973d fa3c bfbc 3e97 86bc 6c63 ad3c
00000140: 5dcf 533c 5e66 60be 9227 88be 81e3 c9be
00000150: 589a e4bd 461b 753d d751 b33c fa39 b7be
00000160: a829 0f3c c901 aebc 5e2c 0abd afb7 2abe
00000170: 9b3e bcbe 5dc6 133d 6e99 aabe e43a 5ebe
00000180: 3a73 003e 8b50 9abd abe9 fabe f5fd b13d
00000190: 02f4 083d 530c 4dbb b8f7 5d3e cc3f 003d
000001a0: f5aa 353e 9a23 353d d70a c63d 3144 8dbd
000001b0: 9b69 13be 4e09 63be 8325 80bd 6fa7 333e
000001c0: b90d d13d 4b25 13bd f1bc 87bc 958f 053d
000001d0: 2fdc 2ebb b900 64be a06a a63d edcd 4ebd
000001e0: 5247 96bd c1eb 843e 7c52 21bd 06f3 6bbb
000001f0: cb52 9abd ca99 513d 4137 7abc 5cbf b13c
00000200: 4adb e0bc feaa 08bf 0234 48bd f686 1eba
00000210: 9bf4 413c 5750 573d d1f7 673c 66c2 42bd
00000220: ba5b ff3c e210 2f3d 6a59 b23d ec3e d7bc
00000230: 5a6e 853d e0d6 683d 34b0 633c f978 d4bd
00000240: 1ea6 d9bd 42f0 ec3c c287 5abd 5efa 003d
00000250: efc0 5cbe 657f de3d 19e5 02bc a17e 7cbe
00000260: 14b4 d0bd c6ae 4d3e 0c78 c43d acea 253e
00000270: 3d62 0ebd d222 20bd 98bc dc3d a708 fcbc
00000280: 41c6 85bd e361 0ebd 81eb b53d dbe9 a8bd
00000290: 4a4a 00bd 33b0 b73e 3b18 3c3d b11c 633d
000002a0: 2abb 82be 1b40 70bc 7c32 d1bd e241 8e3e
000002b0: c04a 5f3d 43a3 b5bb 0924 1cbb b5af ffbc
000002c0: a388 7dbd fd01 193e edae 153e 6fda 173e
000002d0: 676b 61be be47 0f3d b3d9 a63d 878d a53d
000002e0: 3d58 8d3d 36fe 48be a30d 18bd c671 87bd
000002f0: ad23 8f3c 2689 69bd 4940 12bd 6ceb f3bd
00000300: e214 753c 4707 253e 0f57 403d 55b4 3abf
00000310: 4007 073d 7842 f0bd 3e7c 873e 5e62 37be
00000320: 1ecf 5dbc f2f3 f7bd d3e7 87bd 3ff8 57be
00000330: e2f6 4e3e ea55 d03d 293e e03a 3279 b93d
00000340: 9a8a c0bd 41c0 f4bc f9ec c43d 9ed2 b03d
00000350: 9746 19be b940 68bd 3067 d2bb 7b58 24bc
00000360: 3829 45bc 2ba4 3d3e 878f 8d3e 65de 06be
00000370: c413 563e 89c8 503c 927d b33d ce19 953c
00000380: 1003 03bd e9f1 22be 4ca9 c4bd b68d d6bd
00000390: a9a0 fa3d 9ec3 f9bd e528 783d 6e76 b53c
000003a0: b231 3f3b d556 5abc eed6 93bd 7331 97bd
000003b0: 2ab5 d93c 99dd e33d 547a 51bd f4b2 11be
000003c0: e253 90be db7d 15be 9d2b 373d 7f18 c23b
000003d0: 2e92 023d 6351 70bc b848 4cbd c967 5c3d
000003e0: 0ad5 b23d cd47 af3d 7d0e 0e3d 6a78 abbc
000003f0: 8a9c 8bbc cf0b bdbd 76a0 d83c b12f 223d

encoder.net.8.bias f4 [64]
-0.115477346 -0.10915741 -0.047527872 0.1262959 -0.018553508 0.10190357 -0.044766217 -0.33201975
0.14979629 -0.05583585 0.024425836 0.011098235 0.0128863985 0.013700628 0.033616114 -0.005211498
0.08584654 -0.06842621 -0.026364263 0.0075089782 -0.09045119 -0.08908849 -0.11005351 0.045957766
-0.042491686 -0.40180698 0.07754749 -0.6868055 -0.03885069 -0.023568684 -0.034178916 -0.44800103
0.025172783 -0.2518093 -0.24524803 0.022945825 0.06658192 -0.23170508 -0.009163309 -0.02572455
-0.057446998 0.00020750213 -0.13003567 -0.07865221 -0.0992487 -0.2596112 -0.32794368 -0.45013416
-0.017701415 0.013521305 -0.20802411 -0.3256366 -0.022398014 0.04741021 0.011971121 -0.16691838
-0.18724155 0.010380299 -0.024550438 -0.042366013 -0.2805126 -0.017978488 -0.08384338 -0.028532105
00000000: 637f ecbd ec8d dfbd 96ac 42bd b653 013e
00000010: 87fd 97bc d2b2 d03d c85c 37bd 7efe a9be
00000020: 3364 193e 22b4 64bd b118 c83c 5fd5 353c
00000030: 7921 533c 9978 603c 0db1 093d 37c5 aabb
00000040: 50d0 af3d 0a23 8cbd def9 d7bc e00d f63b
00000050: 793e b9bd 0774 b6bd bc63 e1bd 363e 3c3d
00000060: c30b 2ebd a5b9 cdbe 38d1 9e3d 7cd2 2fbf
00000070: e721 1fbd 1d13 c1bc 31ff 0bbd 6460 e5be
00000080: 2737 ce3c 26ed 80be 4d22 7bbe e2f8 bb3c
00000090: 1a5c 883d 1944 6dbe b421 16bc 4bbc d2bc
000000a0: 8b4d 6bbd ee94 5939 1228 05be 6914 a1bd
000000b0: e742 cbbd c2eb 84be 3ce8 a7be fc77 e6be
000000c0: 8f02 91bc 7788 5d3c 4604 55be d7b9 a6be
000000d0: 0a7c b7bc 3531 423d 8522 443c a7ec 2abe
000000e0: 40bc 3fbe 2112 2a3c 001e c9bc fc87 2dbd
000000f0: 599f 8fbe 9f47 93bc 14b6 abbd 29bc e9bc

encoder.net.11.weight f4 [4, 1024]
0.014463771 -0.0038236063 0.0065358523 -0.010247629 -0.00949163 0.0033621707 -0.0050377604 0.0003868886
-0.01226114 -0.013211764 0.1515903 -0.0034731359 0.013770557 -0.0150236655 0.0032892786 0.003947327
-0.002302411 -0.0052284487 0.009960822 0.0090324385 0.013184493 0.007251615 -0.0063347933 -0.010294088
-0.0024566075 -0.021101968 0.037258133 0.014641466 0.0051146653 -0.023361444 -0.005945209 -0.015873946
-0.0035389438 0.012824101 0.006205687 -0.0017454113 -0.00680757 -0.0057007894 0.01420483 -0.01124152
-0.024899743 -0.006375936 0.10223326 -0.037151556 0.021957768 0.015862724 -0.0029010423 0.003429327
-0.024813037 0.011993894 -0.0006421978 0.00016302976 -0.010221603 0.038300898 0.016244726 0.0071696374
0.02788836 0.021099167 0.0030757857 0.005317447 0.026091453 0.005337877 -0.04269849 -0.05831494
0.013547945 -0.007146356 -0.00016506328 0.00818966 -0.0033768422 -0.022163061 0.0013527011 0.0050954213
0.0068177995 -0.021204174 -0.072833955 -0.004184632 0.0062812376 0.023638371 0.0053877532 -0.03513724
0.015312402 -0.011226957 0.00015454866 0.004755627 -0.064218245 0.005047675 -0.013833428 0.024097526
0.0026092357 -0.00029745896 -0.010137048 -0.011324704 0.0038149082 0.005678252 -0.09704782 0.0243478
-0.0057982667 0.003922388 0.0043876227 0.008558382 -0.01723696 0.003487392 -0.0054831333 -0.0036798948
0.0006510849 -0.0002093741 0.06235052 -0.00063854846 0.00127395 0.00020278475 -0.0033484183 -0.010048373
0.010040665 0.013170741 -0.0016794635 0.031470664 0.049584832 -0.007233554 0.06924078 0.0020265358
0.024282234 -0.009387381 0.11682813 -0.0031580147 0.010880446 0.09333876 -0.017591523 0.05794355
0.012826713 0.0011980574 -0.008048421 0.0033641984 0.0016602717 -0.012823704 -0.0035037524 -0.0003710918
0.0030223408 -0.03975208 -0.36436203 0.010169747 0.010095331 -0.0037105267 -7.15047e-05 0.006164608
-0.0031857889 -0.0022632717 0.002993777 0.0076223095 -0.0084689595 -0.00039309877 0.01861502 -0.017633334
0.010436219 0.01156908 0.029609445 0.010715145 -0.0045761894 -0.023032943 0.007339993 0.005250486
0.00025166437 0.0034920892 -0.0057135546 -0.0054154294 0.003519162 0.00081145327 0.026128571 -0.004921218
0.008761704 -0.011588328 -0.061058946 0.0033825417 -0.011809677 -0.0017387684 -0.014796454 0.005007853
0.004197179 0.0034102073 -0.0019537134 0.0013099893 -0.0129988445 0.003475874 -0.0017389784 0.009861176
-0.021466404 -0.0048981328 0.04844455 0.012334891 0.018461758 -0.023602068 0.0033482579 -0.0023762588
-0.012281106 -0.0006820481 0.0011185269 0.001238819 -0.007874771 -0.00856942 -0.023845421 0.0037606827
0.019187894 0.0047969217 0.03413439 -0.0037627046 -0.010385248 -0.0061011063 0.0028349997 0.00043916208
-0.0013034228 0.003731676 -0.0017770112 -0.0010674358 -0.0011107088 0.0010315793 -0.0030281923 -0.0019273973
0.004172621 -0.0039360533 0.0046185637 0.006404846 -0.00604609 0.001261022 0.0012027924 0.00042966005
-0.0114838015 0.0019084732 -0.009779811 0.020997586 0.0144443065 -0.008575498 -0.007382783 0.01630249
-0.0074531203 0.0068772323 0.0020570008 -0.01876974 0.012930506 -0.0028959399 0.057966486 0.0019299355
0.0010224513 -0.0040563303 0.0010346256 0.0024882047 0.0013760859 0.0058716885 0.00047979184 -0.0012729705
0.004076173 0.0011325654 -0.0012000456 0.0006256719 -0.0073178094 -0.0018151324 0.004552876 0.002461995
00000000: 74f9 6c3c 7895 7abb b42a d63b ace5 27bc
00000010: c882 1bbc dd57 5c3b cc13 a5bb 4fd7 ca39
00000020: f3e2 48bc 2876 58bc 7d3a 1b3e 8d9d 63bb
00000030: e79d 613c d225 76bc f090 573b 9458 813b
00000040: 0ce4 16bb 6853 abbb b732 233c cbfc 133c
00000050: c603 583c f59e ed3b 1994 cfbb 89a8 28bc
00000060: 09ff 20bb 09de acbc fc9b 183d c2e2 6f3c
00000070: ec98 a73b 8060 bfbc 07d0 c2bb 140a 82bc
00000080: a0ed 67bb 2e1c 523c 1359 cb3b 49c6 e4ba
00000090: 0912 dfbb b0cd babb 60bb 683c 5a2e 38bc
000000a0: 8cfa cbbc 3aed d0bb ac5f d13d 3b2c 18bd
000000b0: c7e0 b33c 8bf2 813c 6a1f 3ebb 8fbe 603b
000000c0: b644 cbbc 0a82 443c 2a59 28ba f8f2 2a39
000000d0: 8378 27bc 67e1 1c3d a913 853c 47ef ea3b
000000e0: 2176 e43c 29d8 ac3c 1f93 493b fa3d ae3b
000000f0: bebd d53c 5ce9 ae3b 9de4 2ebd a6db 6ebd
00000100: 33f8 5d3c fb2b eabb d614 2db9 ec2d 063c
00000110: 034e 5dbb 4f8f b5bc 1e4d b13a 7ef7 a63b
00000120: d967 df3b 60b4 adbc f829 95bd 3d1f 89bb
00000130: d7d2 cd3b 42a5 c13c c08b b03b 11ec 0fbd
00000140: dee0 7a3c 45f1 37bc 570e 2239 17d5 9b3b
00000150: db84 83bd f866 a53b 9aa5 62bc 2d68 c53c
00000160: b6ff 2a3b 44f4 9bb9 dc15 26bc 408b 39bc
00000170: 8a03 7a3b a110 ba3b 02c1 c6bd 0a75 c73c
00000180: 63ff bdbb 6087 803b 0cc6 8f3b 7538 0c3c
00000190: 8634 8dbc bb8c 643b dbab b3bb 642a 71bb
000001a0: 91ad 2a3a 6f8b 5bb9 4263 7f3d 4364 27ba
000001b0: abfa a63a 9ea2 5439 2371 5bbb eea1 24bc
000001c0: 9a81 243c 17ca 573c 7221 dcba 62e7 003d
000001d0: 7719 4b3d 7307 edbb 1cce 8d3d a1cf 043b
000001e0: 89eb c63c 88cd 19bc 9643 ef3d b2f6 4ebb
000001f0: e643 323c 6428 bf3d 191c 90bc 3756 6d3d
00000200: 2227 523c 2308 9d3a 86dd 03bc e279 5c3b
00000210: 799d d93a 831a 52bc 369f 65bb 198f c2b9
00000220: 7712 463b 14d3 22bd a98d babe 039f 263c
00000230: e366 253c 4f2c 73bb cbf4 95b8 7b00 ca3b
00000240: abc8 50bb 6653 14bb 3e33 443b 91c4 f93b
00000250: 64c1 0abc d318 ceb9 877e 983c c873 90bc
00000260: adfc 2a3c 3d8c 3d3c 828f f23c 938e 2f3c
00000270: dcf3 95bb 95af bcbc 5384 f03b 450c ac3b
00000280: d2f1 8339 89db 643b c538 bbbb ea73 b1bb
00000290: bea1 663b b5b7 543a 960b d63c 2b42 a1bb
000002a0: 408d 0f3c f8dc 3dbc f218 7abd a2ad 5d3b
000002b0: 607d 41bc 63e7 e3ba d46c 72bc ea18 a43b
000002c0: 7d88 893b c97d 5f3b df09 00bb f2b3 ab3a
000002d0: 1bf9 54bc 7dcb 633b 6fee e3ba c590 213c
000002e0: 50da afbc 8480 a0bb cb6d 463d 4818 4a3c
000002f0: 1d3d 973c 2059 c1bc 726e 5b3b 02bb 1bbb
00000300: b136 49bc 79cb 32ba 899b 923a de5f a23a
00000310: 2f05 01bc c166 0cbc 7957 c3bc c975 763b
00000320: ee2f 9d3c 7f2f 9d3b 81d0 0b3d b597 76bb
00000330: e326 2abc caeb c7bb 67cb 393b 563f e639
00000340: 9dd7 aaba 228f 743b 9aea e8ba 34e9 8bba
00000350: 3495 91ba 0f36 873a a374 46bb b9a0 fcba
00000360: 7bba 883b 02fa 80bb 5257 973b bedf d13b
00000370: 471e c6bb e048 a53a 04a7 9d3a ff43 e139
00000380: 8e26 3cbc bc25 fa3a 803b 20bc 2103 ac3c
00000390: d0a7 6c3c 3f80 0cbc 46eb f1bb cd8c 853c
000003a0: 4e39 f4bb 685a e13b bfce 063b ffc2 99bc
000003b0: 79da 533c cfc9 3dbb 446e 6d3d e4f5 fc3a
000003c0: c603 863a f7ea 84bb 469c 873a 2611 233b
000003d0: c85d b43a 4b67 c03b 928c fb39 cdd9 a6ba
000003e0: 6b91 853b 9772 943a d94a 9dba 2104 243a
000003f0: 3cca efbb bde9 edba 4b30 953b 6c59 213b

encoder.net.11.bias f4 [4]
-0.069232985 0.06387337 -0.23319109 -0.24665685
00000000: 06ca 8dbd 0bd0 823d a5c9 6ebe 9d93 7cbe
