assignment2/part1/exercise1.1/net_model_wts.pth (torch, 855432 bytes, 8 tensors)

conv1.weight f4 [32, 3, 3, 3]
000000 70 53 9c 3d 6e c5 6b bd f0 5f 01 3c 7e e2 fc 3d
       0.07633102 -0.05756133 0.007896408 0.123478875
000010 eb cc 33 3e b3 14 37 3e f9 51 92 bd 17 8d 41 3e
       0.17558639 0.1787899 -0.07144541 0.18901478
000020 d4 8a e8 bc 3e 98 f0 bc 9b 2c 35 3e f8 a6 09 3d
       -0.02838651 -0.02936947 0.17692797 0.0336065
000030 e9 19 0b be 01 0f da bd 92 b2 1e 3c df b7 89 bb
       -0.13584103 -0.10647393 0.009686129 -0.0042028273
000040 50 18 37 3c ae 3a 60 bd 45 fb a0 bc 82 48 4a 3d
       0.01117523 -0.05474346 -0.019651065 0.049385555
000050 15 b9 95 3d 74 26 f7 3d 00 0a 1e 3e 5c fb b1 3d
       0.07310692 0.12067881 0.15433502 0.08690521
000060 1d a1 a3 bc 5b 59 24 be 64 4a 21 3e 06 03 14 3e
       -0.019974286 -0.16049711 0.15751034 0.14454278
000070 c6 8d 5b 3e 7b 93 93 3d 8f b5 ae 3d 35 f6 cd 3d
       0.21440801 0.07205864 0.08530723 0.10056726
000080 ca 8a 3a 3e 6a 71 20 3e 7c 8f f8 3d 3a 59 ba ba
       0.18217006 0.15668264 0.121367425 -0.0014217265
000090 a3 54 8d bd 9a 83 74 3d 2f 60 17 3e 2b d8 c3 3c
       -0.06900909 0.059695818 0.14782785 0.023906788
0000a0 7d 06 47 3e 11 77 cd bd e7 9e 08 3e 69 fc 8a 3d
       0.19436069 -0.10032476 0.13341866 0.06786425
0000b0 70 dd d1 bd 20 6b b0 3d 79 16 de bd 10 82 04 3e
       -0.10247314 0.086141825 -0.1084413 0.1294024
0000c0 b5 d8 d2 3d 26 9a 2b be c4 e0 c5 3d 35 33 f5 3c
       0.1029524 -0.16758022 0.09662011 0.029931644
0000d0 8c 7d b8 3d 5d 77 b9 3d 21 da e0 bc b0 ff 95 bd
       0.09008321 0.0905597 -0.027447762 -0.07324159
0000e0 de 5d 1f bd 23 c4 87 bd a8 09 2c be a9 b9 90 3d
       -0.038907878 -0.06629207 -0.16800559 0.07066662
0000f0 23 53 a7 bd d8 e8 3d 3d d0 32 45 bd 35 78 08 3e
       -0.08170154 0.046364635 -0.04814416 0.13327105
000100 a1 53 55 3c b5 3f 32 be 99 6c 1d bb 89 74 f3 bc
       0.013020427 -0.17407115 -0.0024021028 -0.029718654
000110 e2 65 cb bd ae b0 22 3e 05 a9 04 3d 29 90 72 bd
       -0.09931542 0.1588771 0.032387752 -0.059219513
000120 b1 84 3d be 2c fc 2e 3e 54 65 12 be fd 59 8f 3c
       -0.18507649 0.17088383 -0.14296466 0.017498964
000130 e5 f2 eb 3d 44 6a 23 be 1e 89 7d 3d 13 b8 37 3e
       0.11520938 -0.15958506 0.061898343 0.17941312
000140 3d 8f 9b bd 90 88 81 bd ba b4 2d be 75 c2 3e be
       -0.0759568 -0.06324875 -0.16963473 -0.18628867
000150 0d 3c 48 bd 41 74 16 3e 4c 74 98 3b 38 cc 0a be
       -0.048885394 0.14692785 0.0046525355 -0.13554466
000160 77 43 04 3e ad c1 e0 3c ff f1 36 3e 7b 3e 3b be
       0.12916361 0.027436102 0.17865752 -0.18285553
000170 29 12 2f be b6 0c c5 3c c6 6d 18 be f1 f2 24 be
       -0.17096771 0.024053913 -0.14885625 -0.161083
000180 60 cc 0b 3e 62 21 1e be a0 98 19 be 60 e5 5e 3d
       0.13652182 -0.15442422 -0.14999628 0.054417968
000190 bb e8 78 3d 84 ae 34 3e 21 38 73 bd 4d 5d 97 3c
       0.060768824 0.17644697 -0.0593797 0.018477106
0001a0 5f cb ea bd 53 a3 29 3d 5a e6 ff 3c 1e 2b ad bd
       -0.11464571 0.041415524 0.03123777 -0.084554896
0001b0 c1 c4 22 3e 11 3b ab 3b 92 ef cf bc 41 84 2c bd
       0.15895368 0.005225547 -0.02538279 -0.042118315
0001c0 ed 91 9d bc bb d6 55 bc 88 a3 89 3d 6b eb 1c 3e
       -0.019234622 -0.013051684 0.06720644 0.1532418
0001d0 80 b8 b1 3c 9d d5 3a 3e f8 b8 2b bd 39 80 bf 3d
       0.021694422 0.1824555 -0.041924447 0.093506284
0001e0 3e 12 25 be 6a 3b df 3d 63 67 7b 3d ab e7 ac 3d
       -0.1612024 0.10900004 0.061377894 0.08442625
0001f0 6e b5 0c be 58 23 2c 3e be 30 9e bd 78 cd 06 bc
       -0.13741085 0.16810358 -0.077241406 -0.0082276985
000200 37 90 fa 3d 03 2c 33 be 97 0e 08 3e f1 da cd bd
       0.12234538 -0.17497258 0.13286816 -0.100515254
000210 79 1f 34 be ad d0 ca bd d6 67 17 be 30 ee 38 3e
       -0.17590131 -0.09903083 -0.14785704 0.18059611
000220 fc 19 07 3e 64 42 bf bd 04 f3 d9 3d 45 23 f4 3d
       0.13193506 -0.09338835 0.10642055 0.1192079
000230 4c 8b 29 3d 83 49 07 3e 20 c7 04 be 71 9e 29 3e
       0.04139261 0.13211636 -0.12966585 0.16564347
000240 30 3f 21 3e 3b 2a d7 3c 4e 98 22 3b 4d f5 f5 bb
       0.1574676 0.026265254 0.002481002 -0.007506049
000250 46 6d 1c 3c 41 b8 be bd 89 ea a3 3d b9 35 6c 3d
       0.009547537 -0.093124874 0.080037184 0.05766842
000260 a4 f2 11 3c 87 80 3e 3e 50 b9 07 bc a8 70 17 be
       0.008907948 0.18603717 -0.008283928 -0.14789069
000270 c6 4a 9a 3c 66 7a 1f be 0c d8 1c be d4 c6 a2 bd
       0.018834483 -0.15574035 -0.1531679 -0.0794808
000280 68 be 19 be 8f f0 14 be 81 47 ca bc ac d0 09 3d
       -0.1501404 -0.14544891 -0.024692299 0.03364627
000290 cc bb 03 3c 30 c0 3d 3d 98 c7 de 3c 1d 9f 32 3e
       0.00804038 0.046325862 0.027194783 0.1744351
0002a0 a5 24 1c 3d 11 c1 ee 3c 38 cc cc 3c ba b8 bf 3c
       0.038120884 0.029144796 0.024999723 0.023403514
0002b0 73 52 14 bc 16 e5 cc bb 94 a5 3d 3e 9e 94 4a 3c
       -0.009052861 -0.006252895 0.18520194 0.012364535
0002c0 08 a6 2b 3e 0f f1 cd 3d d3 1d 51 3e 92 56 3b 3e
       0.16762555 0.10055744 0.20421533 0.18294743
0002d0 99 b7 0d be 34 6c 08 be e8 e6 28 be 82 bd 2d be
       -0.13839568 -0.13322526 -0.16494334 -0.16966823
0002e0 29 b1 35 bd 68 67 ea bd e1 87 10 3d 01 9e e2 bd
       -0.044358406 -0.114455044 0.035285834 -0.11065293
0002f0 ce 89 f2 3d 79 79 53 3e 78 5f d0 3d 05 76 97 3d
       0.118426904 0.20651807 0.10174459 0.07395557
000300 20 d4 24 be 8f ca f2 bd 79 8f db bc 09 ee dc 3d
       -0.16096544 -0.11855041 -0.026801812 0.10787589
000310 2c bb 3b 3d 28 fd 90 3d 1d ac 1d be 55 f1 1a 3e
       0.045832798 0.07079536 -0.15397687 0.15131123
000320 4e 87 fb bd fc 8f c9 3d fa 39 0b 3e 97 51 a8 3b
       -0.12281667 0.09841916 0.13596335 0.0051366794
000330 db 8c 03 3e be e7 c0 3d 86 a2 a9 3a 46 e2 38 be
       0.12846701 0.09419201 0.0012942113 -0.18055066
000340 9b 49 f1 bd 72 5b 0f bc 35 21 ef 3d be 36 66 3d
       -0.11781617 -0.00874983 0.116762556 0.05620455
000350 5b 32 75 bc 46 a0 bf bd ed e6 e2 3d 95 f1 b7 3c
       -0.014965619 -0.093567416 0.11079202 0.022454062
000360 f4 79 0e 3e c9 9c 98 3d a8 7d c4 bc 7b eb 2e 3e
       0.13913709 0.074517794 -0.023985699 0.17082016
000370 3e 1e 3b bd 20 d6 39 be 63 1f 93 3d ef ab e5 bd
       -0.045683138 -0.18148088 0.07183721 -0.11214434
000380 0c a3 ce bd d1 80 3a be b8 42 21 be 85 74 f0 bc
       -0.100896925 -0.18213202 -0.15748107 -0.029352436
000390 e7 23 d6 bd f3 8d 91 3d a0 d7 ed bd 6e 8a 37 3e
       -0.104560666 0.07107153 -0.11613393 0.179239
0003a0 27 4b 3b 3e 9b 4c 7e bc e9 8d 93 39 04 2d 4e 3d
       0.18290387 -0.015521194 0.00028143756 0.0503359
0003b0 1f 03 33 bc 3d 3e 36 be 1c f7 07 be 5f 87 95 bd
       -0.010926037 -0.1779718 -0.13277858 -0.073012106
0003c0 5d c3 b6 3d a2 26 7b 3c c4 ae 25 be a4 d3 06 be
       0.08923981 0.015329035 -0.16179949 -0.13166672
0003d0 17 ed 35 3e 49 9d 27 3e 4c b1 1f be 5f 44 2d 3e
       0.17766224 0.16368593 -0.15594977 0.16920613
0003e0 91 82 e6 bc d1 c1 22 3d fc 3d c7 38 9d b3 c4 3d
       -0.02813843 0.03973562 9.500605e-05 0.09604571
0003f0 97 30 18 3e 3f e7 e9 3d e9 a9 80 bd 7d d3 07 bd
       0.14862286 0.1142106 -0.06282408 -0.033160675

conv2.weight f4 [32, 32, 3, 3]
000000 64 52 10 bd b2 14 34 3d 03 ee 1f 3d 10 3d 1a 3d
       -0.035234824 0.04396505 0.039045345 0.03765589
000010 04 e0 68 bc ca 8d a2 3c e0 10 0e 3c 93 22 33 3d
       -0.014213566 0.019843 0.0086710155 0.043734144
000020 ea d9 0a 3d 73 50 a6 3c 88 57 b6 bc 49 a5 9c bc
       0.033899225 0.020302033 -0.022258535 -0.019121783
000030 51 8e 1f 3d 64 44 34 bc aa fa 34 3d 86 54 f2 bb
       0.038954083 -0.011002634 0.044184364 -0.00739533
000040 2e 79 10 bd bc 4d f5 3c 62 f1 4e 3d 8d ba 67 bc
       -0.035271816 0.029944293 0.05052317 -0.014143598
000050 57 ce 0d 3d b6 12 4b bd 34 2a 8e bc 23 ec f2 bc
       0.03462061 -0.04957839 -0.017354108 -0.029653614
000060 7a e8 d6 bb 09 e1 38 3d 4d 64 60 bd 54 2c 6a 3d
       -0.006558475 0.045136485 -0.054783154 0.05717118
000070 67 79 e9 3b a8 0a 1e bd 9c 0d fb bc 31 73 85 3c
       0.007125068 -0.03858438 -0.030646138 0.01629028
000080 4d 05 23 3d 68 f6 3a 3c a0 63 06 bd eb ce e2 bc
       0.039799977 0.011411287 -0.032809854 -0.027686557
000090 cd d7 4a 3d 20 ce 3b 3d 7e da 43 3d 24 6e 50 3d
       0.04952221 0.045850873 0.047815792 0.05088629
0000a0 0a 05 68 3b a0 48 3b 3d 82 44 b9 3c b4 c6 30 bc
       0.0035403394 0.045723557 0.022615675 -0.010789562
0000b0 66 0f 99 bc ec f2 38 bd d6 6a c0 bc 8e 71 03 3c
       -0.0186841 -0.045153543 -0.023488443 0.008022679
0000c0 47 61 a7 bc 4d af ac ba f1 a0 f5 3c d9 65 a9 3c
       -0.020432128 -0.0013174802 0.02998397 0.020678448
0000d0 97 a4 0c 3d 6d ca 5f bd d7 46 a6 3b 61 47 1b 3d
       0.034336653 -0.054636408 0.0050743627 0.03790987
0000e0 36 6c 01 bd f4 ad 52 3b c4 2f 3d bd 59 62 4d 3d
       -0.03159734 0.0032147141 -0.04618813 0.05014262
0000f0 d4 75 4e bd c3 a5 99 3c a8 d6 26 bd a4 2a df bb
       -0.05040534 0.0187558 -0.040732056 -0.006810503
000100 3e 49 28 3d a6 f2 16 bd fd bc 2e bd 71 6f e5 39
       0.041085474 -0.0368525 -0.042660702 0.00043761314
000110 d9 0f fd bc 82 23 23 3d 1f 61 4c bd bc 23 0e bd
       -0.030891346 0.039828785 -0.04989731 -0.034702048
000120 db dc 61 3d c9 84 49 3b 26 74 57 3d 41 d8 2f bd
       0.055142265 0.0030749312 0.052601002 -0.042930845
000130 a5 45 b2 bc 6e 98 db bc 03 c2 e4 3c 57 31 67 bd
       -0.021761725 -0.026806083 0.027924543 -0.05644354
000140 2e 89 e9 bc 78 8a ae 3c 3a 75 43 3d e7 5a 01 3d
       -0.028507795 0.021306261 0.047719218 0.03158083
000150 3c 52 5b bc 84 e6 f6 3c be 57 d0 3c 45 91 61 39
       -0.013386305 0.030139215 0.025432464 0.00021511789
000160 3d fb d3 3c d4 2a 49 bd 4a 05 3c bb 90 84 01 bc
       0.025876636 -0.04911311 -0.0028689676 -0.0079051405
000170 e0 4c 40 bd d2 a9 05 3d e7 78 32 bc 16 bd d3 bc
       -0.046948314 0.032632656 -0.010893083 -0.025847
000180 c9 c1 b5 3c 27 17 11 bd e2 e7 b0 bc 7d ab b7 3c
       0.02218713 -0.03542247 -0.021594945 0.02242064
000190 03 c4 3e 3d 73 4f 67 bd 0d 8b da ba 78 5e 81 3c
       0.04657365 -0.056472253 -0.001667352 0.015792117
0001a0 dd 29 41 3d b9 a8 1e bd 6e 59 89 3c e4 b0 fc bc
       0.047159065 -0.038735125 0.016766276 -0.030846067
0001b0 a8 2f de bc 97 e0 2c bc be 64 5e bd 7d 77 af bc
       -0.027122334 -0.010551593 -0.054295294 -0.021419281
0001c0 4c 7b 72 bb 02 3c d2 bc fd 75 cc 3b d2 1e 0d 3c
       -0.003699976 -0.02566338 0.0062396512 0.008613305
0001d0 56 f2 2e bd c4 52 11 bd 54 22 40 3d 9b ad e4 bc
       -0.04271158 -0.035479322 0.046907738 -0.027914813
0001e0 02 5f 0e bc b1 f8 84 3c ec 22 cd 3c fb 37 08 3b
       -0.008689644 0.016231867 0.025041066 0.002078532
0001f0 fa fa ec bc a3 bb 9a 3c 0a 31 3a bc da 9c f6 bc
       -0.028928269 0.0188883 -0.011364231 -0.03010409
000200 d9 2b 74 bc 56 81 44 3c 2a fc 54 bd 30 8f 6b bb
       -0.014903032 0.011993727 -0.051998295 -0.00359435
000210 7e 1a 3b 3d b6 60 04 3d aa 04 5c 3d 44 c6 19 3d
       0.04567956 0.032318793 0.053715385 0.037542596
000220 ad 40 65 3d 1f f1 92 3c 06 77 59 3c c3 2a 4b 3d
       0.055969883 0.017937241 0.013273006 0.049601328
000230 8e ca ee bb e0 2e 30 bc ca 6e 5c bd a1 8a 45 bd
       -0.00728733 -0.010753363 -0.053816594 -0.04822791
000240 ab 44 32 bd 01 8f dc bb 77 b0 4f bb 6e ac 39 3d
       -0.043522518 -0.0067309146 -0.0031690875 0.045330457
000250 37 1a 6e 3c 99 85 49 bd 3f 6f 18 3d 76 d0 44 bd
       0.014532617 -0.049199674 0.037215468 -0.048050366
000260 fb d9 d3 bc e0 62 27 3d 7d 06 62 bd 7d 38 56 3d
       -0.025860777 0.04086578 -0.05518197 0.052299965
000270 7f 50 33 bd 55 9b b3 bc ec 93 0f bd dc 47 a0 3b
       -0.04377794 -0.021924654 -0.03505318 0.004891379
000280 c7 5e 18 bd 59 ef 80 3b 31 80 3c 3d 05 a8 93 bc
       -0.03719976 0.0039347825 0.04602069 -0.018024454
000290 9b a0 09 ba 06 07 d1 bc 8c 3e 66 3b 17 7e 27 bd
       -0.00052500673 -0.025516044 0.0035132496 -0.040891733
0002a0 22 5a a6 ba d8 db 8f 3c 1a 2f f6 3b 42 d7 10 3d
       -0.0012691657 0.017560884 0.007512939 0.035361536
0002b0 f1 66 23 bd d7 04 59 bd d6 75 a2 3c f2 45 16 bd
       -0.039893094 -0.05298313 0.01983158 -0.0366878
0002c0 71 b5 27 3b 45 1b d4 3c 08 24 5d bd d1 72 51 3d
       0.0025590325 0.02589191 -0.05398944 0.051134888
0002d0 de 8b 43 3d ae b1 5f bc dd ff f8 bc 0f 08 92 3c
       0.04774081 -0.013653202 -0.030395443 0.017826108
0002e0 1f cc 3b bd 67 08 f3 ba 6d 70 c4 3a 3c 79 3c 3c
       -0.045848962 -0.0018541933 0.0014987119 0.011503514
0002f0 6b 90 0f bd 5e 38 b2 3c a7 d8 18 bd 39 ae e3 3c
       -0.035049837 0.021755394 -0.03731599 0.027793037
000300 47 42 0d 3d 10 4c c9 3c 18 a0 87 bb 1b f3 31 bd
       0.034487035 0.024572402 -0.0041389577 -0.043444734
000310 bd da 1d bd cd 8e fb 3c ec ef 88 3b 51 91 09 3d
       -0.038538683 0.030707741 0.0041789915 0.03358585
000320 56 1e 92 3c 9e b4 4e bc b1 e7 b9 3c 9e 4d 47 bd
       0.01783673 -0.012616305 0.022693487 -0.048658006
000330 a5 bc e8 bb e9 67 11 3b 20 38 d0 bc 0d 5b 96 bc
       -0.0071025663 0.002218718 -0.025417387 -0.018353963
000340 b5 6c 67 3c d4 e7 25 bd 3b 2c fb 3c 28 f6 17 bd
       0.014125039 -0.04050429 0.03066074 -0.037099987
000350 e2 4a 64 bd 22 bd c1 3c d0 ab ff bb 70 07 a7 bc
       -0.055735476 0.023649756 -0.007802464 -0.020389289
000360 a1 9e 8f 3a 69 ea 5f bd 3b d0 90 bc c8 89 dc 3c
       0.0010957309 -0.05466691 -0.017677417 0.026921168
000370 2e 4f 4b 3d e1 86 17 bd 2a 81 5e 3d de 55 ad bc
       0.04963606 -0.036993865 0.0543224 -0.021159109
000380 17 8b 2c bd 1f 71 1c bd fe 95 92 3c 92 2c 24 3d
       -0.042124834 -0.03819382 0.017893787 0.040081568
000390 bf 06 22 bb ff aa e6 3c e7 4d 39 3d 72 b7 0d bd
       -0.002472326 0.02815771 0.04524031 -0.034598775
0003a0 5c c4 36 3d 79 08 10 3c cb 08 15 bd d1 39 5e bc
       0.044620857 0.008791083 -0.03638534 -0.013563589
0003b0 4c ed 37 bd 31 8f 66 bd 5c df e9 3c cc 8e 6c bc
       -0.04490404 -0.0562889 0.028548889 -0.014438342
0003c0 be f6 1f bd 41 2f 4c bd d5 2f c0 3c 83 83 ac 3b
       -0.03905367 -0.049849752 0.023460308 0.005264701
0003d0 69 96 7a 3c 09 06 ee bc d5 90 67 bd d0 7d 2e bd
       0.01529465 -0.029055612 -0.056534607 -0.042600453
0003e0 ef 26 f7 bc b5 ba 64 3d 9f 69 6b 3d 4d d6 ee 3c
       -0.030169932 0.05584212 0.057473775 0.029154921
0003f0 6a 16 a6 3c 79 c7 59 3c 09 78 55 3d 2f 32 f8 bc
       0.02027436 0.013292187 0.052116428 -0.030297367

conv3.weight f4 [64, 32, 3, 3]
000000 8d f9 c3 3b dc 27 8c bc 31 ee 1d bd 03 34 c4 bb
       0.0059806765 -0.01710885 -0.038557235 -0.0059876456
000010 da 7d 32 3d 3f 93 72 bc a9 6b 47 bd fa 3d a6 bc
       0.043577053 -0.014805614 -0.048686657 -0.020293225
000020 af 88 1a 3d bc 41 13 bd ac 90 4a bb 26 1a d7 3c
       0.037728008 -0.03595136 -0.0030908985 0.026257586
000030 a4 3d 1a 3d 64 64 87 3a df 02 12 bc 9f ab 25 3d
       0.03765644 0.0010329601 -0.008911817 0.040446874
000040 b6 2e ae 3c 36 9f 0e 3c 38 3f 5b bd ae 15 c6 bb
       0.021262508 0.008704951 -0.053527087 -0.006045065
000050 a5 c1 9d 3b b5 ca 10 3c bf db 00 bc 1b f8 1d 3d
       0.004814344 0.008837392 -0.007864892 0.03856669
000060 33 23 2c bd 10 e1 31 bd a2 35 a6 3b d5 81 a8 3c
       -0.042025756 -0.043427527 0.0050723115 0.020569721
000070 69 fb 1f bc b9 d5 7d 3b 88 13 3a 3c 18 bd fc 3c
       -0.009764531 0.0038732125 0.011357196 0.030851886
000080 90 72 ea 3c 2b 75 1e bd 22 d3 00 3d 39 93 14 bd
       0.02861908 -0.03868596 0.031451352 -0.036273215
000090 b7 3b 51 3d fb dc 52 bd 7c fc 1e bb e2 63 2e 3d
       0.05108234 -0.051480275 -0.002425938 0.042575724
0000a0 8d 46 5f 3c af e1 6f bb 5f e6 0e bd 4a 62 34 bd
       0.01362766 -0.0036603024 -0.034887668 -0.04403905
0000b0 30 39 29 3d 9d 2c 50 3c 0e 54 b2 bb 10 90 6c 3d
       0.041314304 0.012705949 -0.005442149 0.057754576
0000c0 15 33 d7 3c 7f 80 cc bc b7 d3 18 3d 6c bf 0e bd
       0.026269475 -0.024963615 0.037311282 -0.034850523
0000d0 6f ae 63 3d d2 c2 97 bc 86 ef ae 3c 87 53 84 3c
       0.055586275 -0.018525515 0.021354448 0.01615311
0000e0 c2 a3 2e bd 4b 2c 6f 3d 8f ce 44 3d 3f a2 7e 3d
       -0.04263664 0.05839185 0.048048552 0.06216645
0000f0 c1 4f 14 bc c2 51 2e bd b9 1a 20 bd 90 25 8c 3c
       -0.009052218 -0.04255844 -0.039087985 0.017107755
000100 52 22 50 3b cf 43 04 3c 43 39 28 bd 91 b1 c7 bc
       0.0031758738 0.008072807 -0.041070234 -0.024376662
000110 74 31 5f bb 7a 56 dd bc 8c fd 0e 3d c2 e3 89 3c
       -0.0034056576 -0.027018774 0.03490977 0.016832236
000120 cc 42 62 3d 9d ee 89 3d de ee 21 bc 33 46 d2 3b
       0.055239484 0.06734965 -0.0098836105 0.00641706
000130 f3 d5 9a 3d f7 cc 4a 3d a6 da 90 3d b1 9e 77 3d
       0.07560339 0.049511876 0.07072954 0.060454074
000140 18 62 a9 3d 38 94 8b bc f6 d7 c9 3c d3 e9 5e 3d
       0.08270663 -0.01703845 0.024639111 0.05442221
000150 d4 ea 0c bd 65 ba 09 3c d4 f5 89 3d 32 e6 a3 3c
       -0.034403637 0.008406256 0.06736341 0.020007227
000160 ec 79 f4 bc 1c 95 10 3d 37 14 12 bd 67 ba 89 3c
       -0.029843293 0.03529845 -0.03566381 0.016812516
000170 38 77 1a bd 9b 0c 54 bd f4 bc e9 bb b9 2b 8c 3c
       -0.037711352 -0.051769834 -0.0071331207 0.017110692
000180 2f f2 23 bc f2 13 1d bd 11 c0 08 3d d6 2d 49 3d
       -0.010006472 -0.0383491 0.033386294 0.04911598
000190 5f a9 1b 3d 9f 8e 90 3c 24 03 9c bc f2 d9 a6 bb
       0.03800332 0.017646132 -0.019044466 -0.005091899
0001a0 1a bf 31 3c 03 a8 99 bc 59 8d 89 3d d0 06 3d bd
       0.010848785 -0.018756872 0.06716413 -0.046149075
0001b0 c6 c5 7d bb 7e a5 87 3d 34 9c 31 bc e2 dd 58 3d
       -0.0038722618 0.06623362 -0.010840464 0.05294598
0001c0 4d 7f 37 3d 26 34 e1 bc 88 94 a4 bc 4c 90 0b bc
       0.044799138 -0.027490687 -0.020090356 -0.00851829
0001d0 ad 23 51 3d 74 bc 31 3d 5e 92 a3 3d 15 ae d7 3c
       0.051059414 0.043392614 0.07986902 0.026328126
0001e0 d5 0c c0 bc 5a c8 a8 3d 39 ca 5b 3c fa ce 2d 3b
       -0.023443619 0.08241339 0.013414913 0.0026521073
0001f0 95 ce 5b 3d 41 a3 6e 3d e4 fa c2 3c 0f 15 cd 3c
       0.05366381 0.05826116 0.023801275 0.025034456
000200 e3 2b 60 bd d5 3c 59 bd e5 6e b4 3c 4a 8b 55 3d
       -0.054729354 -0.05303653 0.022025535 0.05213479
000210 1c 2f e5 bb 07 ee 16 bd 18 4d 89 3c 94 ef 50 3c
       -0.0069941413 -0.036848094 0.016760394 0.012752432
000220 64 fe 2c 3d aa 60 e0 bc 68 42 0d 3d e0 ec 80 3d
       0.042234793 -0.027389843 0.034487158 0.0629518
000230 50 fe 14 3d b3 ac 89 3d 1b 5f 17 bd 7c d1 dd 3b
       0.036375344 0.06722393 -0.036955934 0.0067693572
000240 0e a1 d0 bc 61 33 ad bc db db 29 3c 80 5c bf 3c
       -0.025467422 -0.021142663 0.010367359 0.023359537
000250 a4 3b 6b bc b4 3c da bb c0 b3 fc 3b be 5c 49 3d
       -0.014357481 -0.0066600684 0.0077118576 0.04916071
000260 d4 1d f3 3c 3e 90 09 3d 3c a6 ea ba 02 50 f6 3c
       0.02967731 0.033584826 -0.0017902325 0.030067448
000270 ae 49 69 3c 8f 45 46 bc ee 6e 88 bc 61 19 0b 3d
       0.014238758 -0.012101545 -0.016654458 0.03395975
000280 4c 52 9c bc 10 e6 9f bb f8 99 0c bc 97 b7 87 3b
       -0.019082211 -0.0048797205 -0.008581631 0.0041417587
000290 90 d1 b6 bb a2 a7 3f 3d 34 68 40 3d 85 a0 ac 3a
       -0.005579181 0.046790726 0.046974376 0.0013170397
0002a0 4d 98 63 bb c4 fd 18 3c c9 77 52 3b 96 48 85 3b
       -0.003472823 0.009337846 0.0032114855 0.004067491
0002b0 29 2f 00 3b cd 8e 29 3d 28 0e fc 3b 0e ce 5c 3c
       0.001955936 0.04139595 0.0076921172 0.013476862
0002c0 e6 77 29 bd 6b 9a 74 3c 48 29 a0 3c 7e e6 00 3d
       -0.04137411 0.014929394 0.019550934 0.031469814
0002d0 99 ab 01 3d 90 20 9a bc 21 05 51 3d 06 e8 7e 3d
       0.03165779 -0.018814355 0.051030282 0.062232994
0002e0 d4 cd 17 3d 39 ab 87 3d de e1 35 3d f5 a0 80 bc
       0.037061527 0.06624455 0.044404857 -0.01570175
0002f0 58 6c 4d 3c 56 9b 3e 3d 01 49 0b 3d 14 9d 17 3d
       0.012538038 0.04653486 0.03400517 0.037015036
000300 8b d7 fe 3c db c4 c9 3c 70 c0 93 3a bf 1c 35 bc
       0.031108638 0.02463 0.0011272561 -0.011054217
000310 d5 54 6f 3d 18 bf 4b 3c 17 d9 83 3c 97 a6 98 bb
       0.05843051 0.012435697 0.016094727 -0.004658531
000320 79 04 85 3d 70 09 3a 3d 5b a1 9c 3c 06 a3 42 3d
       0.06494994 0.045419157 0.019119909 0.047518753
000330 d9 98 23 bb 09 4c 40 3d 7f 22 48 3d ff b8 4d 3c
       -0.002496293 0.046947513 0.048861023 0.012556314
000340 53 03 ac 3b bc 1f 34 bd e7 63 09 3a 71 71 3b 3d
       0.0052494197 -0.043975577 0.0005241022 0.045762483
000350 7d e6 0a bd e2 ca 2b 3c 52 e4 bc bc ec 18 3e bd
       -0.033911217 0.010485383 -0.02305809 -0.046410486
000360 aa f2 1b 3d 8f a6 76 3d f1 8b 77 3d 84 cd 5b 3d
       0.03807322 0.060217436 0.060436193 0.05366279
000370 ef 5d 2b bc a4 fd 34 bd d9 ef 7e 3d 3c c9 50 3d
       -0.010459407 -0.044187203 0.062240455 0.050973162
000380 01 f5 03 3d 09 54 26 bc cd e5 80 3c c0 92 af bc
       0.032216076 -0.0101518715 0.015734578 -0.02143228
000390 58 cb 99 3d 10 9f b9 3c 8b 40 5a 3d 0b ee 35 bc
       0.07509488 0.022658855 0.05328421 -0.011104117
0003a0 bb 1a 0a 3d 54 cd 19 bd c7 83 a2 3c 8f e4 8b bc
       0.0337169 -0.03754933 0.019838227 -0.017076759
0003b0 51 c6 b8 bc 28 4f 2d 3b 42 fc ad 3d 1c e0 ad 3d
       -0.022555502 0.0026444886 0.0849538 0.08490011
0003c0 10 2b d2 3c 2c 6f 89 3d 11 73 3e 3d d6 9b 7d bc
       0.0256553 0.067106575 0.046496455 -0.015479049
0003d0 52 37 86 bb 6c 76 88 3b b6 c8 eb 3c bb d2 6e 3d
       -0.00409595 0.0041645076 0.02878223 0.058306437
0003e0 09 9f 8a bc 06 79 1d bd 53 ad 96 bc e4 02 06 bd
       -0.016921537 -0.038445495 -0.018393194 -0.0327176
0003f0 88 c9 cb 3c e4 c5 3b bc 9f 78 fc ba f3 c5 5c 3d
       0.024876371 -0.011460755 -0.0019262022 0.053899717

conv4.weight f4 [64, 64, 3, 3]
000000 24 32 9b bc 97 f1 06 bd 2b b6 e2 bc 0a 71 e8 ba
       -0.018944807 -0.03294524 -0.027674755 -0.0017733884
000010 ed c3 c6 3c f5 38 19 3d 0f 19 8e 3b 8e 47 c9 bc
       0.024263347 0.037407834 0.0043364833 -0.024570253
000020 b1 21 b0 3c ba b6 21 bc aa 4e e0 bc bc 14 c9 3c
       0.02150044 -0.009870226 -0.02738126 0.02454602
000030 16 f8 09 bb 8f fb 4c bc 97 8e e5 bc 8b 1e dd 3c
       -0.0021052412 -0.012511148 -0.028022094 0.026992103
000040 de 1d 71 3c 43 c7 f1 bc 9c f9 83 3c 1e f5 38 bc
       0.014716594 -0.02951396 0.016110234 -0.011288909
000050 06 ad 14 3d 58 c5 1d 3d 4b a4 f4 bc 7e d4 0b 3d
       0.03629782 0.03851828 -0.029863497 0.034138195
000060 24 56 9e 3c e7 eb 25 bd 8b 16 bc bc 49 a7 52 bc
       0.019328184 -0.040508177 -0.022959968 -0.012857267
000070 65 e4 fc bb 01 33 52 3c 4d 0d 21 bd 47 7f e6 3c
       -0.0077176564 0.012829543 -0.039319325 0.028136862
000080 a2 99 79 bc b5 a5 8f bb b1 3f b7 bc a2 e8 94 bc
       -0.015234383 -0.0043837675 -0.022369238 -0.018177334
000090 06 58 6e bb b0 5a 18 3d 08 19 9e 39 dd a2 07 3d
       -0.0036368384 0.03719586 0.00030154758 0.033114303
0000a0 59 4f ba bb 00 ef 22 3d f0 41 03 bd 45 e4 fc 3b
       -0.0056857285 0.03977871 -0.032045305 0.0077176415
0000b0 19 15 a2 bc fe 6d 83 bc 6a c1 0c bd e1 5a 80 3c
       -0.01978545 -0.01604366 -0.03436414 0.015668334
0000c0 57 0f ce bc 61 6f c8 3c 07 db 60 bb 1b ee 1d bd
       -0.025153799 0.024467172 -0.0034310238 -0.038557153
0000d0 02 23 18 bd 4e 40 dc 3c 92 d8 e5 bc 02 79 5b bc
       -0.03714276 0.026886132 -0.02805737 -0.01339555
0000e0 18 8d 0d bd 6a f1 49 bc cc 2d 29 3d ce 3e ea 3c
       -0.034558386 -0.012325624 0.04130344 0.0285944
0000f0 6a cf 16 3d 5e 22 d6 bc d3 13 15 bd 42 72 89 bc
       0.0368189 -0.026139434 -0.03639586 -0.016778115
000100 60 62 71 bc 2f 55 a7 3c 77 65 25 3d 36 9c 00 3c
       -0.014732927 0.02042636 0.040379968 0.007849744
000110 98 47 82 3c eb af 7b b8 a4 e2 5a bc 25 2c e3 bc
       0.01590328 -6.00069e-05 -0.013359699 -0.02773101
000120 dd 6d 9c 3c 3d c6 c7 bc 53 46 03 3d ac 2a 5f bc
       0.019095356 -0.02438652 0.03204949 -0.013621014
000130 6d 0f 42 bc 81 31 05 3d 0e 39 24 3d 86 4d 52 3c
       -0.011844498 0.032517914 0.040093474 0.012835866
000140 86 99 0b bd 06 7e 12 3c 24 f5 5e b9 b9 73 b2 bb
       -0.03408196 0.008941179 -0.00021262892 -0.005445924
000150 98 9e 1f 3d e0 61 12 bd ed 2c f5 bc 2c 35 23 3b
       0.038969606 -0.035737872 -0.029928649 0.002490352
000160 08 05 d7 3c 59 c0 df 3c 38 dc b9 3c f8 1b 64 3c
       0.026247516 0.027313398 0.022688016 0.013922684
000170 53 43 cb bc 83 c0 d2 bc 2a 9d c6 3c 69 0d 78 3c
       -0.024812376 -0.025726562 0.024244864 0.015139916
000180 3e c0 94 bc ce 17 04 bd 8d e4 ba bc 0b 6b b7 3a
       -0.018158074 -0.032249264 -0.02281406 0.0013993693
000190 c7 ec d7 3c 4d 42 24 3d 12 e3 3a bc 7c 3d eb 3c
       0.026358021 0.04010229 -0.011406677 0.028715841
0001a0 c0 38 18 bd 1d 8e a7 3c 96 5b f2 3b 05 ad ff bc
       -0.037163496 0.020453507 0.007396172 -0.031210432
0001b0 da 92 11 3d 9f 05 16 3c d1 ad 9a bc c4 73 8a 3c
       0.03554044 0.009156614 -0.01888171 0.016900904
0001c0 8c 53 c4 3c 3b 75 81 3c 3a d2 9a 3c 05 5a e7 bc
       0.02396562 0.01580297 0.018899072 -0.028241167
0001d0 6b 3b a6 bc 67 2e 06 3d da b6 3b bc 47 b9 76 bb
       -0.020292005 0.032759096 -0.011457169 -0.0037647055
0001e0 1e 96 1e bb 18 02 80 3c f2 fd 11 bd c4 55 b7 3c
       -0.0024198364 0.015625998 -0.03564257 0.022379763
0001f0 07 3c 20 3d 5b 71 45 3c 4a b6 ab bb 9e 8b 85 bc
       0.039119747 0.012050952 -0.0052402364 -0.016301926
000200 80 68 46 ba bc 2d 62 ba 76 79 e0 3c 4f ed cf 3c
       -0.00075686723 -0.0008628031 0.027401667 0.025381712
000210 4d b9 50 bb e9 65 09 3b 8f 5e 3e 39 fc 82 fd bc
       -0.003184873 0.0020965284 0.00018155038 -0.030946247
000220 ae 45 bf 3c 67 8d c1 b9 bb 63 1b 3c d0 b1 03 bb
       0.023348656 -0.00036917182 0.009484227 -0.0020094998
000230 54 9c 3e bb 98 de 34 3d 5e 8c 17 3d 67 4a fb 3c
       -0.0029084878 0.044157594 0.0369991 0.030675126
000240 d7 76 c2 3c 2d 9e d5 bc aa e2 2c 3c db 55 5c bc
       0.023738308 -0.0260764 0.010552088 -0.013448204
000250 2e 70 89 3c 13 1c a8 3c 3a 4e 96 3c c2 d7 6d bc
       0.016777124 0.0205212 0.018347848 -0.014516773
000260 7b da 43 bc 25 2e a4 3c b7 90 0f 3d 54 34 cf bc
       -0.011953945 0.020041535 0.03505012 -0.025293507
000270 47 a8 10 3d 22 95 01 bd 3d d6 17 3d fb e0 0c 3c
       0.03531673 -0.031636365 0.037069548 0.008598561
000280 3c 3c c1 bb b4 3d 10 3d 21 7b 1a 3d ae 0a df bc
       -0.005897073 0.035215095 0.03771508 -0.027226772
000290 12 28 a7 bc 57 31 32 3c f2 2e 09 bd 3a db 9c bc
       -0.02040485 0.010876021 -0.033492036 -0.019147504
0002a0 43 ca 9a bc e9 28 93 3c 26 8c 91 3c 21 fa 16 bd
       -0.018895274 0.017963843 0.017767023 -0.036859635
0002b0 a5 52 0a 3d a0 58 1a 3c 80 69 ce bc e8 6f 10 bd
       0.033770222 0.009420544 -0.02519679 -0.035262972
0002c0 98 c0 dc 3b 3e a9 ad bb 23 dd ce bc 8b b2 c4 bb
       0.006736826 -0.0052997163 -0.02525193 -0.0060027293
0002d0 5c f2 ee 3c c9 e9 17 bd ce 0c c7 3b a6 e2 e8 3c
       0.0291683 -0.03708819 0.0060745245 0.028428387
0002e0 d6 7e 21 bc 05 57 02 3c 6f da 83 bc b1 0c 08 3d
       -0.0098569 0.007955317 -0.016095368 0.03321523
0002f0 52 25 0c bd bc 7d a9 bc cf 4e 14 ba 32 6d 14 bc
       -0.03421528 -0.020689838 -0.00056574953 -0.009059237
000300 f2 63 a7 bc ad 35 70 ba 85 b4 c1 bc 7c ee b2 bc
       -0.0204334 -0.0009163272 -0.023645649 -0.021842234
000310 11 b9 90 3c f0 b0 63 bc 00 37 55 3c 57 80 ff bc
       0.017666372 -0.013897166 0.013013601 -0.031189127
000320 88 49 4d bc 39 77 fa 3b b4 41 4d bb a8 1e 40 bb
       -0.012529738 0.007643607 -0.003131968 -0.0029315148
000330 87 03 91 3a 0c 52 61 bc ac 46 9f bb ac 5e 97 bc
       0.0011063673 -0.013752472 -0.0048607197 -0.01847776
000340 1f 9f d9 3c a0 9b 1c bd 26 53 c2 3c e5 c4 1a 3d
       0.026565133 -0.038234353 0.023721289 0.03778543
000350 51 85 29 3d c2 d0 b7 bb 83 1f 25 3b ab f0 d1 bc
       0.041386906 -0.0056096027 0.0025195784 -0.025627455
000360 78 35 44 bc e2 55 73 bb 9f 2f 27 3d 3d fc 1a 3d
       -0.011975639 -0.0037130048 0.0408169 0.03783821
000370 e5 ca a7 3c 63 a6 6a bc e2 91 1a bd ab c5 3a bc
       0.02048249 -0.014321896 -0.03773678 -0.011399667
000380 ae 72 16 3d b4 5a ad 3c f6 29 83 b9 1f 61 05 3c
       0.03673046 0.021161415 -0.0002501753 0.008140831
000390 78 ab e9 bb ce 72 20 bd 33 a3 3e 3c e0 b4 09 bd
       -0.0071310364 -0.039171986 0.011635589 -0.03361976
0003a0 42 ef 2a 3c 67 7f 64 bc e9 b4 11 bd 7d da 93 bc
       0.01043302 -0.013946391 -0.03557292 -0.01804852
0003b0 2e 7f 93 3a 60 78 04 3d be c6 bb bc 0e 53 50 bc
       0.0011253112 0.03234136 -0.022921916 -0.012715114
0003c0 bd b9 d6 3b a1 5d 0e bd 1b d3 71 bc 49 8c 5e bc
       0.0065529034 -0.03475726 -0.014759804 -0.013583251
0003d0 72 c6 1c bd 9c 21 1d 3d 1e dd b6 3c 47 02 05 3d
       -0.03827519 0.03836213 0.022322234 0.032472875
0003e0 1e fe 02 3d 91 41 60 3c 9e 3f 8c bc 17 9d 25 3d
       0.031980626 0.013687507 -0.017120179 0.040433016
0003f0 bc c8 e1 3c f2 6f 94 3c fe fb 71 3c 67 59 27 3d
       0.027561538 0.018119786 0.014769552 0.040856745

fc1.weight f4 [2, 64]
000000 83 2b 21 be 3c a7 21 be e0 68 2b 3e 87 ea 8b 3b
       -0.15739255 -0.15786451 0.16739225 0.004269901
000010 3c 34 38 3e 21 89 2f 3e 96 c2 6e bd 75 9f a7 bd
       0.17988676 0.17142154 -0.05829104 -0.08184711
000020 46 25 33 3c fe ba 1b be 6b 5b 95 3d 27 49 15 3c
       0.01093418 -0.1520805 0.07292827 0.009111679
000030 6e bf f0 3d 11 f0 a1 3d 48 7b 27 bd 9c 62 21 3e
       0.11755262 0.07907117 -0.040889055 0.15760273
000040 94 4c d7 bd ef 8f 2b be b6 46 0a 3e c1 14 09 3e
       -0.10512653 -0.16754125 0.13503537 0.13386823
000050 ae 4b 07 3e 1a c7 02 be 82 7e c8 3c f1 d6 e5 3d
       0.13212463 -0.12771264 0.024474386 0.112226374
000060 24 1e bd bd f8 91 6f bd 5f 9f 37 be 29 3a 7b bd
       -0.092342645 -0.058488816 -0.17931889 -0.061334763
000070 99 9d 73 b8 20 a8 1c be 34 24 fe bc 0c 3e 8f 3d
       -5.808249e-05 -0.1529851 -0.031023122 0.069942564
000080 26 b2 39 bd e8 e0 ac bd c2 35 2c be 9f bb 09 3d
       -0.04533591 -0.08441335 -0.16817382 0.033626195
000090 88 5f f6 bd 97 a7 2f be c1 8b 78 3c 97 0e 0c bd
       -0.1202994 -0.17153774 0.015170039 -0.0341936
0000a0 4f 40 05 3e 3c e6 39 bd bd 0b eb 3d fa 9b 08 be
       0.13012813 -0.045385584 0.11476848 -0.1334075
0000b0 a2 d7 80 3d da bb 9e 3d 02 94 87 bd 9d bf 28 bd
       0.06291129 0.077506736 -0.06620027 -0.04119836
0000c0 a1 fe b7 bd b8 1e 15 3e 95 0e 9c bd 9c 53 eb bd
       -0.089841135 0.145625 -0.07619969 -0.114905566
0000d0 22 1a 23 3e 51 db 2b 3e 86 e8 b2 3b d1 22 e5 bd
       0.15927938 0.16782881 0.005459848 -0.11188281
0000e0 e8 8f d2 3c 0c 47 13 3e 67 af cc bc 40 7d 10 3b
       0.025703385 0.14382571 -0.024985982 0.002204731
0000f0 4f 3f 3d 3d 71 8a 62 bb 32 86 d6 bd 5d 3b 0e be
       0.046202954 -0.003456738 -0.104748145 -0.13889833
000100 1f d9 d5 3d 8e ad 7d 3d d4 8f a4 bd 40 ea 00 3d
       0.10441803 0.061933093 -0.080352455 0.0314734
000110 5d 7b 27 be a0 6e db bd a1 fc cf bd 1f 65 a4 ba
       -0.16355653 -0.107144594 -0.10155607 -0.0012542343
000120 35 60 0b be 95 7b db 3d 67 e9 88 bd c0 ec bb bd
       -0.13610919 0.10716931 -0.06685143 -0.09176016
000130 89 bd 12 3d 04 0c 02 bd d9 95 04 3e 5c 30 03 be
       0.035825286 -0.03174974 0.12947787 -0.12811416
000140 ad 05 42 bd 60 03 a7 3d 0e 81 05 bc e4 20 d0 3c
       -0.047368694 0.081549406 -0.008148445 0.025406308
000150 1f 56 cb 3b 1b 7c f0 3c 06 ec f4 bd 71 72 a1 bb
       0.006205335 0.029356053 -0.119590804 -0.0049269726
000160 f5 e8 f9 bd e3 a8 b9 3d 68 ad fe 3d d5 d3 1a 3d
       -0.12202636 0.09065416 0.12435418 0.037799675
000170 77 95 ca 3d e7 34 ca 3d 60 75 9e bd a9 d8 ca bc
       0.098917894 0.098733716 -0.07737231 -0.024761515
000180 db 77 15 3e 95 ce 71 bd 9f 79 d7 3d 08 3d 86 bb
       0.14596502 -0.059034903 0.10521244 -0.004096631
000190 cc 2b ca bd 42 4f 1d 3e 66 2c c8 bd fc 99 15 3e
       -0.09871635 0.15362266 -0.09774093 0.14609522
0001a0 b3 54 c6 3b cf 07 6f 3d 04 4d 9a bd fb a3 79 bd
       0.0060525774 0.058357056 -0.07534221 -0.0609474
0001b0 e7 08 25 be 5e a2 1c bd 05 d2 80 bd d8 66 11 bd
       -0.16116677 -0.038240783 -0.06290058 -0.03549847
0001c0 2a 9e c9 bd a9 ec a5 bd 26 4f 86 3d 98 34 d7 3c
       -0.098446205 -0.0810178 0.06558065 0.026270196
0001d0 b1 b8 14 3d 37 70 95 bd ca d3 fc bd 45 a5 cf b9
       0.036308948 -0.07296794 -0.12345083 -0.00039605252
0001e0 f4 a1 1a 3e fb 3e a0 bd cc bd e0 3d cc 34 b5 3c
       0.15100843 -0.078245126 0.10973701 0.022119902
0001f0 60 87 ff 3d 0d 34 12 be 52 13 6a 3d d2 1e 3f bd
       0.124769926 -0.14277668 0.05714733 -0.046660252

fc1.bias f4 [2]
000000 6c d1 2a 3d f1 45 c5 3d
       0.041703627 0.09632481

fc2.weight f4 [64, 2304]
000000 61 55 ec bb e0 75 84 b9 67 89 35 3c 6c e6 79 3c
       -0.0072123264 -0.00025264826 0.011080123 0.015252691
000010 10 26 6e bc 52 79 04 3c 90 e2 43 bb 29 cf 4b 3c
       -0.014535442 0.008085566 -0.002988968 0.012439528
000020 1d 8c 95 3a 83 9c b4 3b 3d 13 98 3c 97 80 51 bb
       0.0011409555 0.0055118217 0.018563861 -0.0031967515
000030 9a 59 77 bc 6f c2 ed 3b ec 1c 36 bb 3e 92 23 3c
       -0.015097046 0.0072558443 -0.0027788235 0.009983597
000040 f5 6c b8 bc 97 dd 12 bc ed fe 2e bb 63 4a 91 bc
       -0.022512892 -0.008963964 -0.002670224 -0.017735666
000050 03 e0 52 3b b5 9f dc bb 21 ff 8f bb c6 98 dc ba
       0.0032176978 -0.0067329057 -0.0043944274 -0.0016830198
000060 f1 90 25 3c c6 97 5b 3c 38 7b c4 3c 7e a7 57 3c
       0.0101053575 0.013402885 0.023984537 0.013162492
000070 fa 34 18 bc a5 01 41 bc 2a 4b a2 3c e9 97 a1 bb
       -0.009289974 -0.011780177 0.019811232 -0.004931439
000080 95 9e 6e bc 9b f0 03 bc 7a 9a 88 bc 5e 27 a4 3c
       -0.014564176 -0.00805297 -0.016675223 0.020038303
000090 41 45 56 bc a0 63 b6 3b 41 95 68 3c bc e2 e0 bb
       -0.013078035 0.0055660754 0.014195741 -0.0068629663
0000a0 03 88 92 3c 2c b1 9b 3b 38 f9 81 3c 1c a7 14 3c
       0.017887121 0.004751345 0.015865907 0.009073045
0000b0 a4 ac fc 3a c7 7b 9f bc 76 c3 c4 3b dd 87 73 bc
       0.0019277525 -0.019468201 0.006004746 -0.014863935
0000c0 18 bf 1d bc 66 a2 13 bc b2 eb 96 3c 5e 0f 59 bc
       -0.00962808 -0.009010887 0.018422935 -0.013248293
0000d0 ea e0 12 bc e9 97 06 bc fc ce 5a bc 86 f9 f7 bb
       -0.0089647565 -0.008214929 -0.013355013 -0.0075675873
0000e0 bd db 6a 3c d5 b6 55 3c 3e 51 08 bc cf c9 42 3c
       0.014334616 0.013044079 -0.008320151 0.011888935
0000f0 8f 4a 8d bc 2c e5 a7 3c 9a 5a 28 bc 84 b6 19 bb
       -0.017247466 0.02049502 -0.010275507 -0.0023454735
000100 c6 f9 a9 3c 90 13 a5 bc dc 7f 29 bc 2d 2a 64 bc
       0.020748984 -0.02015093 -0.010345425 -0.013926071
000110 35 8f 63 bc 7a 60 f6 bb a3 fc 3e 3c c7 87 e0 3a
       -0.013889124 -0.007518825 0.011656913 0.0017130309
000120 aa d3 6d 3c a8 02 7c bc 9d c4 00 bc db 9d 37 3c
       0.014515797 -0.015381493 -0.007859376 0.011207069
000130 6b b3 e3 3b ed 52 01 bc d6 b6 13 3c 7c 12 3a 3c
       0.0069488785 -0.007893306 0.009015759 0.011356946
000140 97 45 0f bc 29 cb 40 bc 83 d8 b2 3b e2 95 58 bc
       -0.008744619 -0.011767187 0.005457939 -0.013219329
000150 ec b8 0a 3a b4 e3 66 bc 9b f2 87 bb d3 d4 59 bc
       0.0005291838 -0.014092375 -0.004148794 -0.01329537
000160 51 2f 1e bc 47 9a 7e 3c 5e c4 9e 3c 5d 55 d4 bb
       -0.009654836 0.015539712 0.019380745 -0.0064799027
000170 05 ae 7b 3c 71 33 e3 bb 26 0e 0c 3c 8a 32 85 3c
       0.015361314 -0.0069336225 0.008548295 0.01625945
000180 4b a4 ec bb 3e ab 92 bc 60 cc b7 3c d0 96 7f 3c
       -0.0072217337 -0.01790392 0.02243632 0.015599921
000190 21 e9 ea ba 58 53 22 bc e9 e2 00 3c 51 b6 95 3c
       -0.0017922261 -0.009907566 0.0078666 0.018275412
0001a0 63 52 90 bc da 19 25 3c 35 0a 94 3b 9a 7b 96 3c
       -0.01761741 0.010076964 0.0045178183 0.018369485
0001b0 61 8e 07 bc a9 71 04 3b 57 69 90 ba 47 8e 6c 3c
       -0.008273692 0.0020209348 -0.0011017722 0.014438218
0001c0 37 c2 0b 39 98 9c 7d bb e5 5b b1 3b 8a 92 8c 3c
       0.00013328424 -0.0038698073 0.005412566 0.017159719
0001d0 3a 0f 98 bc a2 1c 86 bb 1a b2 97 bc 16 84 03 3b
       -0.018561948 -0.0040927688 -0.018517543 0.0020067743
0001e0 7c b4 c3 bb 18 6a cb 3b 1a 78 6e bc 2d 81 4e bc
       -0.005972443 0.0062077157 -0.014555002 -0.01260404
0001f0 8b b8 61 bc 55 a9 2f 3c 5c 26 92 3c f8 e4 9c bc
       -0.013776909 0.010721524 0.017840557 -0.01915215
000200 93 3a 16 3c 7f 7c bb 3b 55 2d 0d 3c ba 68 72 bc
       0.009169239 0.005721628 0.008616765 -0.014795477
000210 c4 93 30 bc ae c2 01 3c 25 9a ee 3a 53 96 b5 bb
       -0.010777418 0.00791995 0.0018203898 -0.0055416017
000220 b1 c5 5c 3c be 05 71 bc 8f fc 68 bc 55 d9 95 bc
       0.013474868 -0.014710842 -0.014220371 -0.018292109
000230 a8 5b 82 3c 6d 7d e6 bb 06 b3 12 bc 55 f4 59 bc
       0.015912846 -0.007033995 -0.008953815 -0.013302882
000240 fe 8f a3 bb 2d c8 16 3c 7b b0 01 3c 31 13 9c bc
       -0.0049915304 0.009202999 0.007915611 -0.01905212
000250 51 55 15 3c d5 8a 6a 3c b1 88 96 bc 0a 37 94 bc
       0.009114579 0.014315327 -0.018375726 -0.01809265
000260 b5 68 1a bc 51 df 04 bc 57 7b ce 3b ae 51 5f bc
       -0.009424378 -0.008109883 0.0063013243 -0.013630314
000270 ec c8 17 3c 5a 50 39 3c 4f 23 f9 bb 7f 18 0a bc
       0.009264212 0.011310661 -0.007603086 -0.008428692
000280 46 04 f1 ba b1 3e 6d 3b 4d 17 92 3b e4 16 5d bc
       -0.0018388114 0.0036200697 0.004458344 -0.013494227
000290 7b 5c b1 ba 9b 62 89 3c e4 c9 78 bc 50 39 8c bc
       -0.001353159 0.016770652 -0.015184853 -0.017117172
0002a0 48 69 9e 3c 5d 15 90 bc 35 e6 02 bb 8a ce 4c 3a
       0.019337311 -0.017588312 -0.001997364 0.0007812759
0002b0 f4 fa 1d bc 66 72 4c bb 79 a5 83 3c fb 01 8e bc
       -0.009642351 -0.0031196116 0.016070114 -0.017334929
0002c0 57 5a 4f bc 6b 7a 5f 3c f7 3c 3b 3c 55 01 82 3c
       -0.012655816 0.013640027 0.011428109 0.015869776
0002d0 41 9f 16 bb f4 6b 0e 3c 6f f8 84 3c 5d f4 10 3b
       -0.0022983106 0.00869273 0.016231744 0.0022118308
0002e0 9d d7 34 3c d1 1a 22 bc 5e 28 92 bc 81 35 ba bb
       0.011037734 -0.009894089 -0.017841514 -0.0056826477
0002f0 8a f2 69 bc 8d 36 32 bc 02 99 b3 bc 1e 88 82 3b
       -0.014279017 -0.010877264 -0.021923546 0.0039835116
000300 63 3a 59 bc 85 7b da bc 67 b7 2d bc 72 a8 f8 bc
       -0.013258549 -0.026670227 -0.010602809 -0.030353758
000310 5f ae 94 bc 6f b5 89 bb 67 d1 0e 3c f7 0c 08 3c
       -0.018149553 -0.004202537 0.008716918 0.008303872
000320 fa a2 82 3c 59 1c 90 3b cb 15 45 bc f1 a3 84 3c
       0.015946854 0.0043979106 -0.012029122 0.016191455
000330 30 8a 96 bc 69 f4 82 3c b7 66 fc 3c df 6b 39 3c
       -0.01837644 0.015985684 0.030810697 0.011317222
000340 7d 45 bb 3c 1b e5 ea 3a 6d f0 55 bc 36 07 8c 3c
       0.022860283 0.0017921062 -0.01305781 0.017093282
000350 a8 2c d4 3b 47 86 a8 bb 21 a2 d1 3b 41 1c 19 bb
       0.00647505 -0.00514296 0.006397501 -0.0023362788
000360 94 83 cc b9 dc 60 18 3c c4 26 b5 3b f4 6d 3e bc
       -0.00039007945 0.009300437 0.005528303 -0.011622895
000370 d8 7e 75 3c be 83 0a 3c fc e7 7d bc ba 00 8b 3c
       0.014983855 0.008454261 -0.015497204 0.01696812
000380 3c 68 ac bb 7e a9 96 bc 17 4b 33 3c 28 a8 cf 3a
       -0.005261449 -0.018391367 0.010943196 0.0015842961
000390 17 9f c8 3b 2a fa 6e bc 50 c4 ca bb 7f a6 38 ba
       0.0061224806 -0.014586011 -0.006187953 -0.0007043853
0003a0 37 07 1f bc f4 6f 19 bc 6a ee 10 3c 6e 62 27 bc
       -0.00970631 -0.009365071 0.008845905 -0.010216339
0003b0 e2 78 3f bc f1 25 9f bc a4 fc a4 bc aa 23 32 bc
       -0.011686536 -0.019427272 -0.02014 -0.010872761
0003c0 cb 47 12 3c 57 7a 3a bc 1b 5c 8d 3c d2 bb 31 bc
       0.00892825 -0.011381707 0.017255833 -0.0108480025
0003d0 0d b8 a1 bb f8 fc 9b 3c 11 8a a9 3b 97 bc 98 3c
       -0.0049352706 0.019041523 0.0051739295 0.018644614
0003e0 a2 69 56 bb 2d 16 91 3c 38 bc af 3b 9b 56 db 3a
       -0.003271677 0.01771077 0.0053630136 0.0016734184
0003f0 72 a5 6a bc ee 85 4f bc 3d fe c7 3b 44 38 6d 3c
       -0.014321672 -0.012666209 0.0061033056 0.014478747

fc2.bias f4 [64]
000000 2c e9 04 bc cc c9 2a 3b 2e d3 38 bc 98 d5 18 bb
       -0.008112233 0.0026060222 -0.011280818 -0.0023320671
000010 9c 52 e8 3c 21 d8 89 3b 21 80 56 bc 94 ec 24 3c
       0.028359704 0.004206673 -0.013092072 0.01006617
000020 ea 2e 06 bc d7 2d 98 bc 07 0a a3 bb 25 bf 48 3c
       -0.008189896 -0.018576546 -0.0049755606 0.012252604
000030 ee 78 49 bc 40 db 29 3c 42 0c 76 bc b5 29 a5 3b
       -0.012296898 0.010367215 -0.015017571 0.0050403723
000040 a3 4d 0f bc 5a f3 db bc 7d fd 83 3c 4b 4d 5b 3c
       -0.008746537 -0.026849438 0.016112084 0.013385127
000050 79 54 9d 3a df ef 30 3c 3e 0c 69 3c 8b d7 45 bb
       0.0012003324 0.010799377 0.01422411 -0.0030188288
000060 fb ca 1e 3c fd b7 3f 3c 1b 39 89 bc 5b d6 1c bb
       0.009691949 0.011701581 -0.016750863 -0.0023931477
000070 62 11 6f 3c 51 52 5b bc 45 6e 06 bc b9 ca 3b bb
       0.014591547 -0.013386325 -0.008205001 -0.0028654768
000080 12 99 f3 b7 ea c8 4a 3c 78 04 15 3b a9 e7 c9 bb
       -2.9039136e-05 0.012377003 0.002273826 -0.0061616492
000090 bf c6 9d bc 20 30 93 bc 24 1d 61 b9 19 db b2 bc
       -0.019259809 -0.017967284 -0.00021468528 -0.02183299
0000a0 89 33 aa 3c 3a b5 bb bc 97 3c 48 bc a8 c3 aa bb
       0.020776527 -0.022913564 -0.012221477 -0.0052113123
0000b0 3f ce 37 3c 3e 67 ba 3b 3d c8 2b bc 5a da 89 ba
       0.0112186065 0.005688577 -0.010484752 -0.0010517344
0000c0 bf 84 11 3c e4 02 ac 3c 19 75 c3 3b a7 8d c6 bb
       0.008881747 0.020997472 0.005964887 -0.0060593667
0000d0 c0 d5 33 bc 65 40 1d ba 17 e9 26 ba b9 49 6f 3c
       -0.010976255 -0.000599867 -0.00063671306 0.014604979
0000e0 31 28 9f bc 63 80 4e 3c 52 17 d1 bb 28 19 7d 3c
       -0.019428344 0.012603852 -0.006380954 0.015447892
0000f0 33 9a 18 bc 42 9b 80 bc e2 7c 48 3b 4f 1e ae bc
       -0.009314108 -0.015699033 0.0030592014 -0.021254687
