assignment2/part1/exercise1.1/net_model_wts.pth (torch, 855432 bytes, 8 tensors)

conv1.weight f4 [32, 3, 3, 3]
000000 43 1e 2b 3b f0 a6 dd 3d 0e a2 1e be e5 97 0d be
       0.0026110567 0.108228564 -0.15491506 -0.13827474
000010 c4 e1 8b bd 00 df 61 3d 13 1b 3b 3a 38 cf 22 3e
       -0.06830171 0.05514431 0.0007137518 0.1589936
000020 53 ec 35 bc 78 58 52 3d 78 72 6c bd 87 80 19 bd
       -0.011103707 0.0513539 -0.057726353 -0.03747609
000030 d8 dc 3a be 39 8a 01 be eb 75 a0 bd 0c 31 01 3c
       -0.18248308 -0.12650384 -0.07834991 0.007885229
000040 b2 30 9c 3d 09 fb ec 3d 4f 9a 04 be 95 59 aa bd
       0.076264754 0.11571319 -0.12949489 -0.08317868
000050 7d 16 8e 3d be 6b 22 3e dc 03 21 bd f5 5d 12 3e
       0.06937883 0.15861413 -0.03931032 0.14293654
000060 0b 37 fc bc 26 93 a5 3c 9c 1b 31 3e ec 72 35 be
       -0.030787965 0.020211767 0.17295688 -0.1771962
000070 4b 45 f6 bd 4c 10 46 bd a8 7c 98 bd d3 fe 28 3e
       -0.12024935 -0.048355386 -0.07445651 0.16503458
000080 2e 90 fd bd 35 14 b4 bd cb a6 08 be 1b 30 37 be
       -0.12381016 -0.08792917 -0.13344876 -0.17889445
000090 26 22 e5 bd 8c 17 28 3e 0d cc af 3d 8a 41 bd 3d
       -0.11188154 0.16415232 0.085838415 0.09241016
0000a0 f7 80 1d 3c 51 d7 c8 bd 3a fc 04 3d 1e c8 36 be
       0.009613267 -0.09806693 0.032467104 -0.17849776
0000b0 d4 54 0d be ee ab c9 bd 7e d1 f6 3d 55 5d e5 3d
       -0.1380189 -0.09847246 0.12051676 0.11199442
0000c0 f4 7d ad bd bc d7 e1 bb 06 31 fa 3d e7 72 42 3e
       -0.08471289 -0.0068921726 0.12216382 0.18989144
0000d0 e8 41 9b 3d ac 63 d3 3c a8 b2 0c 3e 86 96 db bd
       0.0758093 0.025804363 0.13740027 -0.107220694
0000e0 08 bb 27 3d 7b c4 13 be b0 90 07 be 68 df c9 bd
       0.04094985 -0.1443042 -0.13238788 -0.098570645
0000f0 28 79 c4 3d d5 9e a8 3d 18 3a e0 bd b7 9e 9b 3d
       0.09593421 0.0823342 -0.109485805 0.07598632
000100 b9 2d fc 3d 37 54 e1 bb b4 1c d3 3c bc 81 7d 3d
       0.123134084 -0.0068764943 0.025770523 0.061891302
000110 d7 ca 0a 3e 44 2b 4d 3e 57 76 07 be 40 17 66 bd
       0.1355394 0.20036036 -0.13228737 -0.056174517
000120 20 be 99 3d ae 0f 22 3e 9a 35 2a 3e f2 95 2c 3e
       0.075069666 0.15826294 0.1662201 0.16854075
000130 c3 b4 1b 3d 55 16 2a be 7a f2 8f 3c 75 bb f4 bd
       0.038014185 -0.16610081 0.017571677 -0.11949817
000140 6e 49 36 be 55 e1 32 3e b4 0a 17 3e b9 c4 42 be
       -0.17801449 0.1746877 0.14750177 -0.19020356
000150 72 1c 21 3d c5 62 fc bc 87 12 00 bd 0f 6b ae bd
       0.03933377 -0.030808816 -0.03126767 -0.085165136
000160 62 22 98 3d 5e a2 e7 bd 2a e5 a5 3d 2e 1d da 3d
       0.07428433 -0.11310266 0.0810035 0.10650097
000170 0a 73 15 3e 20 5c a7 3d df a2 39 be 2a 30 f2 bd
       0.14594665 0.08171868 -0.18128537 -0.11825593
000180 c0 09 d8 3d 0f 75 40 3d 3b c0 14 be a6 41 e1 bd
       0.10548735 0.046986636 -0.14526455 -0.109988496
000190 da 01 38 3e dd cb 03 3e e3 91 aa bd 1d ea 44 bd
       0.17969456 0.12870736 -0.08328607 -0.04807483
0001a0 1f 53 3a be d4 00 61 bb ab 4b 13 be e1 df 16 be
       -0.1819577 -0.003433277 -0.14384334 -0.1473384
0001b0 e4 b7 13 3b 8f e3 24 3d 61 c5 86 bd 35 5f 03 3e
       0.0022540027 0.04025608 -0.06580616 0.12829287
0001c0 08 6c d3 bd 3a e0 40 3e 53 72 14 3e 41 37 1a be
       -0.1032334 0.18835536 0.14496736 -0.1506014
0001d0 98 c4 10 bd 67 c6 b8 3c 46 bd 21 3d 26 9f 5c 3d
       -0.035343736 0.022555543 0.039487146 0.053862713
0001e0 06 93 b3 3d 2b ff a5 3c 68 b9 b6 bd 0c 31 cd 3d
       0.08768277 0.020263275 -0.08922082 0.100191206
0001f0 6a 23 37 be ee 98 e7 bd bd da 43 bd 1e 8e be bd
       -0.17884603 -0.11308466 -0.047816027 -0.093044505
000200 2b da 88 bd a4 50 20 be de 6c 26 bd 6c 3d 27 3d
       -0.06682237 -0.15655762 -0.040631168 0.04083006
000210 3d d9 fe bd 29 9b 20 bc 91 04 0c 3e f9 28 8f 3c
       -0.12443779 -0.009802618 0.13673617 0.017475592
000220 6c 0b 34 3d e8 05 b7 3c da e1 a2 3d 09 3f 28 3e
       0.043956205 0.022341684 0.07953234 0.16430296
000230 b0 8d 65 3e 12 7b 25 3e 5f ba 64 3e 9e 82 de 3c
       0.2241733 0.16160229 0.2233672 0.027161893
000240 a7 92 2f be ff ca af bd ae 57 0e 3e e5 f3 94 ba
       -0.17145787 -0.0858364 0.13900635 -0.001136419
000250 e1 70 c2 bd 16 82 15 be 10 ee 36 be bf 15 25 be
       -0.09494186 -0.14600405 -0.17864251 -0.16121577
000260 e8 50 1d bd 4f 88 d6 3d b0 7e d3 3d ae a3 3c be
       -0.038407236 0.104752176 0.10326898 -0.18421814
000270 df 04 f4 3d 54 0e 19 be 83 67 25 bd 33 9e 9e bd
       0.119149916 -0.14946872 -0.04038192 -0.07745018
000280 0e b3 16 bd 9b 9d 19 bd b9 84 2f be a4 e2 28 be
       -0.036791854 -0.03750382 -0.17140473 -0.16492707
000290 95 a6 db bc 52 0c 2f 3b 9d 66 af bd e1 cf 9e 3d
       -0.026812831 0.0026710224 -0.08564494 0.077544935
0002a0 50 d7 2f be f4 a0 2b bc bd 51 33 3e 08 77 85 bd
       -0.17171979 -0.010475386 0.1751165 -0.06516844
0002b0 4f 06 41 3e d8 97 aa 3d 54 f2 24 be 72 d3 0a 3e
       0.18850063 0.08329743 -0.16108066 0.13557222
0002c0 32 e1 23 bc 40 22 9c bd b4 2e 29 3e c4 c2 14 be
       -0.010002421 -0.0762372 0.16521722 -0.14527422
0002d0 5c e8 a7 3c 99 ce 23 bd 86 ad 0b 3e 0b 66 5a 3d
       0.02049654 -0.03999195 0.13640413 0.053319972
0002e0 62 f8 bb 3d 38 27 8a 3d d5 24 3c bd 3a 8a 24 bd
       0.09178235 0.06745762 -0.045933563 -0.040170886
0002f0 f5 2f 21 be ff 52 f1 3d f0 d2 2d 3e 19 ab 19 3e
       -0.1574095 0.117834084 0.16974998 0.15006675
000300 ee 09 01 be 46 59 af 3c b4 6e f5 bd 00 2a ce bd
       -0.12601444 0.021404874 -0.119840056 -0.100666046
000310 ac 33 d4 bd ec 10 9d 3d c4 cc e6 bd c5 85 2e bb
       -0.10361418 0.07669243 -0.11269525 -0.0026630026
000320 15 f2 2e 3c 57 ac 01 3e 38 95 12 be 83 47 06 be
       0.010677834 0.12663399 -0.14314735 -0.13113217
000330 31 e2 db bd 42 3b 0c 3e ec c9 8a bd bb fb 24 3e
       -0.10736502 0.1369448 -0.06776795 0.16111653
000340 4a 75 8d 3d 04 24 c6 3c 00 5f ba ba c7 a9 1a bd
       0.06907137 0.024187095 -0.0014218986 -0.03775957
000350 79 53 c4 3c 4f a7 32 bd 87 ea af ba 64 a7 c7 3c
       0.023965584 -0.04361659 -0.0013421335 0.02437181
000360 61 f2 18 be d7 b5 c1 bd b7 16 29 3e fd b1 1e be
       -0.1493621 -0.09458511 0.16512571 -0.15497585
000370 2e 3d 04 bc 93 b5 4c 3e a9 59 90 3d 46 ab 29 3c
       -0.008071227 0.1999114 0.07048351 0.010355776
000380 76 d6 20 be 96 75 d4 3d 11 37 04 be 4a 3b 3e bd
       -0.1570681 0.1037399 -0.12911631 -0.04644326
000390 39 f4 58 bd 1f 70 93 bc 10 6c 58 3c 49 ff 2e 3e
       -0.052967284 -0.0179978 0.013209358 0.17089571
0003a0 5f 2d 17 3d 31 96 3d 3e 27 4c ef 3d 49 51 f7 bd
       0.036908504 0.18514325 0.11684447 -0.12076051
0003b0 9a 73 af 3d 30 44 0a be 1e cc a5 bd 09 1e 66 3d
       0.08566971 -0.13502574 -0.08095573 0.056180988
0003c0 36 2b 81 3d f1 bd 12 3e c1 dc 7b bd c7 45 b4 b8
       0.0630707 0.1433027 -0.061489824 -8.596066e-05
0003d0 89 21 ca 3d a6 29 3d be 2d fc 0c 3e 23 41 21 be
       0.098696776 -0.18472919 0.13768072 -0.15747504
0003e0 60 5e 37 3b 0f 08 09 bd d8 07 ce bd b3 6b ce 3c
       0.0027979836 -0.03345495 -0.1006009 0.02519784
0003f0 22 7e 21 3e 4a 7f 65 bd 62 5e e8 bd 0a 59 91 bd
       0.15770772 -0.056029595 -0.11346127 -0.07097061

conv2.weight f4 [32, 32, 3, 3]
000000 a2 73 72 3d 9b f5 c1 bc a0 32 64 bb 8b 87 ca bc
       0.059192307 -0.023676684 -0.0034820214 -0.024722835
000010 e3 44 f4 bb aa 83 59 3c 7b a0 0a 3c a6 6f 2d bc
       -0.007454501 0.01327602 0.008461113 -0.010585701
000020 63 ae 6d bd 22 2a 83 3b 1e 3a 39 ba 81 ec 22 3c
       -0.058027636 0.0040028254 -0.000706585 0.009944082
000030 ef bb 3c 3d 70 48 6d 3d 98 39 0a bd 35 7e 13 bb
       0.046077665 0.05793041 -0.033746332 -0.0022505645
000040 0d 45 b7 bc 38 24 59 bd 95 4e 1a bd 16 a2 76 3d
       -0.022371793 -0.053013057 -0.037672598 0.06021317
000050 a1 97 1f 3d c8 28 13 3d 68 7e 18 3d 6a 48 2e bd
       0.038962964 0.035927564 0.037229925 -0.04254953
000060 01 a1 21 3c ac 8d 6e 3d 2b 64 f2 bc 22 a0 68 3d
       0.0098650465 0.058240578 -0.02958878 0.05679334
000070 fe 3f a8 3c a4 5d 3f 3d 6d 27 a7 bc 94 9e 02 3d
       0.020538326 0.046720162 -0.020404542 0.031889513
000080 37 10 40 bd f9 f0 9a 3a 31 0d ca 3c b7 fc b8 3c
       -0.046890464 0.0011821083 0.024664493 0.022581441
000090 83 db 54 3d 59 8e 7b 3d 0b c9 68 3d 10 2b 2d 3d
       0.051967155 0.06141505 0.056832355 0.042277396
0000a0 89 1e 38 3d e7 d2 8c bb 6d b0 2f bd 50 ef 97 bc
       0.044950996 -0.0042976025 -0.042892862 -0.01854673
0000b0 30 d2 82 bb 76 2d 95 bc 12 d0 2f 3d d8 f0 04 3d
       -0.0039923415 -0.018210154 0.04292304 0.03245625
0000c0 fe c9 b1 3c 72 31 d5 3c 16 96 7e 3d 84 dc fd 3c
       0.021702763 0.026024554 0.06215485 0.03098894
0000d0 3b 29 2c bd 18 70 0b bd 43 57 f3 3c 3d be 2d 3c
       -0.042031508 -0.034042448 0.029704696 0.010604438
0000e0 c0 e7 fd 3c e2 c9 60 bd e1 c0 54 bd 9c 8c 1a 3d
       0.030994296 -0.05488003 -0.051941756 0.03773175
0000f0 c3 45 25 3d fc dc 51 bd d8 73 c5 3c 46 a3 2d bd
       0.040349733 -0.051236138 0.02410309 -0.042392038
000100 76 b5 40 3d 99 0d aa 3c 9b 32 7b 3d 2c 8f 5f bd
       0.047048055 0.020758437 0.061327558 -0.0545799
000110 aa f3 5a bd a0 ae 32 3d 64 ca 63 3d d0 3a 20 3d
       -0.053455032 0.043623567 0.055612937 0.039118588
000120 63 22 30 3d b3 30 3b bd fa 99 39 3d 4c 2e 55 bd
       0.043001544 -0.04570074 0.04531286 -0.052046105
000130 b4 ac 81 3c 53 fe 13 bd a7 77 a9 bc 99 37 4a 3c
       0.015829422 -0.036131214 -0.020686937 0.012342357
000140 f9 c4 b0 bc 2e f8 0a bc 2f 42 5f bd 0c e7 5d bd
       -0.021578299 -0.008482022 -0.054506477 -0.05417542
000150 9d de bf 3c e7 62 c2 bc d1 3f 0d bd 9d a8 b6 bc
       0.02342158 -0.023728801 -0.03448469 -0.022297198
000160 1b 9c 3f bd 7f e7 3a bd 12 5f 1b 3d 41 ec 06 3d
       -0.046779733 -0.045630928 0.037932463 0.032940153
000170 fd f8 2d 3c 70 fa f4 bc ab d9 b1 3c 84 0e 95 3b
       0.010618445 -0.029904574 0.021710237 0.0045488495
000180 38 71 25 bd c5 57 66 3c 96 da 5e 3d 44 c3 66 bd
       -0.040391177 0.014059012 0.05440768 -0.056338564
000190 7f b9 68 bd 66 aa 0f 3c 30 f8 37 3d 04 0f 0e bd
       -0.056817528 0.0087686535 0.044914424 -0.03468229
0001a0 3e 67 5e 3c b3 fe 2c 3d 0e 9c 9c 3c 3b 7a 5c 3c
       0.01357442 0.042235088 0.019117381 0.013456876
0001b0 a9 f3 95 3d 4f 79 56 3d 53 f9 a6 bc 7c 7c a1 3c
       0.07321865 0.052361783 -0.020382559 0.01971268
0001c0 e9 45 34 3d 12 15 83 3d f6 04 3a bd f9 d0 34 3d
       0.044011984 0.06400503 -0.045414887 0.044144604
0001d0 fa da c2 bb a2 30 53 bd c6 27 a1 3c 23 39 d4 bc
       -0.005946514 -0.05156005 0.019672286 -0.025906151
0001e0 d9 0a 62 3c cf da 00 bd ad 51 1c bd c5 21 2d b9
       0.013796532 -0.031458672 -0.03816383 -0.00016511146
0001f0 53 a4 64 bc 86 35 21 3d 77 eb c5 3c 4d 65 82 3d
       -0.013955194 0.039357685 0.02416013 0.06366978
000200 7c 3c dc 3c 3e 2f d6 b9 cc fe 69 3d 33 8f 98 3c
       0.02688431 -0.0004085246 0.05712776 0.01862297
000210 40 76 df 3c 8b c4 4d bb 0c 9b 67 3c ea 7e 51 bb
       0.027278066 -0.0031397666 0.014136087 -0.0031966516
000220 db 7b e0 3a 26 1f 22 bd 9b 56 eb 3b 2f e4 2c bd
       0.0017126756 -0.039580487 0.007181955 -0.0422098
000230 46 45 de bb 8b ff 25 3d 5f 5a 0f bd e6 82 0d bd
       -0.0067831604 0.040526908 -0.034998294 -0.034548663
000240 29 4c 52 bc db 8e 66 bc 76 37 44 3c 17 77 39 3c
       -0.012835541 -0.014072145 0.011976114 0.011319897
000250 96 a0 00 3d 95 e1 1d bd 7c c5 25 bb 8c 26 0d 3d
       0.031403147 -0.03854521 -0.0025294712 0.03446059
000260 c5 a2 56 3d dd 95 48 bb 8d 7c 04 bd b3 68 96 3c
       0.052401323 -0.0030606904 -0.032345343 0.018360471
000270 57 96 0d 3d cb e5 0f bd 92 0a 06 bd 98 96 da 3c
       0.034567203 -0.035131257 -0.032724924 0.026683137
000280 3f 8c 50 bb 78 6b 5f bd 7c e8 c1 bc c0 b3 0a 3d
       -0.0031821874 -0.05454585 -0.023670428 0.03386283
000290 d0 4a 30 bc 91 82 49 3d f6 b5 61 3d 22 2b 87 3c
       -0.010760024 0.049196783 0.055105172 0.01650006
0002a0 cc d9 2a 3b 72 d9 37 bc b4 8a 74 3b a8 ff 69 3c
       0.0026069758 -0.011221277 0.0037314119 0.014282145
0002b0 e5 0a 2c bd 83 78 3f bc f4 29 39 bd 64 d9 1d 3d
       -0.042002577 -0.011686447 -0.045206025 0.038537398
0002c0 b8 8e 0f bd 40 db 66 3d 5a bd 51 bc eb de 01 bd
       -0.035048217 0.056361437 -0.012801493 -0.03170673
0002d0 ed 9a fa 3c 77 e0 2c 3c cb b3 2d 3d ad 9e db 3c
       0.030591452 0.010551563 0.042407792 0.026809061
0002e0 e7 e5 5e bd 10 03 1f 3d 9d 73 16 bc cb a5 c6 bc
       -0.05441847 0.03882128 -0.009182838 -0.024248978
0002f0 45 ca 1d 3d 3b 4d 59 3d 1a 90 2b bd 75 74 4f 3b
       0.038522977 0.05305217 -0.041885473 0.0031655107
000300 5b 2d 6f 3d bb 50 04 3d 9f bd 6d 3d 0d 07 33 bc
       0.058392864 0.032303553 0.058042165 -0.010926974
000310 5f b7 c1 bc 07 8a 6e 3d 8f 9d 05 3d 12 a6 83 3d
       -0.023647008 0.058237102 0.032620963 0.0642816
000320 ec 7e 86 bc 82 d3 ec bc 57 8d e9 3a e4 1d 3f bd
       -0.016417943 -0.028909449 0.0017818612 -0.046659365
000330 2d 94 f9 3c 54 aa 50 3d dd 33 b1 3c 91 00 57 bb
       0.030466164 0.050943688 0.021631176 -0.0032806734
000340 25 99 02 3d 64 1c 0c bd 6b 05 77 3d f4 d8 60 bd
       0.03188433 -0.034206763 0.0603079 -0.054894403
000350 66 32 59 bd 4a 78 2f bc a0 0f 52 3d d1 21 15 3c
       -0.05302658 -0.0107098315 0.051284432 0.009102301
000360 5a f3 dd 3c 47 0d 20 bd 85 8f c7 3c e3 f8 29 bb
       0.027093578 -0.039075162 0.024360428 -0.0025935702
000370 17 ad db 3c ef fa 33 3d 46 5b e9 3c d2 36 0c bb
       0.026815934 0.04394048 0.028485905 -0.002139498
000380 37 82 c3 ba ab 37 e1 bc de 53 41 bc 9b 8b 3d 3d
       -0.0014916126 -0.027492365 -0.011799781 0.046275716
000390 29 33 6a bc cc 77 3a 3d 2f 36 79 bc 4c 10 b4 bb
       -0.014294424 0.045524403 -0.015210672 -0.005495107
0003a0 62 6e 1c 3c 50 9a 3d bd 27 ce 83 3b 0a f1 f9 ba
       0.009547802 -0.046289742 0.004022378 -0.0019069028
0003b0 a1 1b f5 ba 8a 07 09 bc 36 67 48 3d 79 84 39 3d
       -0.0018700251 -0.008363614 0.048926555 0.04529235
0003c0 74 c6 1b bd c7 96 e9 3c ad 11 38 bd 51 38 35 bd
       -0.038031057 0.028514279 -0.044938732 -0.04424316
0003d0 55 d3 bc 3c 48 9c b5 3b 26 14 c0 bc 60 a7 58 bd
       0.02304999 0.005542312 -0.023447108 -0.052893996
0003e0 e7 0e 9f bc 4b a3 b4 3c d6 c9 54 bd b4 bf 61 bd
       -0.019416286 0.02205052 -0.0519503 -0.055114463
0003f0 5e dc 62 3c 7d b6 1b bd c9 80 42 bd 9a e1 8c bc
       0.013846485 -0.03801583 -0.0474861 -0.017197419

conv3.weight f4 [64, 32, 3, 3]
000000 23 17 64 bd a7 dc 2c bd 28 32 56 bd f3 ec b2 bb
       -0.055686127 -0.042202618 -0.052293926 -0.0054603755
000010 34 d7 af 3c 2c 09 2f bd 64 e8 79 bb 8b d2 a6 bc
       0.021464922 -0.042733356 -0.00381329 -0.020364067
000020 4f 86 59 3d d8 84 5b bd e4 26 04 bd 4e 17 83 39
       0.053106602 -0.053593487 -0.03226365 0.0002500363
000030 8b 57 3a bd 43 fb 39 3d d0 76 58 bd 1e 73 99 bc
       -0.045493644 0.045405637 -0.052847683 -0.01873165
000040 27 d2 c7 bc a2 dd 9c b9 00 8b e3 bc 10 02 2c 3d
       -0.0243922 -0.00029919768 -0.027776241 0.041994154
000050 28 48 4e bd 58 81 fc bc 82 2d db bc 42 e7 64 bd
       -0.050361782 -0.030823395 -0.026755098 -0.055884607
000060 1e 63 6d bd 9e fa a9 3c a4 21 62 3d 33 88 11 bc
       -0.057955854 0.020749386 0.055207863 -0.00888257
000070 13 60 b8 bc 99 0b d9 3c 2b f4 0c 3d 88 84 56 bd
       -0.02250675 0.026494788 0.034412544 -0.052372485
000080 37 80 de bc 1d 8f 4b 3d ae 50 d7 3c 8d 4b 5d bd
       -0.027160747 0.04969703 0.026283588 -0.05402713
000090 14 20 95 3a 49 4a 35 bd a1 18 39 bd 98 8c ed bc
       0.0011377358 -0.044260297 -0.045189504 -0.028997704
0000a0 5b 2e 6e 3d 83 42 09 bd a7 29 25 3d f6 75 58 bd
       0.058149677 -0.033510696 0.040322926 -0.05284687
0000b0 25 16 74 bb f0 d3 58 3d b9 81 55 bc 28 36 a1 bc
       -0.0037244644 0.052936494 -0.013031417 -0.019679144
0000c0 45 34 d3 bc 93 ab 2c bd 86 af 9c 3c f8 69 2d bd
       -0.02578176 -0.042155813 0.019126665 -0.042337388
0000d0 24 6e 17 bd 3e 21 51 3d 41 47 32 3d ef d6 f9 bc
       -0.036970273 0.051057093 0.043524984 -0.030497996
0000e0 f8 a9 aa 3a 31 40 80 bc d9 a3 36 3d bc 1f 57 bd
       0.0013020625 -0.015655609 0.04458985 -0.0525205
0000f0 e4 05 57 bd 3f 45 eb 3c 0b b8 39 3b fe 05 8c bc
       -0.052495852 0.028719543 0.0028338458 -0.017092701
000100 d7 67 f6 3c 3a 9b c9 3c da ee 22 bd 4f 31 0a 3d
       0.030078812 0.02461015 -0.039778568 0.03373843
000110 a5 46 0e 3d ee 43 04 bc 5c f9 4d bd e4 03 cc 3c
       0.03473534 -0.008072836 -0.050286636 0.024904199
000120 6a ad 0e 3d 1f e2 6d bd 39 6a 5d bd 40 c7 e7 bb
       0.03483335 -0.058076974 -0.05405638 -0.007073313
000130 8e f2 51 bd 23 9a ee bc 10 64 3b 3d 2b 35 30 3c
       -0.05125671 -0.029126232 0.045749724 0.010754864
000140 b1 8a 0f 3d 1d f6 61 3c de 3f 6a 3d 9a 92 c6 3c
       0.035044376 0.013791588 0.057189815 0.024239827
000150 cc 3f 8d 3c 57 94 35 3d 3c f8 bd bc e2 88 4d 3d
       0.017242335 0.04433092 -0.023189656 0.05017937
000160 f0 79 ba 3b 0b ae 5b 3d fd d2 0e bd ee 76 22 bd
       0.0056908056 0.053632777 -0.034869183 -0.0396642
000170 e6 50 30 3d 77 fb 09 bd 78 31 3b 3c 7f 00 65 3d
       0.0430459 -0.03368708 0.0114253685 0.055908676
000180 13 b7 36 3c 7f 29 29 bd a7 5e 11 bd b3 42 04 bd
       0.011152047 -0.04129934 -0.035490658 -0.03229017
000190 56 62 22 bd ab c4 00 3d 85 68 0b 3c 5e 54 ad bb
       -0.03964456 0.031437557 0.008508806 -0.0052895984
0001a0 8a 9c 85 3c 03 de 0c 3d 4b f8 ae 3b e0 9c 1b 3d
       0.016309995 0.034391414 0.0053396574 0.037991405
0001b0 d1 87 00 bc 93 62 b9 3c 7c ec 50 3c 05 99 07 3a
       -0.007844881 0.022630012 0.012751695 0.0005172643
0001c0 82 63 2e 3d ea 23 68 3d 9e 8a 41 3d 81 df 6f bc
       0.042575367 0.056674875 0.047251336 -0.01464069
0001d0 55 73 9a bc 90 42 45 3d eb 70 d9 bc cc 5a cf 3b
       -0.018853823 0.048159182 -0.026543101 0.0063279625
0001e0 ce dd 07 bd 93 5e 78 bc a4 26 b1 bc 16 06 16 3d
       -0.033170514 -0.015159267 -0.02162487 0.036626898
0001f0 a5 c1 d0 bc 1a 0a ce bc 12 2e cb 3c 8d 65 49 bb
       -0.025482962 -0.025151301 0.024802241 -0.0030730695
000200 34 14 cf 3b da a2 32 bd 04 40 cf bc 70 02 f8 3c
       0.006319547 -0.04361234 -0.02529908 0.0302746
000210 b0 eb de 3c 03 3d 5a bd 2a 68 24 bd d1 bc 8b 3c
       0.027211994 -0.05328084 -0.0401384 0.017057808
000220 30 9a 3b bd f0 9e fa bc 04 14 07 bd 6a 2a 36 bd
       -0.04580134 -0.030593365 -0.032978073 -0.044474043
000230 3c 86 e7 bc b2 61 29 3d 84 e7 5a bd 44 9f 20 3d
       -0.02826225 0.041352935 -0.053443447 0.039214388
000240 a0 6f 4f bd c5 f6 80 bc da 94 9f bc 64 2a 18 3d
       -0.050643563 -0.015742669 -0.019480158 0.0371498
000250 9b c3 41 bd 55 a2 ec bc 83 3a 6b bd 89 3a 8b bc
       -0.047305685 -0.028886 -0.057428848 -0.016995685
000260 4b 61 c2 3c df e9 62 3d 70 eb 4f 3d 34 15 7d bc
       0.023728034 0.055398818 0.05076164 -0.01544695
000270 da 47 fe bc 3c 4b 57 3c 4e 59 1f 3d 13 5c 57 3d
       -0.03104012 0.013140496 0.038903527 0.052578043
000280 e8 1c 25 3d 19 bd 48 ba 62 d7 45 bd 6f 97 10 bd
       0.04031077 -0.0007657572 -0.04830111 -0.03530067
000290 a5 4f 13 3d 71 76 4b bd a9 53 2e bd b8 8c 16 bd
       0.035964627 -0.0496735 -0.042560253 -0.036755294
0002a0 dc 23 7b bc 22 be e4 3c ec 97 28 3d 94 8f 38 3d
       -0.015328374 0.027922694 0.04116051 0.0450588
0002b0 3c 8a de 3c 60 af 59 3c fc 1a 7c bc 8d a2 12 bd
       0.027165525 0.013286442 -0.015387293 -0.03579955
0002c0 12 7b f3 bc 90 3d e4 ba 7b a4 4f 3d bf 33 aa bc
       -0.02972177 -0.0017413367 0.05069397 -0.020776628
0002d0 16 99 0e bc a4 a9 be ba 08 8d d5 bc a8 3b e3 bc
       -0.008703491 -0.0014546406 -0.026068226 -0.027738407
0002e0 d0 cd 88 3c 22 8b 2a bd 24 81 61 bb 52 8e 64 bc
       0.016699702 -0.041636594 -0.003440925 -0.013949947
0002f0 a4 40 58 3c 26 ca f2 bb 08 c5 f8 bc b3 60 85 bc
       0.013199005 -0.007409352 -0.03036739 -0.016281461
000300 05 65 6c bc f0 30 d0 3c 8a b3 73 3c b9 40 8f bc
       -0.014428382 0.02541396 0.014874348 -0.017486917
000310 99 14 3f 3d 26 79 cb 3b cf 10 03 3d fb ad b4 bc
       0.046650503 0.0062095104 0.03199845 -0.022055617
000320 02 05 48 bd 04 7f 66 bd 9f 82 9d bc fb df 16 3d
       -0.0488329 -0.056273475 -0.019227324 0.0368347
000330 a9 3d 18 3d 07 ea 94 3c c0 94 8c 3c 1f f2 20 bd
       0.03716818 0.018178 0.017160773 -0.039293405
000340 65 4a 8d bc 89 1b e8 3b 1f 09 51 bd 28 d4 59 bd
       -0.017247388 0.0070833606 -0.05103409 -0.053180844
000350 71 bf 35 bd a4 9c 94 3c 5b 7d f1 bb ab a7 28 bc
       -0.044372026 0.018141098 -0.00736968 -0.010293881
000360 46 3c 15 3d 5d 98 1f bd ef e2 11 bd 76 ba 5a bc
       0.036434434 -0.038963664 -0.03561681 -0.01335012
000370 77 55 14 3d a1 33 23 3c 8a 00 4d bd 30 63 2b 3d
       0.036214318 0.00996104 -0.050049342 0.04184264
000380 65 88 08 bd 16 e0 3a 3d 4e b1 af 3c 64 3b 7e 3c
       -0.0333332 0.04562386 0.02144685 0.0155170895
000390 64 43 46 3d a2 eb b0 3c 19 13 6b bd 3e 13 bf 3c
       0.048404112 0.021596733 -0.05739126 0.023324605
0003a0 6b 6c 68 3d d5 9d c6 bc c7 a7 2f 3d 1e 5b 42 3d
       0.05674402 -0.024245182 0.042884614 0.047450177
0003b0 a3 36 5c bc 8d bf 02 39 73 7e f0 bb 1e a4 55 3d
       -0.013440761 0.00012469124 -0.0073392927 0.052158467
0003c0 96 00 cb 3c 67 87 2b 3d 92 f7 53 bd 91 92 c1 bc
       0.024780553 0.041877177 -0.051749773 -0.023629459
0003d0 0d e1 33 bd 57 9b 61 3c 56 41 ba bc fb 57 8f 3c
       -0.043915797 0.013769946 -0.022736233 0.017498007
0003e0 1a 3c 02 3d 73 56 74 bc 35 b9 f7 3b b2 af 2c bd
       0.0317956 -0.014913189 0.00755992 -0.042159744
0003f0 b6 c8 da bb 5e df 1c 3c 21 73 2d 3d ce c3 c2 3c
       -0.0066767586 0.009574739 0.042346124 0.023775008

conv4.weight f4 [64, 64, 3, 3]
000000 95 96 ee bc 3d 23 d8 3c 0d a4 a7 bc e2 55 60 bc
       -0.029124537 0.02638399 -0.020463968 -0.013692351
000010 06 20 5d 3c 18 4e 04 bd 45 15 16 bd e6 fd 92 3c
       0.0134964045 -0.03230104 -0.036641378 0.017943334
000020 31 54 91 3c 19 83 b1 3c ed 01 16 bd c0 9b ef 3b
       0.01774034 0.021668958 -0.03662293 0.007312268
000030 eb 87 25 bd 57 46 11 3d ec 9c 73 3c 76 1c 0d 3d
       -0.040412825 0.035467472 0.014868956 0.03445097
000040 f8 fb d3 bc ba 0a 8b 3c d8 e6 c7 ba 2d 11 93 bb
       -0.025876984 0.016972888 -0.0015251292 -0.0044881315
000050 4f a7 c2 3c 7c b7 0a 3c f0 a5 fd 3c de 7a 1e 3d
       0.02376142 0.008466598 0.030962914 0.038691394
000060 19 d6 21 3d 1d 20 8a bc 2b c9 04 3d fd b0 21 3b
       0.03951082 -0.016861016 0.03241841 0.0024672144
000070 5e ee 88 3c 27 90 20 bd 03 72 a5 bc 40 60 e8 3c
       0.016715225 -0.039199974 -0.020195967 0.028366208
000080 1a 32 56 bc 4d d6 ac bb 88 af 88 3c b9 fe 1d bd
       -0.013073469 -0.00527457 0.016685262 -0.038573
000090 80 28 9c 3b b9 c0 23 bd a5 6c 39 3a c1 c8 63 3c
       0.00476557 -0.039978717 0.0007073379 0.013902844
0000a0 9b 51 98 3c 21 aa c0 3c b5 5c a1 3c fe e5 c8 3c
       0.0185936 0.023518624 0.019697526 0.024523731
0000b0 73 5d aa bc 5f 43 09 bd 53 ae 1e 3d 8c 85 d7 3b
       -0.020796513 -0.033511516 0.038740467 0.0065771993
0000c0 f5 cb 1e 3c bf ed 68 bc 12 82 06 bc 4a ed 5a bc
       0.009692182 -0.014216839 -0.008209722 -0.013362238
0000d0 9f b1 d1 bc 5f 3a 07 bd 7f 1f 8f 3c 79 da 9a 3c
       -0.025597392 -0.03301465 0.017471073 0.018903004
0000e0 99 c1 a5 3c 98 dd 1b 3d 3a 2d f7 3c 06 e7 f0 bc
       0.020233916 0.038053125 0.030172933 -0.029407036
0000f0 04 28 0b 39 67 5d c5 bb dc 4f c3 bc f6 08 b0 bb
       0.0001327098 -0.0060230973 -0.02384179 -0.005372162
000100 dd 24 12 bd 5c 3c 11 bd ce 75 14 bd ee 2b 97 3c
       -0.035679687 -0.035457954 -0.03624516 0.018453564
000110 a3 c4 9c 3c 88 28 18 bd 02 cf cb bc 4f b4 1b bd
       0.019136732 -0.03714803 -0.024878982 -0.038013753
000120 58 5f c4 bc 61 3f 8a 3b 62 ed f0 3c d7 4a a7 3c
       -0.023971245 0.004218981 0.029410068 0.020421429
000130 43 6f b3 bb 38 62 a5 3b c5 c7 b8 3c bd de 19 3d
       -0.00547591 0.005047109 0.022556195 0.037565935
000140 fd a6 28 3d 37 4b 73 3a 9c 8c 91 ba 12 aa 1c 3c
       0.041174877 0.0009280922 -0.0011104527 0.009562032
000150 52 9e 18 bd c4 15 cf ba a5 4d cc 3b 73 ac 12 3d
       -0.03726036 -0.0015799333 0.006234842 0.03580899
000160 09 ea 1e 3d ee 48 c3 3c 60 5c d1 bc f4 71 27 bd
       0.038797412 0.023838487 -0.025556743 -0.04088016
000170 77 22 8d 3a 1b 79 9b 3c 1c cf e9 3c 29 8e 8c bc
       0.0010767718 0.018978646 0.02854114 -0.017157631
000180 90 de 5f bc 6d 36 e1 3a 38 eb 8f 3b 5c 08 2b 3b
       -0.013663903 0.0017182358 0.004392054 0.0026097512
000190 4e b8 ac 3c 15 61 f2 bb 13 3b a8 3b 4c 72 f0 bc
       0.021083977 -0.007396827 0.0051339953 -0.029351376
0001a0 cc 5a 8c bc f0 14 4e bb 1e 6d 0b 3d 14 cb ef 3c
       -0.01713314 -0.0031445585 0.03403961 0.02927164
0001b0 aa 3b ed 3c 4e 5a a3 3c 07 47 b4 bc 4d 84 4f bc
       0.028959114 0.019940522 -0.022006525 -0.01266582
0001c0 7b 27 94 bc 79 c6 95 bb 89 4a 1c 3c 5f bb e8 3c
       -0.018085232 -0.004570779 0.009539255 0.028409658
0001d0 f5 1b 33 3c 10 e4 54 bc ff 0e f4 bc 16 89 02 bd
       0.010931958 -0.012993827 -0.029792307 -0.031869017
0001e0 85 00 97 3c 94 34 18 bc 19 f8 12 bd 3c fd 26 3c
       0.018432865 -0.009289879 -0.035881136 0.010192212
0001f0 c5 f1 f3 3c cc d0 dc bc cc 2c 94 ba 64 ba 4e bb
       0.02977837 -0.02695503 -0.0011304854 -0.0031544203
000200 f8 73 99 3c 18 dc ed 3c 57 1f f2 ba 25 00 b0 3b
       0.018732056 0.029035613 -0.0018472475 0.005371111
000210 05 4e 32 bc 67 c2 22 bc 4c 8e 95 bc ac d4 e4 3b
       -0.010882859 -0.009934044 -0.018256329 0.0069833603
000220 b4 00 8c 3c 4c a6 be bc 34 76 1e bd bb 76 bf bc
       0.017090179 -0.023272656 -0.038686946 -0.023372045
000230 bb df 8c 3c 19 ff bd 3c e1 12 1b bd 91 ca 33 3b
       0.017196527 0.02319293 -0.0378598 0.0027433971
000240 2b 83 f0 bc 43 95 c9 bc a9 09 7d bc cc cb 8c bb
       -0.02935942 -0.024607306 -0.015444198 -0.0042967554
000250 e2 22 f3 3c 0f 13 10 bb 52 16 ea bc 6f dd 14 3d
       0.02967972 -0.0021984016 -0.028575096 0.036343988
000260 3b 12 a7 3c a5 c4 ee bc 6d 44 66 bc a2 b1 27 3d
       0.020394435 -0.029146502 -0.0140544 0.04094089
000270 9d fb 9c 3c 68 c1 e2 3c 32 8e 29 3c 19 ca 46 3c
       0.019162947 0.027680114 0.010348843 0.012133145
000280 bb 05 e0 3c 04 74 a8 bc f0 e8 1b 3d a6 b0 19 bc
       0.027346483 -0.020563133 0.038063943 -0.009380495
000290 d6 4a 19 bd 75 4f e5 39 18 ef 25 3d 54 e0 fe 3c
       -0.037424885 0.00043737484 0.04051122 0.031112827
0002a0 e7 9d bf bc 0a c9 9d bc 3c bb fb 3b 36 9c e4 bc
       -0.023390723 -0.019260902 0.007682232 -0.027906518
0002b0 6e ae 81 3c 29 3f 6d bb 00 60 fc 3c e0 cc ba 3c
       0.015830245 -0.0036200976 0.030807495 0.02280277
0002c0 7a b6 cf 3a 09 17 02 3d d6 dd 91 bc f6 02 95 bc
       0.0015847229 0.03176025 -0.017805975 -0.018189888
0002d0 19 c7 2f bc 16 6e 90 3b ed 26 81 3b 54 df 40 bc
       -0.010728621 0.0044076545 0.003941408 -0.011771996
0002e0 ab c8 00 bd d5 d3 62 bb a9 41 00 bd 94 e2 c1 bc
       -0.031441372 -0.0034611125 -0.03131262 -0.023667611
0002f0 a4 50 0d 3c df cc 83 bc ab 1b c8 3b 2c 15 e9 3b
       0.008625183 -0.016088901 0.006106814 0.0071131196
000300 ae 43 31 bc a3 e0 db 3c 18 71 be 3c 3c 61 af bc
       -0.010819359 0.026840514 0.023247287 -0.02140867
000310 84 c9 27 bd 75 a5 27 bd 32 93 bf bb 5f 8f bd bb
       -0.040963665 -0.040929276 -0.0058464045 -0.0057849134
000320 17 99 97 3c 09 37 69 3c 31 b5 95 3c 71 59 20 3b
       0.018505616 0.014234313 0.018274875 0.0024467374
000330 db 38 44 3c d9 9d 54 bc e0 e8 17 3d 09 23 11 3d
       0.011976446 -0.012977087 0.03708732 0.035433803
000340 37 c5 5a 3b 49 1e 1f bd 11 ef de 3b 36 ec 8a bb
       0.003338171 -0.03884724 0.0068034013 -0.0042395843
000350 58 c8 81 3c c6 43 c3 bc c5 27 de 3c 59 23 da 3c
       0.015842602 -0.023836028 0.027118573 0.026628183
000360 f4 47 09 bd bf 3d c5 bc b0 00 cb bc b8 72 d5 bb
       -0.033515885 -0.024077294 -0.024780601 -0.0065139197
000370 4d c5 4e b9 6b 59 33 3b b5 47 fd 3b e1 22 1f bd
       -0.00019719191 0.002736653 0.0077294954 -0.038851622
000380 01 73 83 bb 7c e6 e7 3b d2 c7 42 bc 04 81 b4 3c
       -0.0040115123 0.0070770364 -0.011888461 0.022034176
000390 e1 ae 98 bc 89 5e a5 bb d7 ca a2 3c 2f 43 02 3d
       -0.018638076 -0.00504667 0.019872112 0.031802353
0003a0 11 e7 29 bc 8f 76 02 3c 23 1a a0 3c 08 25 eb 3c
       -0.010370032 0.007962837 0.019543713 0.028704181
0003b0 89 fa b7 bc 83 e3 2e 3c f8 87 b5 3c 7e 77 11 3d
       -0.022458332 0.01067436 0.022159562 0.035514347
0003c0 8d dc 94 3c 07 65 04 bd 1f e6 1a 3d a0 b1 e2 3c
       0.018171573 -0.03232291 0.037817117 0.027672589
0003d0 d7 9a 1b bb 4f 93 e8 3c 80 fd 23 3c e6 d6 91 3b
       -0.0023743415 0.028390555 0.01000917 0.0044506667
0003e0 73 f1 25 3d e2 46 c4 bc d2 07 f2 bc 96 ba 2d 3c
       0.040513467 -0.02395958 -0.029544745 0.010603568
0003f0 d4 72 d9 3c 22 f2 d4 3c 6b b0 9e 3c 5d c7 81 ba
       0.026544012 0.025994364 0.019371232 -0.0009901334

fc1.weight f4 [2, 64]
000000 29 71 1b bb 84 93 d6 bd 22 3b 66 bd e2 c9 e2 3d
       -0.0023718572 -0.10477355 -0.056208737 0.11073662
000010 4c 49 dc 3d 14 a6 2b be e5 c0 21 bd cc 3b 61 bc
       0.10756168 -0.16762573 -0.0394906 -0.013747167
000020 26 c6 1f 3d 82 fb 88 bd 75 b6 0c be 94 53 fc 3d
       0.03900733 -0.06688596 -0.13741477 0.12320629
000030 7a 6e 0d 3d 6c 7f 22 be 91 f6 14 be a2 39 64 bd
       0.034529187 -0.1586892 -0.14547183 -0.055719025
000040 bd 87 69 3d ba 92 06 3d 93 c5 9a 3d d3 da 2c 39
       0.057014216 0.032854773 0.075572155 0.00016484717
000050 89 d3 db 3c cd a5 f3 3c c7 e5 ff 3d 44 13 07 be
       0.026834266 0.029742146 0.124949984 -0.13190943
000060 0c d3 57 bd 72 6a 43 bc 7e 6f d4 3d 66 83 e2 3c
       -0.052691504 -0.011927234 0.10372828 0.027650546
000070 d0 f9 91 bd 3f 41 3e bc 66 8f d1 3c 44 3f 31 be
       -0.07127726 -0.011612236 0.025581073 -0.1730929
000080 62 de d0 bd 4a d3 05 3e 3d ae 23 3e 32 59 15 3e
       -0.10198666 0.13068882 0.15984435 0.14584807
000090 86 0d 10 be 75 b3 d5 bc 77 c1 21 3e 1d bd 05 3e
       -0.14067659 -0.026086548 0.15796457 0.13060422
0000a0 17 e9 9d 3d 1a d2 08 be c0 4e ec 3d ec 71 26 be
       0.07710474 -0.13361397 0.11538458 -0.16254395
0000b0 21 a9 0c be 79 65 63 3c 11 ac a2 3d 97 69 b7 bd
       -0.13736393 0.013879173 0.07942975 -0.089556865
0000c0 c7 92 d4 bd 4a 11 18 bd 2b 8f 05 bd 58 05 fc 3d
       -0.10379558 -0.037125863 -0.03260724 0.12305707
0000d0 c3 5f 02 3e b7 9a ae 3d b4 4f 9a bd db ce a8 bc
       0.12731843 0.08525603 -0.075347334 -0.020606449
0000e0 06 a8 91 3d 9c 61 92 3d df 79 48 bd 44 eb 06 bc
       0.07112126 0.07147524 -0.04894435 -0.008234803
0000f0 e4 86 03 bd 40 3e 72 bd a7 22 3c 3e bf ff 1f be
       -0.032111064 -0.059141397 0.18372594 -0.15624903
000100 58 20 41 bd b1 8d 6c 3d 10 1a 23 3e 5f 35 1d 3d
       -0.047149986 0.057752315 0.15927911 0.038380977
000110 20 bd 29 3d ff ac 23 3e 99 55 e1 bd e9 59 4f bd
       0.04144013 0.15983962 -0.110026546 -0.050622854
000120 fe de 01 bd 08 90 3a 3d c0 11 92 3d c5 5f d2 3d
       -0.031706803 0.045547515 0.07132292 0.10272173
000130 f8 59 ad 3c b3 02 c9 3d a7 8d a9 3d ab 07 cb bd
       0.021161065 0.09814968 0.08278971 -0.09913572
000140 61 50 18 3e c4 95 c0 bd 73 12 a8 bb fc b5 a6 3d
       0.14874412 -0.094035655 -0.0051291524 0.081401795
000150 30 b0 53 3d ff 7c ab 3d e4 af 11 be 81 51 b7 bc
       0.051681697 0.083734505 -0.14227253 -0.022377731
000160 fb 5e 78 3d 25 48 01 3e 97 76 5c bd 1e 45 d6 3c
       0.060637455 0.12625177 -0.053824034 0.026156005
000170 a5 13 93 3d 53 4c e5 3b ba c3 b4 3d cf c0 90 3d
       0.07181481 0.006997624 0.088263944 0.07068025
000180 d4 62 fc bc 35 d7 33 be 6b c4 00 be 1a 2d f6 bd
       -0.030808844 -0.17562564 -0.12574928 -0.12020321
000190 6a 91 d5 3d 06 cb 49 3d ce 84 25 bd 3e b1 68 3d
       0.10428126 0.049265884 -0.040409856 0.056809656
0001a0 dd e1 0e 3a dc 25 72 3d e8 fc 19 be ad 59 19 3c
       0.00054505264 0.059118137 -0.15037882 0.009359759
0001b0 06 2d d9 3c bb ac 15 be ed 69 17 be 04 01 71 bd
       0.026510727 -0.14616673 -0.14786501 -0.05883886
0001c0 a2 e6 f4 3d 14 9c ff bd 7b 49 d0 3d 3b b5 65 3d
       0.11958052 -0.124809414 0.10170265 0.056081038
0001d0 c4 f6 a2 bd e1 92 21 be 85 4a 8b 3c 97 c4 83 3d
       -0.07957223 -0.15778686 0.017003307 0.06433981
0001e0 c7 c5 59 3c e9 49 18 3e 37 d4 15 be e8 07 05 be
       0.013291783 0.14871944 -0.14631735 -0.12991297
0001f0 ab 56 06 3d b5 6d 19 3d 6c 78 30 be 9b 7c d4 bc
       0.032797497 0.03745814 -0.17233437 -0.025938323

fc1.bias f4 [2]
000000 a0 5e 97 bd c8 1b a7 bd
       -0.07391095 -0.08159596

fc2.weight f4 [64, 2304]
000000 c3 3a 9a 3b f7 8d 22 bc d9 17 86 bc 0b 9c 37 3c
       0.004706712 -0.009921542 -0.016368793 0.011206637
000010 4e ce 06 3c 1b cf 6c bc c5 81 0d 3c 0e a3 97 bc
       0.008227898 -0.014453675 0.0086368965 -0.018510368
000020 17 90 3b bb 9b 2e 7a bc 22 d7 37 3c e3 04 38 bc
       -0.002861982 -0.015269901 0.011220725 -0.011231634
000030 29 b5 75 bc e3 16 9d bc 4c 70 cb 3b 65 a3 02 3c
       -0.014996805 -0.019175952 0.006208455 0.007973527
000040 9a 23 43 bc 6e a3 2e bc ee 59 3a 3b ea 50 f5 ba
       -0.011910344 -0.010659082 0.002843495 -0.0018716131
000050 ea 6a 45 bc 07 de ea 3b 11 a6 94 3b 3b 61 a9 3c
       -0.012049416 0.007167581 0.004536398 0.020676246
000060 eb a9 02 3c 96 15 df bb 21 69 80 bc c0 21 a3 bc
       0.007975082 -0.006807993 -0.01567513 -0.019913554
000070 80 02 33 bb 1b 94 11 3c f1 91 a5 bc ad 3d 87 bc
       -0.0027314723 0.008885409 -0.020211192 -0.016508901
000080 d9 bb 40 bc 58 e2 75 bc 85 5f d7 3b d3 4c 12 bc
       -0.011763536 -0.015007578 0.006572666 -0.008929449
000090 86 bd 44 bc ac 05 45 3c 93 a5 35 bc 38 65 8e bc
       -0.0120080765 0.012025278 -0.011086839 -0.01738225
0000a0 92 f3 3d bc 5f 9d 72 bc f6 be 54 3c 0c ce 77 3c
       -0.011593716 -0.014808028 0.012984982 0.015124809
0000b0 89 e0 92 bc 82 01 16 ba 21 44 b9 39 c5 32 b5 bb
       -0.017929332 -0.00057222706 0.0003533671 -0.005529734
0000c0 5c 3f cf bb fa b2 e1 3b 7a 75 47 bc ab 2f ac 3b
       -0.0063246917 0.0068877907 -0.012174005 0.005254706
0000d0 00 93 7d 3b a2 5c 70 3c df 5c 71 3c 09 27 84 3c
       0.0038692355 0.014670523 0.014731615 0.016131895
0000e0 85 ee 41 bb 36 f9 5b 3c 64 17 8a 3c 6b a6 8e 3c
       -0.0029591632 0.013426116 0.016856857 0.017413339
0000f0 0c a7 29 3c c6 11 52 bc 19 66 1f bc 39 d1 9f bb
       0.0103547685 -0.01282162 -0.009728932 -0.004877236
000100 ce a5 3e 3c f4 22 2e 3c 58 ae 8c 3c a9 13 3b 3b
       0.011636211 0.010628451 0.017172977 0.0028545654
000110 c7 35 96 bb b3 c6 83 3c ad 8a 9a 3c f4 1b 01 bc
       -0.0045840475 0.016085958 0.018864954 -0.0078802
000120 4c 97 d7 bb 37 ef c9 bb 18 9e 08 bc 46 8e 48 3c
       -0.0065793153 -0.00616255 -0.008338474 0.012240952
000130 8d e1 99 bb 07 cf 4d 3c d1 f6 e9 3a 38 1a 36 3c
       -0.004696077 0.012561566 0.0017850046 0.0111146495
000140 db fc 71 bc 97 26 0a bc 83 0f 7e bb d1 09 6d 3c
       -0.014769758 -0.008432052 -0.003876657 0.014467672
000150 1e 36 d8 bb 48 d0 5b 3c 22 24 18 bc e3 4e 95 3b
       -0.006598248 0.013416357 -0.0092859585 0.004556523
000160 31 67 6c bc ef c4 65 bc 19 9d b5 3b 9a 57 8d 3c
       -0.0144289 -0.014024003 0.005542409 0.017253686
000170 4f b0 3a 3c ba 43 98 bb ed 54 96 3b 12 c9 8d bc
       0.011394574 -0.0046467455 0.0045877607 -0.017307792
000180 a5 a8 92 bc 05 a7 37 bb 8e 20 d9 3b 37 4e 02 bc
       -0.017902682 -0.0028023135 0.0066261953 -0.007953218
000190 cc 5f 45 bc b5 38 9b bc 2b dd 3d bb a3 ba 8a bc
       -0.012046766 -0.018947938 -0.0028970938 -0.016934698
0001a0 8a d4 33 3c 2f f0 5c 3b eb 37 01 3c 18 a4 28 3c
       0.010975966 0.0033712497 0.007886867 0.010293029
0001b0 3d 4f d1 3b 69 94 0e 3c e9 81 a3 3c 8f 80 4d 3a
       0.00638762 0.008702376 0.019959407 0.0007839286
0001c0 ee e1 d8 bb fb 93 22 3c 8e 5a b4 3b 68 3c e1 3b
       -0.00661873 0.009922977 0.005503959 0.006873656
0001d0 8a d5 05 3b 2b 57 2e 3c 5f 85 8d 3c 43 03 3a 3b
       0.0020421469 0.0106409 0.01727551 0.0028383292
0001e0 00 8d 61 bc 02 b9 1f 3c b2 e2 8f bc 0f 40 04 3c
       -0.013766527 0.009748699 -0.017564151 0.008071913
0001f0 32 5f 38 3c 27 0f 11 3c 25 ff 8f 3b 55 d1 1e bc
       0.011253165 0.00885371 0.0043944293 -0.009693463
000200 59 03 5e bc b0 0c 02 3c e7 52 91 bc bb 5b a1 bb
       -0.013550603 0.007937595 -0.017739726 -0.004924265
000210 36 8b 9e bc 9e 20 04 3b e0 c0 65 3c 14 bf 7b bc
       -0.01935349 0.0020161043 0.014023036 -0.015365381
000220 4b b3 79 3c a7 45 af 3b c7 f7 8c 3b 42 4f 4c 3c
       0.015240501 0.0053488794 0.0043019983 0.012470068
000230 5c 98 91 3c cc 3f fe 3b 73 72 8a 3c 49 f4 a0 bb
       0.017772846 0.00775907 0.016900277 -0.0049119336
000240 08 d4 f0 3a e1 8a 89 bc d9 86 e7 bb 56 70 b6 ba
       0.0018373737 -0.016789855 -0.0070656356 -0.0013918977
000250 3e ab 83 3c 52 a0 00 bc 42 16 54 bc 88 ce a8 3c
       0.016072866 -0.007850723 -0.01294476 0.020606294
000260 97 ad 57 3b e7 53 89 bc 8b 38 46 3c 62 c1 83 3b
       0.0032909864 -0.01676364 0.012098442 0.0040208558
000270 55 54 95 3b 85 a4 12 bc 9f 85 a4 bb 5d 70 99 bc
       0.0045571723 -0.008950357 -0.0050208117 -0.018730337
000280 81 73 63 ba ce 5e 9f bb fd 81 77 bc 9e 31 fc bb
       -0.0008676574 -0.0048635965 -0.015106675 -0.0076963445
000290 68 27 36 3c b2 08 03 3c d6 ac 35 3c 78 fd 96 bc
       0.011117794 0.007997679 0.011088571 -0.01843141
0002a0 65 ba c3 bb c9 c5 d9 bb 04 16 a4 bb 7a fa 0b bb
       -0.0059731477 -0.0066458923 -0.0050075073 -0.0021359012
0002b0 c2 4f 3c 3c 36 84 ee ba f8 ec 46 3b 97 9d 8d 3b
       0.011493625 -0.0018197361 0.0030353647 0.0043217647
0002c0 0e d7 5b bb 95 56 29 bc cb 13 7f bc 38 65 69 3c
       -0.003354493 -0.010335584 -0.015568684 0.014245324
0002d0 ee 19 3b 3c 10 15 8a 3c 4a e6 c8 bb 5b d9 46 3c
       0.011419756 0.016855747 -0.006130968 0.0121367825
0002e0 d8 70 9c bc 23 87 3e bc 62 1e 52 bc fa e6 8b bc
       -0.019096777 -0.011628899 -0.012824627 -0.017077912
0002f0 48 a0 a1 ba 94 21 57 bc e9 0e 9f 3c ab 5e e4 bb
       -0.0012331093 -0.013130564 0.01941629 -0.006969293
000300 20 07 ab 3b 9a b8 a5 3c 5f 01 88 3c 49 1e 54 3c
       0.005219355 0.020229626 0.016602216 0.012946674
000310 e8 a7 c3 3b ed de 5c bc f5 7e 5b bc 6d ff 9d 3c
       0.0059709437 -0.013480884 -0.013396968 0.019286836
000320 22 dd f7 ba 29 7c 73 bc e8 de b8 bb ae 79 0d 3c
       -0.0018910507 -0.014861145 -0.005641807 0.008634968
000330 18 50 08 bc 72 70 13 bc d1 bf ab 3a c4 0d 0b bc
       -0.008319877 -0.008998977 0.001310343 -0.008487169
000340 f0 eb c6 3b e6 f3 f0 3a af 41 05 3c 7e f6 a9 bc
       0.0060706064 0.0018383234 0.008133336 -0.02074742
000350 6d 51 5f 3c ec 5e 46 bc 38 f0 16 3c 0c 65 7a bc
       0.013630253 -0.012107592 0.009212546 -0.0152828805
000360 60 71 53 bc d9 7d a2 bc 68 89 1c 3a 2e fe 62 3b
       -0.012905449 -0.0198354 0.0005971403 0.0034636366
000370 c6 2d 52 bc 2d bf 01 bc 42 14 de ba 75 ca 4a 39
       -0.012828296 -0.007919115 -0.0016943293 0.00019339642
000380 a7 48 16 3c 5b bb 64 bc 3c 4b 55 bc c7 a5 94 3c
       0.009172595 -0.013960685 -0.013018426 0.018145455
000390 61 d4 19 bb e8 4e 95 bc 43 bd 94 bc 34 b9 7e bc
       -0.0023472535 -0.018226102 -0.018156653 -0.015547086
0003a0 aa c1 c6 b9 a4 fa f5 bb b3 fa 9a bc 2a c5 68 3b
       -0.00037909794 -0.0075066853 -0.01891837 0.003551791
0003b0 77 1d a7 3c 9e a6 95 3c 6a a9 50 bc c6 72 0d 3c
       0.020399792 0.018267926 -0.012735704 0.008633321
0003c0 da 2d 0c bb f5 fa 90 3c a1 46 a9 ba 11 87 47 3c
       -0.0021389634 0.01769779 -0.0012914726 0.012178198
0003d0 b6 7e 20 3c a3 6a 0d 3c 7d 79 7c 3b 2a 71 27 bc
       0.009795835 0.008631381 0.003852456 -0.0102198515
0003e0 3f a4 37 bc a3 bc 06 bc 45 80 27 ba ad ec c1 bb
       -0.011208593 -0.008223685 -0.0006389658 -0.0059181065
0003f0 c8 82 72 3c 01 5d 7d 3c e5 49 cd 3b a4 9e 80 3b
       0.0148016885 0.015464068 0.0062649124 0.0039251614

fc2.bias f4 [64]
000000 82 8f 80 3c 04 51 14 3c b2 9e a5 3c 47 e1 95 bc
       0.01569343 0.009052519 0.020217273 -0.018295897
000010 f9 68 b3 3a e2 09 bc 3c 94 73 9c bc dc d8 18 3c
       0.00136879 0.022953931 -0.01909808 0.009329047
000020 39 c2 af bc 2d f9 e9 bb ec 90 5d 3c c3 a2 f6 3b
       -0.021454917 -0.0071403 0.013523322 0.007526727
000030 07 e5 59 3b af d4 04 bc 64 d8 a2 3c a8 57 38 bc
       0.0033248083 -0.008107348 0.019878574 -0.011251368
000040 12 20 49 3c c1 be 31 bc 7c ec 98 3b b4 84 50 3a
       0.012275713 -0.010848702 0.004666863 0.00079543446
000050 27 68 df b9 d1 23 d9 3b 8b 2e c4 3b b9 33 a8 3c
       -0.00042611474 0.006626584 0.0059869937 0.020532476
000060 44 f7 66 3c 3a 2f 09 bb 92 3e c1 bc 35 74 1f bc
       0.014097039 -0.002093269 -0.023589406 -0.009732296
000070 57 d0 d2 3b bd 0c 72 3c a6 64 99 3b 3d 21 00 bc
       0.0064335275 0.014773545 0.0046811877 -0.007820425
000080 19 c6 41 3b a9 3f 69 3b d7 56 28 bc 7a 4a ba bc
       0.0029567538 0.0035590923 -0.0102746105 -0.022740591
000090 9d 98 b0 3c e5 d2 77 3c b3 61 78 3b bc 59 82 3c
       0.021557147 0.015125965 0.003790003 0.01591193
0000a0 60 7a 3f 3b 19 14 de 3b 7e be ee bc 13 cd 88 bb
       0.0029217228 0.006777298 -0.029143568 -0.0041748374
0000b0 2c ed 01 bc 3b 21 89 bc f8 a2 cf bb eb 06 0b 3c
       -0.007930081 -0.016739478 -0.006336566 0.008485536
0000c0 05 28 ce 3c e1 25 59 bc a4 05 a0 3b 38 e6 83 bc
       0.025165567 -0.01325366 0.004883485 -0.016100988
0000d0 88 db cc 3a 7e 8b 91 bc 8f dc 63 bc 7b b8 ad 3c
       0.001562939 -0.01776671 -0.013907566 0.021206131
0000e0 03 12 76 bb f2 67 11 bb b9 db 81 bc 0e 28 98 bc
       -0.0037547357 -0.00221872 -0.015851842 -0.018573787
0000f0 12 a9 8d 3c dc 3d 40 bc 04 f0 0a bd 9e 79 92 bb
       0.017292533 -0.011733498 -0.033920303 -0.0044700643
